dataset/ppi4/0.003_1000/model.pth (torch, 58990 bytes, 20 tensors)

bias f4 [60]
00000000: 8359 493c 52af 963c 3c92 d63d 7787 6cbc
00000010: ddc3 2fbd 63fc cb3c e688 20bd c26a 953d
00000020: 7783 3dba cbd6 cbbc b220 9ebc 58f4 57bb
00000030: 132b 903d 294e 073d e05d 6d3c 28d4 0abc
00000040: 7909 07be bcf5 2b3e 0e5b a23d de9f 993c
00000050: 3530 fd3c 5974 963c 611d 1f3d d8d7 ae3b
00000060: ed6b 52bd c24d ecb9 6449 203d 0faf db3c
00000070: bef8 bd3c e795 fc3a cf5c 933c 357d b0bc
00000080: 4d10 693d 1f69 d5bd 9b08 3b3c de4c 083d
00000090: fa49 bf3d 439f 373e c862 69bd ab27 8ebd
000000a0: 2644 cbbd ecf1 5fbc b34d f73d 080c cdbc
000000b0: 3b46 2abe fc3e 613d a54f 7dbb abf2 073e
000000c0: b866 18be 3c6d b1bd 5049 9b3d 88c3 84bd
000000d0: 7b41 103e 667d 17be 832b 08bc feeb af3d
000000e0: e81d 013d 603b 50bb b955 5b3d e959 5b3d
0.012289408 0.018394146 0.10477111 -0.014436594 -0.0429114 0.02490062 -0.039193057 0.07295753
-0.00072293676 -0.024882695 -0.0193027 -0.0032952037 0.07039466 0.033033524 0.014487714 -0.008473434
-0.13187207 0.16792959 0.079275236 0.018752988 0.030906776 0.018366026 0.038846377 0.005335789
-0.051372457 -0.00045071362 0.03913249 0.026816873 0.023189899 0.0019270749 0.01798859 -0.021544078
0.05690031 -0.10420441 0.011415626 0.03327643 0.09340282 0.17931847 -0.05697897 -0.0694116
-0.09925108 -0.0136685185 0.12075367 -0.025030151 -0.16628353 0.054991707 -0.0038652208 0.13276164
-0.14882934 -0.08663413 0.075823426 -0.06482607 0.14087479 -0.1479393 -0.008311155 0.08589934
0.03152266 -0.0031773672 0.05354855 0.053552542

weight f4 [60, 50]
00000000: 6cf2 d2bd 9375 21bd 2b39 0abf f12d a73e
00000010: fb15 923e fe13 30bd 115d f53e adbd 0f3d
00000020: ced1 0bbd 5fce b6bc 8abc 18bc f09f 06bf
00000030: b0f0 bbbd d051 51bf 5035 633e 1c3f e0be
00000040: 4e9d 8b3e 3b16 bfbd 37fe 40be c903 123e
00000050: 5ac6 873d 8856 08bf 615c 0e3b ea70 023d
00000060: 0a86 963e 9d4d 9abe 0699 77be 1d13 4e3c
00000070: a439 953e 15a8 30be faf4 33bf d1b5 86bf
00000080: 4483 70ba f2bb 26be ade5 e0be 07d0 ff3e
00000090: f353 1abe d49c 8b3e dce5 1f3d ed48 2bbe
000000a0: 92c9 933d e60e 48be 3ec5 043e 4fdc 393e
000000b0: 2a1b 8fbe 106f e33e 25a9 e73d 7734 1b3d
000000c0: 971b 28be c98a 89be d8f9 983d 590f f8bc
000000d0: 7e06 253e 1acb d63e d6d8 5e3e 8f2d dcbd
000000e0: 3b80 f73e 277a 7c3d fb3d 81bd 8bc1 9e3d
000000f0: fec9 663e 7d55 a8be e4ed a0bd a056 2abd
00000100: 7789 e7bd 8e43 e2bd 3147 b93d 905e bdbc
00000110: 724a 55be b4aa b53e 4ace a5bb 1394 acbc
00000120: 4e63 353e e177 313d 8ec3 b0be f8c7 033e
00000130: 0c2a 25bf 48d4 793e c474 8f3e d649 aebe
00000140: 6da3 20be 34f2 733e 8d1c 92bf ba0f 9c3e
00000150: 19a6 e83e 4b49 93be d349 fcbe 5dbc a73e
00000160: 7d92 03be f829 51bd d8f6 733e 26d1 34be
00000170: 6c5b db3e 358e b03e a823 ecbe c6fa c53e
00000180: c457 0dbe 19d3 173e 50ff 093e c05f ea3e
00000190: ab9d 35be 559d 74bf 37e6 023d 756a 93be
000001a0: 9026 babe 5427 f33d 00b1 72bf 6352 5bbd
000001b0: 75da febe edf4 cb3c 088c 483d cc27 85be
000001c0: f34a 00be ca76 18be f17d 4ebe 227b 88bd
000001d0: effd babd c522 b23d 2034 74bb aa3c 193e
000001e0: c112 f3bd dbcf 4ebd fe3b ef3e 6675 a03d
000001f0: c23d 753e 98f1 743e e87c da3e 9ed4 4e3c
00000200: 9249 43bf 4c08 30bf 6601 033e 727c 6d3e
00000210: 7a35 efbe 3163 8c3d e5dd f1bd de51 40bd
00000220: 68b9 6abe 0ea8 b33e de0f aabe 958f edbd
00000230: 36fc 1fbf 88fb ce3e 2a38 fc3e c421 9c3e
00000240: 1f2c 10bf 271a 213e 6397 3dbd f9f8 d13e
00000250: a636 fd3b 7c24 403e 4e3b f5bd cee5 86bd
00000260: 3bed 383c 1b27 083e 857d 0f3f bd3c bcbd
00000270: 9c9e 923e 5edc b8bd 8a89 38be cdd5 ca3e
00000280: 60bd 593e 8cce b5bd dbba cc3d 6203 d83d
00000290: 8b75 183f b438 74be c4d1 273d 580f 313d
000002a0: 0a16 66be ecb8 fa3e 82d5 aabd 415a c63d
000002b0: 043e 4cbf c78b b63d 3750 0cbd 3c62 883d
000002c0: 074e 2b3f 941e 3bbe 9520 fc3b 98f9 aebc
000002d0: 893c 5cbf 4996 3a3d 2b9d 493e 0a48 d03d
000002e0: db43 4bb9 b319 d93e 798e 01bd eee6 8bbd
000002f0: e2c8 d8be c17f c9be 3b39 a7bd 5ec7 0dbe
00000300: a6ce 76bf d21d 9f3e d14e fe3e 643a d2be
00000310: 3fe7 aabe e58f 35be e55d c33d 46a5 4e3e
00000320: 992e d4be 8d90 e23d 58c0 fb3d eb57 afbd
00000330: 4702 f23d e9f8 30be f28e 043d 0a95 183e
00000340: cac5 c33c 306e 063e 9801 cd3c b2e1 2d3e
00000350: ddb9 cebc 44dd 2e3e 77bb e0bd 669e 293e
00000360: 2ab6 fc3d bd15 f03d c964 89bd 9e81 bd3e
00000370: 1f8a d23e 9fde 48bf 031c d33e 1c15 b1bf
00000380: dc9d 8c3e d23b 91be 2c89 543d 535e 8dbe
00000390: c92c 58bf 2e3e 8b3c 83f0 9dbe 64cd 8bbe
000003a0: ce68 7e3c aec6 193e ed84 2f3e 5097 ee3e
000003b0: 6747 e7be a834 c83d c8db 963e 8a70 283c
000003c0: 3d28 1e3e 43f1 8f3e f5a5 763e 9142 3dbf
000003d0: d58c e13b c212 c8be 4ee3 0ebe 8dce d5be
000003e0: 38b8 6cbe aaa9 ab3e c5f3 e6bc 918a 443e
000003f0: f3d1 06bf ade1 dcbd 8704 a73e 1eb4 d1be
-0.103001446 -0.03941877 -0.5399348 0.32652238 0.28532395 -0.042987816 0.47922567 0.035093
-0.034135632 -0.022315202 -0.009322295 -0.52587795 -0.09176767 -0.8176546 0.22188306 -0.4379815
0.2726845 -0.09330412 -0.18846975 0.14259256 0.066296294 -0.53257036 0.0021722543 0.031845964
0.2939914 -0.3013734 -0.24179468 0.012577799 0.2914554 -0.17251618 -0.7029568 -1.0524236
-0.00091748335 -0.16282633 -0.4392523 0.499634 -0.15071087 0.27268088 0.03903757 -0.16727038
0.07216181 -0.19536933 0.12965867 0.18150447 -0.27950412 0.4442067 0.11311559 0.03789183
-0.16416775 -0.26863697 0.07469529 -0.030280756 0.16115758 0.4195183 0.21762404 -0.10750877
0.4834002 0.06163993 -0.0631065 0.07751759 0.22537991 -0.32877722 -0.07857874 -0.04158652
-0.11305516 -0.11048041 0.09046782 -0.02311638 -0.2082918 0.354818 -0.005059992 -0.021066701
0.17713663 0.043327216 -0.34524196 0.12869251 -0.64517283 0.24397385 0.28018773 -0.34040707
-0.15687342 0.23822862 -1.1414963 0.30480748 0.45439222 -0.28766856 -0.49275073 0.32760897
-0.1284885 -0.051065415 0.23824632 -0.17657909 0.42843187 0.34483495 -0.46120954 0.38667887
-0.13803011 0.14826621 0.134763 0.45776176 -0.17735927 -0.9555257 0.03195783 -0.28792158
-0.36357546 0.118727356 -0.9480133 -0.053545367 -0.49776044 0.024897063 0.04896167 -0.26006925
-0.12528591 -0.14889064 -0.2016523 -0.06664111 -0.09130465 0.08698038 -0.0037262514 0.14964548
-0.118688114 -0.050491195 0.46725458 0.07834892 0.2394934 0.23920286 0.4267342 0.012623934
-0.76284134 -0.6876266 0.12793502 0.23192003 -0.46720487 0.06854857 -0.11809901 -0.046953075
-0.2292229 0.35089153 -0.3321523 -0.11599652 -0.6249422 0.40426278 0.492616 0.3049451
-0.56317323 0.15732633 -0.04628695 0.41010264 0.007727462 0.18763918 -0.11974202 -0.065868005
0.011287029 0.13296168 0.560509 -0.091912724 0.28636634 -0.09026407 -0.18021217 0.39616242
0.21263647 -0.08877286 0.09996577 0.1054752 0.59554356 -0.23849756 0.040971532 0.043227524
-0.22469345 0.4896921 -0.08341505 0.09685183 -0.7978213 0.08913379 -0.034256186 0.06659362
0.66915935 -0.18273383 0.007694314 -0.02135925 -0.8602987 0.04555348 0.19688861 0.1016999
-0.00019384867 0.4240242 -0.031630013 -0.06831156 -0.4234076 -0.3935528 -0.08165213 -0.13845584
-0.9640907 0.3107744 0.49669507 -0.41060174 -0.33379552 -0.17730673 0.09539393 0.20180234
-0.414418 0.11062727 0.12292546 -0.08561691 0.118168406 -0.17282452 0.032362886 0.14900604
0.023898024 0.1312797 0.025025174 0.16980627 -0.02523511 0.17076594 -0.10973256 0.1656433
0.123394325 0.11722896 -0.06708676 0.37012953 0.41121003 -0.7846469 0.4123231 -1.3834567
0.27464187 -0.28365952 0.05188863 -0.27611026 -0.84443337 0.016997423 -0.30847558 -0.27305138
0.015527917 0.15017197 0.17140551 0.46599817 -0.45171663 0.097756684 0.29464555 0.010280738
0.15445037 0.28113756 0.24086745 -0.739297 0.0068832436 -0.3907681 -0.13953897 -0.41759148
-0.23117149 0.3352788 -0.02819241 0.19193484 -0.5266411 -0.10785232 0.32620642 -0.4095773

bias f4 [60]
00000000: 02a4 6bbe b19a 483e 8670 52bd 1afd 993c
00000010: 62aa 33bd b0a6 73be d453 973e 0e20 dabc
00000020: 2379 2c3d bd2b ffbc 1089 24be 1506 3b3d
00000030: 5e3c b1bc 364d b5be 5333 8bbd 5271 2c3e
00000040: 39e7 7f3a cbf7 e9bd 675c 53bc a80f 043e
00000050: ffef f7bc 49b0 aebd 73f7 343e 28c1 23be
00000060: 26a0 9b3e 679a 1a3c c11d 06bc 06ac bbbd
00000070: b908 c5bd c781 80bd 07a6 03bc 094c b83c
00000080: fce1 07be c3fa 933d 13ad 173e cb1d 873d
00000090: e37c 5e3d 71e0 5dbc f699 67bd c38f 58bd
000000a0: 327f dfbd a561 223e e2bb 01bf 558d 653c
000000b0: 98ab 893d 52da f33e d377 bbbc e392 a83d
000000c0: 26da 8a3d 8485 163d 8c77 a23d 323d 9f3e
000000d0: 3535 033b d24b 87bb 651d d83d 72f3 85be
000000e0: 4d81 4abd 0527 273e aa98 b9be 443f 4a3d
-0.23011783 0.1959026 -0.051376842 0.018797446 -0.04386366 -0.23794055 0.29556143 -0.026626613
0.042107712 -0.031148786 -0.1606791 0.045660097 -0.02163523 -0.3541047 -0.06796899 0.16840103
0.0009761933 -0.11424216 -0.012900448 0.12896597 -0.030265806 -0.085297175 0.1767252 -0.15991652
0.3039562 0.009436226 -0.008185805 -0.0916367 -0.09620804 -0.06274753 -0.0080351895 0.022497194
-0.132698 0.072255634 0.14812116 0.065974794 0.05431832 -0.0135422805 -0.056543313 -0.052871477
-0.109129325 0.15857561 -0.5067731 0.014010747 0.06722182 0.47627503 -0.022884285 0.082311414
0.0677989 0.036748424 0.07932958 0.31101376 0.0020020728 -0.0041289115 0.105524816 -0.26162297
-0.049439717 0.16323479 -0.36249286 0.04937674

weight f4 [60, 60]
00000000: dd84 22be 537f 843e 609f 733e a038 f23e
00000010: 2f7f d4be 8e5d a1bc 3699 963d 8925 eb3d
00000020: 732b b83d 5d02 b73e 453b aebe 0f3a f23d
00000030: ee94 253d 3f3d 0abd 8ce3 c23c 99eb b93e
00000040: f2c4 b33d 914f 53be 37cf 10be e7a1 e1be
00000050: 3933 6d3e ee91 8cbe af05 473e d19d b03d
00000060: 84a9 413d 45e5 ca3d b5ef e63e 7fbb 8a3e
00000070: 3bb5 83be ae89 3dbe 21b1 16bd 8df7 9abe
00000080: 69ae 873d 9241 d9bd 73c0 3a3e cfa3 f3bd
00000090: af28 823d 26af 94be 4d26 dabc 124e d9be
000000a0: 5d16 5ebf 1b12 95be f3ed 083e bfda 8f3e
000000b0: 12a5 96be 3ea7 e53d e57c 96be 8626 783e
000000c0: ee05 82be 261c 843c 29c4 093d 281a 863d
000000d0: 49c9 c3bd 1e60 b03e 49d0 9d3d d12a 933e
000000e0: acdd 8dbd 9517 adbe 504c 06bb eec4 e8be
000000f0: 8676 f4bd 9c7d 013f 9a26 f23e e1c0 b43d
00000100: 3fa1 b5be 722b cbbe 4cf2 393d 8154 4cbe
00000110: c859 c9be 0c19 643e 7221 91bd b34f ccbd
00000120: 0b47 d2be 0079 58be f8f7 2dbd 55b8 f83d
00000130: 8e98 a4be 99a8 2b3f 8b4d b8be 492f 083f
00000140: 8745 fabc c316 7b3c 791a 19bf f127 98be
00000150: 053a 9f3d 6c74 953e d51f 613d 3607 c4be
00000160: 7dc1 7a3b afdb 503e c173 90bd 117b 2fbe
00000170: 847c 6a3e 6143 03bd 572d 52bd 9676 af3e
00000180: b6c3 ff3e fe9b a8bd 4642 913e 6d01 91be
00000190: 82e7 f2be ea15 f3bd a833 e5bd d94e 3f3e
000001a0: 937f bc3e d6a4 adbe ec26 73be 6380 cb3e
000001b0: d4fd 093e b229 cd3c 79d6 aebe fe9a ce3e
000001c0: f4b6 a83e b4db 823e babb 3abe cc8e 0b3e
000001d0: aeaa 91be f72b c2be dc94 8b3e af2e 7c3e
000001e0: ff99 b03a 7fae 9dbe e761 e6bd 544d e03c
000001f0: 822b e9bd 5e00 eb3e 6d01 cbbe 911a 253e
00000200: 37a4 513e 87a2 8cbd 0c1f 0bbf d4e9 f33d
00000210: 21d7 7ebe 8b66 01bf a205 223e d71a 253f
00000220: 1390 643d ff27 bb3e 196c 10bf 9740 0fbf
00000230: 9b87 7bbe 12b4 27be f9e1 c23d 26ea a5be
00000240: 38e3 9b3d 7c1e e2be 74da 0e3c e195 91be
00000250: 2cad bbbe 8a04 b7be 3b5f b6bd f252 c1be
00000260: 7ccb 2f3c 92ea 383e a63e dcbe 097b 43be
00000270: ea03 873e 51f2 fdbd 4b2f c1bd f3ce 99bd
00000280: 9d1a 9d3d 76f6 61bf 6f7a 963e f727 54be
00000290: 6c85 5bbe 9d44 26bd fd54 78be d34a 823c
000002a0: d47a 8abe 166f 1a3d 0de7 7bbd 97a6 fe3d
000002b0: ea0b adbe fc3f 4f39 4e04 493e b316 8ebe
000002c0: 87c7 08be cee5 4cbd 912b 353e 13c6 c83e
000002d0: 9373 bfbe e5c5 debe b333 65be 2bbd 763e
000002e0: a121 0ebf 4e7f b1be abce 6abe 8d92 8dbd
000002f0: 3177 0fbe 903b 433e 9e99 7cbd e662 463e
00000300: b00d 6cbe 38fc b6bc 7f70 b53d f7f5 153f
00000310: c4e6 d2bd a206 8cbe 4240 b2be b996 6f3e
00000320: ee6a 163d 856c 883c 6959 343d 9c2c 233d
00000330: 022c 27be 46c7 043f 3ed5 ec3e ac89 d13e
00000340: 95c1 513e 3e46 02bf 3c20 20be 7bd5 a8bd
00000350: cd5b 02be 4103 f93d 8edb 3c3d 4d14 883e
00000360: c0d8 a2be f7e1 a73d 6044 6a3e 5758 85be
00000370: 944a 5a3e 01b3 023e dadd 903d 8df4 a33e
00000380: 1947 963e 8119 84be 183b 56bd 97d6 6bbe
00000390: ce2e 24bd fff2 c43d 02a5 8c3e 57fa 1a3e
000003a0: a1c3 bbbe 38ac f23d b8b4 023f 45ec 83be
000003b0: 2f4b cfbe ffa4 0abe a98a 073e 0983 debd
000003c0: d0ce dbbd fef3 8fbe 286f aebe afdd 683e
000003d0: 3fe9 c1bc c814 50bf d18a 2e3e 406c 9a3e
000003e0: 4c89 dfbe da3a e93e e9ca 623d 3768 00bd
000003f0: a25a 353e 97d0 b33e 9ef4 c9be d130 2fbf
-0.15870996 0.2587839 0.23791265 0.47308826 -0.41503283 -0.01969793 0.073534414 0.11481769
0.08992662 0.3574399 -0.34029594 0.1182748 0.040425234 -0.033749815 0.023790143 0.3631256
0.08777799 -0.20635821 -0.14141546 -0.44068834 0.23164071 -0.27455086 0.19435762 0.08623851
0.047280803 0.09907011 0.45104757 0.27096173 -0.25724205 -0.18509552 -0.036790017 -0.3026699
0.06625063 -0.1060821 0.18237476 -0.118964784 0.06355416 -0.29039878 -0.026629591 -0.42442375
-0.86752874 -0.29115376 0.1337202 0.28096578 -0.29422814 0.112135395 -0.29392162 0.24233446
-0.2539515 0.016126703 0.03363434 0.06547958 -0.095598765 0.34448332 0.07705743 0.28743604
-0.06927046 -0.33807054 -0.0020492263 -0.45462745 -0.11936669 0.5058229 0.47295076 0.08825851
-0.35474584 -0.39681584 0.045397088 -0.1995411 -0.3932631 0.2227518 -0.07086457 -0.09976139
-0.41069826 -0.21139908 -0.04247281 0.121445335 -0.3214764 0.67054135 -0.3599666 0.5319715
-0.030550731 0.015325251 -0.5980602 -0.29717973 0.07774738 0.29190385 0.054961998 -0.38286752
0.00382623 0.20396303 -0.07053328 -0.1713679 0.22899061 -0.03204668 -0.05131277 0.3427016
0.49954003 -0.08232878 0.28370875 -0.283214 -0.4744225 -0.11869414 -0.11191493 0.18682422
0.3681608 -0.33914822 -0.23745316 0.3974639 0.13475734 0.025044296 -0.34148005 0.40352625
0.32952082 0.25558245 -0.18235675 0.13628691 -0.2845053 -0.37924168 0.27262008 0.24627183
0.0013473629 -0.30797192 -0.11249142 0.027380623 -0.113852516 0.45898718 -0.39649525 0.16123416
0.20472799 -0.06866937 -0.5434425 0.119098336 -0.24886753 -0.50547093 0.15822461 0.6449408
0.055801462 0.36553952 -0.56414944 -0.5595793 -0.24563448 -0.16377285 0.09515757 -0.32405204
0.07611698 -0.44163883 0.0087190755 -0.2843466 -0.36655557 -0.3574565 -0.089048825 -0.37758595
0.010729667 0.18058231 -0.43016547 -0.19089903 0.26370174 -0.12399734 -0.094328485 -0.075101756
0.07671092 -0.88266695 0.29390284 -0.2071837 -0.21437615 -0.04059278 -0.2425117 0.01590482
-0.27046835 0.037703596 -0.061499644 0.12434118 -0.33798152 0.00019764894 0.19630548 -0.27751693
-0.13357364 -0.050023846 0.176924 0.3921362 -0.37392864 -0.43510357 -0.22383003 0.240956
-0.55520064 -0.34667438 -0.229304 -0.06912718 -0.14010312 0.1906569 -0.06166994 0.19373664
-0.23052096 -0.022337064 0.088593476 0.5857844 -0.10297921 -0.2734881 -0.3481465 0.2339734
0.03672307 0.016653309 0.04403058 0.039837465 -0.16325381 0.5186657 0.4625644 0.40925348
0.20484002 -0.5088843 -0.15637296 -0.08243843 -0.12730332 0.12158824 0.04610782 0.26577988
-0.31805992 0.08197396 0.22877645 -0.2604396 0.21317512 0.12763597 0.07073565 0.32022515
0.29351118 -0.25800708 -0.05230245 -0.23031078 -0.0400837 0.0961666 0.2746964 0.1513456
-0.3667269 0.11849254 0.51057005 -0.25766197 -0.40487048 -0.13539504 0.13236488 -0.10864837
-0.10732806 -0.2811584 -0.3406918 0.22740816 -0.02367079 -0.8128171 0.17045142 0.30160713
-0.43659437 0.45552713 0.05536929 -0.031349387 0.17710355 0.3512008 -0.3944444 -0.6843386

bias f4 [60]
00000000: d7e7 003e 8400 443e e0dd b93d 10dc 62bb
00000010: 0362 8a3d b043 593e 432d 193d 9ff2 cab9
00000020: c5ae 683c 4b2f 5fbb 6185 b8bc 1c43 bc3d
00000030: 81d7 febc cadf e83b c9ee 0a3e 5036 1d3d
00000040: 0f25 56be 551a e3bc 408d 173e c910 943d
00000050: 9781 853d 657b a0bc 2d15 163e b960 4c3e
00000060: 9b34 663d 898d 523d db18 06bc cdfc 1cbd
00000070: b0fc 04bd 4ea1 e13d 3e45 1cbd 641e 54bd
00000080: 95a3 e93d d415 0d3d 57eb 4cbd 549e afbc
00000090: 188e 173e a13b 49bd c3a4 bebc 7bfd 57bd
000000a0: 747e 343e 3d02 043d 1971 2ebd f2dd a53d
000000b0: 4a35 993c 6e59 113d f209 c03d 2fff e03c
000000c0: 8710 61bb 28eb 093d 2755 ee3c faa1 c13d
000000d0: 4127 8fbc 2490 82bd 220d a1bc 2675 54bc
000000e0: 4127 dd3d 73ed 92bc 2194 243d ea3d 1ebd
0.1258844 0.19140822 0.090755224 -0.003461603 0.067569755 0.21217227 0.03739668 -0.0003870921
0.014201825 -0.0034055288 -0.022524538 0.091924876 -0.03110862 0.007106756 0.13567652 0.038381875
-0.20912574 -0.027722517 0.14799976 0.07229764 0.06518858 -0.01959009 0.14656515 0.19958772
0.056202512 0.05140451 -0.008184637 -0.038327027 -0.032467544 0.110170946 -0.038151972 -0.051786795
0.11408154 0.034444645 -0.050029125 -0.021437801 0.14800298 -0.049129132 -0.023271924 -0.052731972
0.17626363 0.032228697 -0.042588327 0.08098973 0.018702168 0.035485677 0.09376897 0.027465431
-0.0034342126 0.033671528 0.029093338 0.09454723 -0.017474772 -0.06375149 -0.019659583 -0.0129673835
0.10798503 -0.01793549 0.04018033 -0.038633265

weight f4 [60, 60]
00000000: d5c5 8cbe d7f1 a73e 9b45 553e 9675 323e
00000010: 8d37 15be 2177 463e 9b2d cd3e 6e16 f73d
00000020: b13f 1dbe a00c 6a3d ab18 54bd beba e23d
00000030: e135 bcbe 3020 f33c fa13 ae3e 118e 11bf
00000040: a1ea 27be 3ebe 90be 3595 38be 24ce fc3e
00000050: 39db e0be 6985 933e a013 343e 7543 e3bd
00000060: 03ca 0bbe b9d5 753e 5f33 87be f8c9 d03d
00000070: c280 823e e46a c9be 3e20 783d 38db a73d
00000080: 273e c23d c127 dbbe c633 a73e a338 a5be
00000090: afdc f53c 17df 3a3e 2972 02be 7815 fb3e
000000a0: 607d 373c 6bfa 3fbf 5d28 093f c5fa 993e
000000b0: 0598 1dbf 1dd2 ce3e 94a6 2e3e 5f90 3ebe
000000c0: 42df 51be 5975 85bd 49fe 8abe fe9a 7a3e
000000d0: cc47 9abd 38c6 3e3e 2ad4 f0be 9236 6b3e
000000e0: f48a 11be 1fe7 83be ce73 873e ce9e 02be
000000f0: 3a76 cabd 26dc 8f3e d99d 21be e86f 98bc
00000100: 53b0 7e3e 1a71 0b3e 3d4c 08bd 8757 e73d
00000110: a197 93be 9491 f6bc 0cdc 0ebe bf2a f73d
00000120: 5d9b b9bd 9718 38be 3829 d73e 3282 95be
00000130: 4b38 40be 844c e1be ba9a 79b8 aaf5 02bd
00000140: 2c5e 9ebd 22ca f83e ebab 05bf 1583 5a3e
00000150: 92a6 d2be d6f7 1fbe d076 55be 3144 4abd
00000160: e901 d43d c3fc a6bd b1de 81be 2e49 6a3e
00000170: a008 983e f4fa 8ebe 21b5 663e 69a0 ec3d
00000180: 7381 553e 4b39 99bd 181b 823e 9b40 163f
00000190: 8466 bf3e e7ac debe 1e99 6c3f d0f5 00be
000001a0: f8a8 6f3d f934 973e a8b4 f53d ac95 08be
000001b0: 6681 17bc 7285 cb3d e7b9 3dbf 273f 9f3e
000001c0: 41bd 1ebd 92ab a3bd 51e0 6abf a2ce 6f3e
000001d0: 35fa ffbc 60c4 bebe ec2a 083f f3d6 9e3e
000001e0: eb8f 06be de5c 643d 66db f53d 1230 ce3d
000001f0: 572c c7bd 8f03 b83e ac53 9cbd 5d8d eebc
00000200: 6bb6 03be 724a e23e df59 a23e d1b4 d3bd
00000210: b963 593d a310 e23e 1a6c 91be 80e5 94bd
00000220: da64 c9be 0b51 c6bd fd5c 97be bbad 043e
00000230: 36af 96be 1eaa 8fbe 3a92 8c3d 7c23 25be
00000240: 3c15 dcbe ef7c 92bd 671c da3e 802e eebe
00000250: f7e7 74be c581 10bf a63e a63e f3e8 4c3e
00000260: a3e2 96bd b34d 93be 490d 23bf 9185 05bf
00000270: 0408 e43e c7e6 193f 59b7 893d c015 fc3c
00000280: 5b71 95bd c8c8 ce3e fbbd 423e 7f71 353d
00000290: cd4c fa3d 0662 2a3e 0d9c 1e3e a0c7 de3d
000002a0: cb69 67be 808a c1bd 6796 07be 549e 89be
000002b0: 1b81 8cbe 0561 dcbe 7a9d 243d 0398 b83e
000002c0: e4be adbd 1e5b cfbd 8290 dcbd 2c31 153f
000002d0: bf70 a5be 0ee4 76be 60b5 813f 4665 9d3e
000002e0: ead9 6f3e eda4 713b 14ab e43c aa83 c23d
000002f0: 302c ff3d bc0a 39bd 3d13 8dbe 9fec ad3e
00000300: 25ae debe 3057 a03e 6c8b 0ebe 91d3 33bf
00000310: d5b9 1dbe 6101 c0be ea23 adbe 0a5b 5f3e
00000320: a7fa 893d f584 70bd 029c 9dbe 40a3 ce3b
00000330: cc61 e9be 4d6f c33e d8b6 96be 15d2 f4be
00000340: 7457 62be 51e0 26be 3f6f eebe 8cf6 603e
00000350: 25ec 3b3e 0036 dcbc d799 ea3e d81b 26be
00000360: 9d98 5a3e a2e5 eabc 4641 b13e 27d7 d1be
00000370: e719 543d c9d4 cebd bcd1 fbbd 0469 c03d
00000380: 29c6 e6be ed11 f2be 5b20 28be 7267 f9be
00000390: 79aa 0a3d 335a 12be 668d 4a3d e60c cf3d
000003a0: 76df 73be 1392 933d d71b c43e e8e9 7c3e
000003b0: b516 093e b199 5ebf 5eef 033e b30b 9e3e
000003c0: 7b5d d5be 188b 8e3c e53e d23e ad54 dc3e
000003d0: 16c3 de3a 50c3 29be c937 4f3e bab0 0f3e
000003e0: f7c9 963e 0ab9 5a3b 3e86 343e 0530 043a
000003f0: 458e 553d 3a84 a23e f369 c1be 760c a13c
-0.27494684 0.32801697 0.20827334 0.17427668 -0.14571972 0.19381382 0.40073857 0.12064825
-0.15356328 0.057140946 -0.051781338 0.110707745 -0.36759856 0.029678434 0.33999616 -0.568574
-0.16398098 -0.28270143 -0.18025668 0.49376023 -0.43917254 0.2881272 0.17585611 -0.11096851
-0.1365128 0.2400731 -0.2640638 0.101947725 0.2548886 -0.39339364 0.060577624 0.081961095
0.09484511 -0.42803767 0.32656687 -0.32269773 0.030012457 0.18249165 -0.12738861 0.49039817
0.011199325 -0.7499148 0.53577214 0.30074134 -0.6156009 0.4039468 0.17055732 -0.1860976
-0.20495322 -0.06516523 -0.2714713 0.24473187 -0.075332254 0.18630302 -0.47036868 0.22970036
-0.14213163 -0.2576227 0.2645554 -0.12755892 -0.09885831 0.28097647 -0.1578287 -0.018608049
0.2487195 0.13617364 -0.03327583 0.112959914 -0.2882662 -0.030098714 -0.13951129 0.120687
-0.09062836 -0.1797813 0.42023635 -0.29200894 -0.18771474 -0.4400369 -5.9510327e-05 -0.031972565
-0.077328056 0.48591715 -0.5221545 0.21339066 -0.41142708 -0.15621886 -0.20846105 -0.04938144
0.10351927 -0.08153679 -0.25365213 0.22879478 0.2969408 -0.27925837 0.22530033 0.11554033
0.20850162 -0.07481631 0.25411296 0.5869233 0.373829 -0.4349129 0.9242114 -0.1259377
0.05851075 0.29532602 0.11997348 -0.13338345 -0.00924716 0.09937562 -0.7411179 0.3110287
-0.038754705 -0.07991709 -0.9174853 0.23418668 -0.031247238 -0.37259197 0.53190494 0.31023368
-0.13140838 0.055752628 0.120047376 0.100677624 -0.09725254 0.35940215 -0.07633147 -0.029120142
-0.12862556 0.44197422 0.3170919 -0.10337222 0.05307362 0.44153318 -0.28402787 -0.07270336
-0.39334756 -0.096834265 -0.29563132 0.12956898 -0.2943055 -0.28059477 0.06863828 -0.16126817
-0.4298495 -0.071527354 0.42599794 -0.46519852 -0.23916613 -0.5644801 0.32469672 0.20010738
-0.07367446 -0.28770217 -0.63692147 -0.5215693 0.44537365 0.60117763 0.06724424 0.03077209
-0.072970115 0.4038756 0.19017784 0.04429769 0.1222168 0.16638955 0.15489216 0.10877919
-0.2259895 -0.09450245 -0.13240968 -0.26878607 -0.2744225 -0.4304277 0.040189244 0.36053476
-0.08483675 -0.10124801 -0.1076975 0.58278155 -0.3231258 -0.24110433 1.0133476 0.30741328
0.23422971 0.0036871985 0.027913608 0.09497769 0.124596 -0.045176253 -0.2755374 0.3396959
-0.43492237 0.3131652 -0.13920373 -0.702447 -0.1540292 -0.37501052 -0.33816463 0.21812072
0.06737261 -0.058720548 -0.30783087 0.006306082 -0.45582426 0.38170853 -0.29436374 -0.4781653
-0.22103673 -0.16296507 -0.4656925 0.2196905 0.183518 -0.026881218 0.45820495 -0.16221559
0.2134728 -0.02867395 0.34620112 -0.4098446 0.051782515 -0.10099179 -0.12295863 0.0939503
-0.4507306 -0.472793 -0.16418593 -0.48711735 0.03385398 -0.14292221 0.049451254 0.10109882
-0.23815712 0.07205596 0.3830249 0.24698603 0.13387568 -0.86953264 0.1288428 0.308683
-0.41672882 0.01740031 0.4106361 0.43033352 0.0016995396 -0.16578412 0.20236124 0.1403226
0.29450962 0.0033374452 0.17629334 0.0005042556 0.052137632 0.31741506 -0.37776145 0.019659262

weight f4 [60]
00000000: d2fe b03f b962 a53f 24a4 ae3f 89f9 cd3f
00000010: 5e4f b13f 6f22 ac3f 49f9 943f 9eee 9e3f
00000020: b792 a43f 6e88 bc3f 08a5 a33f bc29 ae3f
00000030: b540 9f3f 76b1 923f 0ca0 be3f 83b4 aa3f
00000040: 808a a53f ed4f a03f 99f7 a83f 9280 a53f
00000050: ab2f 973f 0a59 9b3f 9901 b03f 91b3 ad3f
00000060: baff b53f b809 d93f 2921 a23f 7d21 b73f
00000070: c8ec b33f d6b7 903f 2a7b bf3f 67e9 c13f
00000080: cf88 933f 0518 bf3f 860c af3f 87f0 9d3f
00000090: e874 703f 9669 9b3f 1047 a23f dbd8 b23f
000000a0: cfb6 bc3f 086b 993f 74fb bb3f 8880 c33f
000000b0: 7683 b73f b687 a53f 1933 893f 6bd5 a63f
000000c0: 4787 bc3f dd24 963f 26d1 b33f 9cf4 943f
000000d0: cea1 a43f 301d a03f 973d b63f f76b a53f
000000e0: c454 bc3f 3d51 c33f 258d ae3f 4898 b63f
1.3827765 1.2920753 1.3643842 1.6091777 1.3852346 1.3448008 1.1638576 1.241657
1.2857274 1.4729135 1.2784739 1.3606486 1.2441622 1.1460407 1.4892592 1.3336338
1.2932892 1.2524391 1.3200561 1.2929862 1.1811422 1.2136548 1.3750488 1.3570424
1.4218667 1.6956091 1.266637 1.4307095 1.4056635 1.1306102 1.4959462 1.5149354
1.1526126 1.4929205 1.3675697 1.2339028 0.93928385 1.2141597 1.2677937 1.3972429
1.4743289 1.1985788 1.4686112 1.52736 1.4336994 1.2932041 1.0718719 1.303388
1.4728783 1.173 1.4048202 1.1637149 1.2861879 1.2508907 1.4237546 1.2923573
1.4713368 1.5259167 1.3636824 1.4265223

bias f4 [60]
00000000: 8b5e 1f3d c3e8 b3be 5337 d4bd a882 133e
00000010: 0c0b a2be e5e3 3abe b90a c8bd 8c80 a83d
00000020: 8208 d1be b904 cabd 3bb6 70be 997b 8cbe
00000030: 09fc 35be 3227 97bd 67b6 95be 002a 7f3e
00000040: 6dc7 963d bfcc 00be ab75 52bd 42af d63e
00000050: 3d0d 3bbe 8567 c2be c053 83be bb70 9cbe
00000060: 613b f8bd b2cf 9e3c 4ea5 433e 3c26 84be
00000070: a8c0 82be cb90 d6be 02ae 94be d61c e4bd
00000080: dc7b 44be 9846 343c cc2f 6abb 0a8a f63d
00000090: 720b 3d3f 29f3 75be 60d1 64be bf62 87be
000000a0: ced9 1fbe d515 70be a24e 9cbe 4589 95be
000000b0: 3daf 3ebe d55e f8bd 8953 c6bd 45e9 f1be
000000c0: 5fb4 a73d 9b28 8c3d 0ade 3fbe b92a 01be
000000d0: 2fe3 60be e395 f93d 29d3 6dbe eaac 44bd
000000e0: 3f5c 53bd 45c0 80be 889d 4f3e 442d 17bd
0.038908523 -0.3513852 -0.10362115 0.1440531 -0.31649053 -0.18250997 -0.0976767 0.08227643
-0.40826803 -0.09864182 -0.23507015 -0.27438048 -0.17771925 -0.07380523 -0.29240724 0.24918365
0.07362256 -0.12578104 -0.05138175 0.41930586 -0.18266769 -0.37969604 -0.25649834 -0.30554757
-0.12120701 0.019386146 0.19106027 -0.2581042 -0.2553761 -0.41907343 -0.29039007 -0.111383125
-0.19187874 0.011003159 -0.0035734056 0.120380476 0.7384559 -0.2401854 -0.22345495 -0.26442525
-0.1561043 -0.23445828 -0.30528742 -0.2920629 -0.18621536 -0.12127463 -0.09683902 -0.47248283
0.081887 0.068436824 -0.18737045 -0.12613954 -0.21961664 0.12186792 -0.23225082 -0.048016466
-0.051601645 -0.2514669 0.20274937 -0.036908403

running_mean f4 [60]
00000000: 3880 da3c 5a03 193d 1f27 df3d f9a9 d23c
00000010: 1f3f 2abd edc4 293d f54b 80bd 783d 503d
00000020: c65c 993b e3ab a93c c175 3b3c d0d0 5abc
00000030: 5ed7 ce3d 0938 5a3c 3bf5 d63c c8c0 17bd
00000040: f8b6 ffbd b026 553e d5a6 ca3d d642 773c
00000050: bf1d 9fb9 a0f5 053d 90b9 b43d f5ad da3b
00000060: e663 a4bd 400a 68bb 1c61 9c3d 059f 043d
00000070: a233 f73c c236 d2bc 510c babb 0a9f e7bc
00000080: 01df ee3c eaff c6bd a456 333d 83a3 6f3d
00000090: 621b d13d 7883 3c3e 6d02 a1bd 5588 4fbd
000000a0: 948f b5bd 63c1 60bb 7d0a b83d 871f 4ebd
000000b0: d06b 3cbe 54ef b63c c18a 6dbc 5368 ef3d
000000c0: 17de 18be 02d3 b7bd f76f a93d b599 62bd
000000d0: 59cc 113e 4b36 20be dbe9 55bc 2603 b03d
000000e0: 001e df3c 7d56 e43a 018f 553d be64 543d
0.026672468 0.037356712 0.10896134 0.025715815 -0.041564103 0.04144757 -0.06264488 0.05083987
0.004680249 0.020711845 0.011441649 -0.013355449 0.10099672 0.013319024 0.026239982 -0.037049085
-0.124860704 0.2081554 0.09895102 0.0150916185 -0.00030349006 0.03270495 0.08824456 0.0066735693
-0.080268666 -0.00354065 0.0763571 0.032378215 0.030175988 -0.025660876 -0.0056777378 -0.028274078
0.02915907 -0.097167805 0.0437838 0.058505546 0.10210301 0.18409526 -0.07861791 -0.050667126
-0.08865276 -0.0034294955 0.089863755 -0.050323036 -0.18400502 0.022330917 -0.014498414 0.1168982
-0.1492847 -0.089757934 0.08273309 -0.055322368 0.14238109 -0.15645711 -0.013056244 0.085943505
0.027235985 0.0017420795 0.052138332 0.051853888

running_var f4 [60]
00000000: 0658 883e 4a42 5c3e 2240 863e 1d3f 823e
00000010: 0c27 a13e 2a45 673e c930 833e b0f4 aa3e
00000020: 3b8a 8c3e c893 af3e 6c01 983e 2c8f 953e
00000030: 3dea 863e 153d a73e a5c3 803e d3ab a33e
00000040: 24b2 453e 706a 483e 6d75 8e3e 4fab c43e
00000050: 7b38 8c3e cb77 813e 90d6 8c3e 3dc3 a13e
00000060: 33c2 b63e e846 9b3e d54b 653e a9eb 9e3e
00000070: a405 943e ed25 9a3e 7ce5 8b3e 474f 9f3e
00000080: 231d 9b3e 3eff 813e 7e04 813e f7ff 973e
00000090: 84cb ad3e af1b 563e d393 543e 8307 743e
000000a0: a821 b93e 9c44 833e b939 7a3e bc07 a83e
000000b0: 74e0 873e ff75 713e 0a47 c53e 4b8d 533e
000000c0: 968b 7a3e 1b54 663e e240 453e 2d49 593e
000000d0: 24ac 7c3e 6511 233e d534 853e 5884 613e
000000e0: 14e8 c33e 839b 713e 172d 8f3e 7fd8 803e
0.26629657 0.21509662 0.26220804 0.25438777 0.31475103 0.22584978 0.25623158 0.33389807
0.2744921 0.34292436 0.29688585 0.29210794 0.26350585 0.3266379 0.25149265 0.3196703
0.19306237 0.19571853 0.27823964 0.38411948 0.2738684 0.25286707 0.27507448 0.31594267
0.35695037 0.30327535 0.22392209 0.3103917 0.28910553 0.3010706 0.2732352 0.3111517
0.30295667 0.25390047 0.2519874 0.29687473 0.33944333 0.20908998 0.20759515 0.2383099
0.3615849 0.25638282 0.24436082 0.328184 0.26538432 0.23580168 0.3853076 0.20659368
0.2446731 0.22493021 0.19263032 0.2121932 0.24675041 0.15924604 0.2601687 0.22023141
0.38263 0.2359448 0.27964088 0.25165173

weight f4 [60]
00000000: 01f3 d63f c0af 8f3f f50f e43f 679b a53f
00000010: d831 b13f de53 eb3f 250c dd3f 2063 bd3f
00000020: 004a bf3f 7fe1 973f 0992 af3f b5e5 543f
00000030: fb78 a83f 0ecf b33f c6f1 c03f 9533 be3f
00000040: 8e6a 823f bc19 d63f f1e0 a23f a855 d43f
00000050: 546a e23f f4cd ba3f 1b85 c03f ee65 c63f
00000060: f7a2 d13f 8b30 a03f 9ae4 973f 0870 b33f
00000070: 847d c43f f301 9a3f d084 af3f 3862 c13f
00000080: a30e aa3f ab70 8a3f 2de8 ac3f f0a2 d83f
00000090: 2f36 d63f ec52 c33f 71e7 a93f 84e6 b13f
000000a0: 4882 c93f 2d11 e43f 77fd 0140 090d d03f
000000b0: 8008 d63f d084 823f aae1 a33f 6f6a d53f
000000c0: 811b 9a3f d5b9 8b3f 2614 da3f b2b0 963f
000000d0: ba8e de3f 009b c73f 678b ba3f d1a6 ab3f
000000e0: 5791 393f 2ea8 d03f bdaa f43f 84d6 e23f
1.6792909 1.122551 1.781737 1.293805 1.3843336 1.8384969 1.7269331 1.4795876
1.4944458 1.1865691 1.3716441 0.83163005 1.316192 1.4047563 1.5073783 1.4859492
1.0188768 1.6726604 1.2724897 1.658864 1.7688699 1.4594102 1.504062 1.5499856
1.6377858 1.2514814 1.1866639 1.4018564 1.5350804 1.2031845 1.3712406 1.5108099
1.3285717 1.0815634 1.3508354 1.6924725 1.6735286 1.5259681 1.3273755 1.3898473
1.5742884 1.7817742 2.0310953 1.6253978 1.6721344 1.0196781 1.2803242 1.6673106
1.2039644 1.0916086 1.7037399 1.1772673 1.7387307 1.5594177 1.4573792 1.3410283
0.72487396 1.6301324 1.9114605 1.7721715

bias f4 [60]
00000000: 8bf3 e8be 5759 fabe 5e7c 30bf 0117 4dbe
00000010: 4004 82be 9958 e5be 4beb efbe 7a0c e8be
00000020: 3dd3 cabe 16a1 eebb 132b 94be 7766 d0be
00000030: 9c21 17be d7d6 f2be de18 e6be 5381 91be
00000040: b810 84be 2c9b 04bf 1ed4 02be c046 0fbf
00000050: ac73 0bbf c1c4 b6be f35b 41bf 6436 69be
00000060: 877a 06bf ef09 0cbe 6c50 efbe fb3f e5be
00000070: 5791 7ebe 509d 9dbe 1d5d f3bd 40b3 e9be
00000080: fcb3 15bf ebea 96be f54a ffbe 5f00 33bf
00000090: 6716 adbe dee9 18bf 5c34 a2be 0ede 88be
000000a0: a9ba bbbe 8a05 92be 4419 edbe d1c8 00be
000000b0: 06d2 e2be 3e21 53be bee1 14bf d51b 0cbf
000000c0: a2ae ebbe 22f7 f8bc 0958 0ebf 8c0e febe
000000d0: a160 21be 9ef6 6dbe 7fef bcbe 0942 04bf
000000e0: 843b 98be 9c31 e0be 6aef c8be 0a6b 06bf
-0.4549831 -0.48896286 -0.6893977 -0.20028307 -0.25393867 -0.44794157 -0.46859202 -0.4532202
-0.39614287 -0.0072823865 -0.28939113 -0.40703174 -0.14758915 -0.47429535 -0.44940847 -0.2841898
-0.25794005 -0.51799273 -0.12776229 -0.5596733 -0.54473376 -0.35696986 -0.7553093 -0.22774655
-0.5253071 -0.13675664 -0.46741045 -0.44775376 -0.2486013 -0.30784082 -0.11882994 -0.4564457
-0.5847776 -0.29476103 -0.49861875 -0.6992244 -0.33806154 -0.59731853 -0.31680572 -0.26731914
-0.36665848 -0.2851985 -0.4630834 -0.12576605 -0.4430086 -0.2061815 -0.58156955 -0.5472997
-0.46031672 -0.03039128 -0.5560308 -0.49620473 -0.15759517 -0.23238608 -0.3690147 -0.5166326
-0.29732907 -0.4378785 -0.39245158 -0.5250708

running_mean f4 [60]
00000000: b068 aebe d51d 1d3f 9620 8dbf 9cff 893e
00000010: 1b16 b7be faa8 d0be b783 17bf bff0 60be
00000020: 2f89 b8be 6c29 61be ec08 15bf c1f5 4f3f
00000030: f37f 70be 03fd 02bf e4b6 85bf cdce 36bf
00000040: e7ca 93be c60d 47bf 6239 aabe 3b0d 9fbf
00000050: 47ea 4bbf 93de 60bf 2dc1 13bf adcd cfbe
00000060: a114 b5be 6041 2fbf 7290 343e 07ae 3abf
00000070: 04dd 04bf c511 683d a836 35bf 3473 7bbf
00000080: ac52 8dbe 7fd9 27bf acac 8c3e 22f9 5fbf
00000090: 075d d4bd e816 17bf c71f 04be e84c c3bf
000000a0: cc02 39bf 62bf 6dbf feea aabf 2369 41bf
000000b0: 62e7 09bf c711 b33f f56f 6e3e 9a0f 95bf
000000c0: 30bc 0f3f 134c 073e cee2 903e 4c0d 453f
000000d0: c032 86bf 55de 5fbf 86ce 20bf aa40 9bbe
000000e0: ed59 7b3d 4fc9 b6be 49ca 6ebf 7ae4 23bf
-0.34064245 0.61373645 -1.102557 0.26952827 -0.35759053 -0.4075392 -0.59185356 -0.21966837
-0.36042163 -0.21988457 -0.5821674 0.81234366 -0.23486309 -0.51167315 -1.0446439 -0.714093
-0.2886574 -0.7775539 -0.33246905 -1.2425913 -0.79654354 -0.8783962 -0.5771664 -0.40586606
-0.353673 -0.6845913 0.17633227 -0.72921795 -0.51899743 0.05665757 -0.70786524 -0.9822266
-0.27602136 -0.6556625 0.27475488 -0.8748952 -0.10369306 -0.5901933 -0.12902747 -1.5257845
-0.7226989 -0.9287015 -1.3352964 -0.7555105 -0.5386869 1.39898 0.23284896 -1.1645386
0.56146526 0.13212614 0.28298038 0.76973414 -1.0484238 -0.87448627 -0.6281513 -0.30322772
0.061365057 -0.3570046 -0.9327741 -0.640205

running_var f4 [60]
00000000: 7725 3d3e b54f af3e 8a45 2b3f c3af 763e
00000010: a085 073f 0c7b b73e 469c 993e 81ae 953e
00000020: 012a 033f 664c 8e3e 634e 853e 29cb 013f
00000030: d109 993e 9035 943e ceb7 003f aeca 0a3f
00000040: 2df6 ba3e cc31 8d3e 32d7 bd3e da0c 433f
00000050: 40a2 e63e c7dd b23e e9ce d43e d0f8 743e
00000060: 3d7f b53e 91c0 d63e 4494 ad3e be7d c03e
00000070: d9ec f53e a64d af3e ed67 ce3e d666 ff3e
00000080: cd66 813e e220 e93e d690 ab3e 5dfd f53e
00000090: 9851 4c3e 2c27 9c3e 92eb db3e 24ca 523f
000000a0: 782b b53e 9915 253f bc0b de3e a931 e93e
000000b0: b533 8a3e e9fd ef3e 40a7 153f 3df7 4a3f
000000c0: f2c6 c13e a807 cb3e 18e4 9d3e 06de 803e
000000d0: d7de 223f 21fa 063f 8cf4 0c3f 9798 163e
000000e0: b274 ec3e 099b af3e cbdc 633e 3b88 8e3e
0.18471323 0.342405 0.66902983 0.24090485 0.5293827 0.35836065 0.3000204 0.29234698
0.5123597 0.27792662 0.26036367 0.5070062 0.29890302 0.28947115 0.50280464 0.54215515
0.36515942 0.27577055 0.37078243 0.76191485 0.45045662 0.34934828 0.4156411 0.2392304
0.35448638 0.41943792 0.3390218 0.37595934 0.48032263 0.3423893 0.40313664 0.49883145
0.25273743 0.455329 0.3350894 0.48044863 0.19953 0.30498636 0.42953163 0.8233969
0.35384727 0.6448608 0.43368328 0.455457 0.26992574 0.46873406 0.5845833 0.79283506
0.37847096 0.3965428 0.30838084 0.2516939 0.63621277 0.52725416 0.5506065 0.14706646
0.4618278 0.3429797 0.22252195 0.2783831

weight f4 [60]
00000000: 8686 2a40 c629 5a40 8eaf 1b40 1dc9 1d40
00000010: 4d36 4040 f3de 1e40 a968 2240 ffff b43f
00000020: 4641 be3f 1f6c e33f 7b57 3a40 6735 2d40
00000030: 9856 b33f 4bab c23f 638d 3640 b98d 5d40
00000040: 12b1 2a40 33bd 7740 cf7d 4340 c610 2140
00000050: e3c4 2a40 cc7d 4540 81d5 3f40 d17b 0b40
00000060: b1f0 5c40 507d 1240 c4f8 e13f 1e14 3940
00000070: 8210 e63f c1b5 4440 5dfb ce3f 2e99 e33f
00000080: 7e5e 5840 ea83 2a40 c762 df3f e61f f23f
00000090: aefd 4640 c452 ca3f b45b 1b40 1e55 cb3f
000000a0: 5ee0 0e40 57da da3f 4e59 c53f a6d6 3940
000000b0: cb15 3740 c8e3 3440 a8b0 1640 6a03 4740
000000c0: d280 0240 d1a9 4540 1d9c 2740 1789 2640
000000d0: 71e1 d03f 6836 e63f 9880 d03f 83ec 3240
000000e0: b001 4540 abb4 db3f ee53 6a40 8ec2 dc3f
2.6644607 3.4087996 2.43259 2.4654 3.0033143 2.4823577 2.537638 1.4140624
1.486367 1.7767371 2.9115894 2.7063844 1.4010801 1.5208524 2.8523796 3.461775
2.6670575 3.8709228 3.0545537 2.5166488 2.668267 3.085803 2.9974062 2.1794322
3.4521906 2.2888985 1.7654042 2.8918529 1.7973788 3.0735934 1.617046 1.7781122
3.3807673 2.6643014 1.745202 1.8915985 3.1092334 1.5806508 2.427472 1.5885351
2.2324443 1.7097882 1.5417879 2.903726 2.8607051 2.8264027 2.3545322 3.1095834
2.0391126 3.0884898 2.6189034 2.6021173 1.6318799 1.7985353 1.6289244 2.7956855
3.078228 1.716451 3.6613727 1.7246873

bias f4 [60]
00000000: e2e0 12bf d779 ecbe 2cfd 29bf 27e8 13bf
00000010: c9eb f1be a80b e1be 3a08 41bf b2b8 25bf
00000020: b5df 7ebf 2fbb 93bf 0397 15bf 1bd5 90bf
00000030: e71b 56bf b22b 87bf 2619 09bf 78dd 0cbf
00000040: c988 2ebf fd31 2cbf 954c 07bf 1f8d debe
00000050: 7088 cdbe 43d5 24bf 5c7f e2be 9e90 d7be
00000060: ac93 59be 76b2 0fbf a3d7 6fbf 99ee afbe
00000070: 0152 4dbf 5aa4 e1be ff50 5dbf 7a21 6abf
00000080: c99a 1dbf 2af2 23bf b38c 8fbf a894 67bf
00000090: f542 34bf 8b72 69bf a15f f9be 953e 70bf
000000a0: e249 0fbf 5d42 78bf e595 4bbf 3ea6 f0be
000000b0: 940e ffbe f925 12bf fb97 0abf 09ed a3be
000000c0: cdd4 2bbf f88f 2abf 3d2e 51bf 9e94 a9be
000000d0: d728 6ebf 9c72 70bf 2b31 2ebf 6469 12bf
000000e0: 2f05 02bf 5390 86bf 457e f1be 697f 82bf
-0.57374394 -0.46186706 -0.66401935 -0.5777611 -0.47250202 -0.43954206 -0.7540318 -0.6473495
-0.995601 -1.1541499 -0.5843355 -1.1315035 -0.83636326 -1.056021 -0.53554 -0.55025434
-0.6817747 -0.67263776 -0.5285123 -0.43467042 -0.40143156 -0.6438791 -0.44237792 -0.42102522
-0.21247739 -0.56131685 -0.9368841 -0.34361723 -0.80203253 -0.44070703 -0.86451715 -0.9145733
-0.6156431 -0.6404139 -1.1214813 -0.90461206 -0.7041467 -0.91190404 -0.48705772 -0.9384549
-0.5597211 -0.9697626 -0.79525596 -0.47001833 -0.4981581 -0.5708919 -0.54138154 -0.3201678
-0.67121583 -0.6662593 -0.8171118 -0.33121198 -0.93031067 -0.9392488 -0.68043774 -0.57192063
-0.5078916 -1.0512794 -0.47166649 -1.0195132

running_mean f4 [60]
00000000: 730c 1a3e b8bc c43e eefb 6aba aff5 07bf
00000010: ad81 9a3d 60f5 e33d 36b5 77bc a60e 7dbe
00000020: eef1 f7be 8827 d9be 5f4c 1bbe 514b 4c3e
00000030: 07a2 8bbd 82ab 00bf a0c7 743e ea94 11bd
00000040: 6974 ddbe e2ec 6ebe 18b5 023e 6f7c 0abd
00000050: 8dff 46bd 6100 05be a157 ee3b 635a 133e
00000060: 3819 493d 85cb f4bd 6d71 00be 39ec c4bd
00000070: a8c1 1bbe f906 053e 6d41 dcbe c17e 06be
00000080: bdce f8bc b9f0 eb3c cec1 94be ece1 a9bd
00000090: 5513 323e 3891 91be c6b5 20be e275 eebe
000000a0: 2518 c73c 9b44 29be 5b2e b2bd e458 ab3c
000000b0: 7feb e13d 0edb 1fbe 1513 3abd dae9 99bc
000000c0: 7fca 9b3d 9feb 73bc 196b f0bc aa4a 4fbd
000000d0: da22 d23c 27ba 9ebe dd59 2a3e 597c c0bd
000000e0: 9690 863d 51a4 dfbe 6a88 df3b 4543 c3be
0.15043812 0.3842523 -0.0008963932 -0.5310926 0.07544265 0.11130786 -0.015118888 -0.24712619
-0.48426765 -0.42412972 -0.15165852 0.19950606 -0.06818014 -0.502617 0.23904276 -0.035542406
-0.43252876 -0.23332551 0.12764394 -0.033810075 -0.048583556 -0.12988426 0.00727363 0.14389949
0.049096316 -0.11952881 -0.12543269 -0.096153684 -0.15210593 0.12990941 -0.43018666 -0.1313429
-0.030372018 0.028801309 -0.2905411 -0.08295044 0.17390187 -0.28431106 -0.15694341 -0.46574312
0.024303505 -0.16530077 -0.08700248 0.02091641 0.110312454 -0.15610906 -0.045428354 -0.018788267
0.076069824 -0.014887719 -0.029347943 -0.050608315 0.025651384 -0.31001398 0.16635843 -0.093987174
0.06570546 -0.4368005 0.0068216817 -0.3813726

running_var f4 [60]
00000000: ecfa 853e 1c82 a03e e4f9 4b3e 4ee6 bb3e
00000010: 727f 4a3e 3cf3 5a3e b44f 8a3e c239 943e
00000020: b825 a83e f0e9 9c3e 4366 8e3e 83a2 a33e
00000030: ca50 4d3e 5765 8c3e 0f7c 8d3e 59f4 943e
00000040: 2082 303e 41df 763e 9117 803e 376a 5a3e
00000050: eb55 893e 9ed8 273e 9fc5 4b3e 7eb1 7b3e
00000060: 530c 813e 895e 473e a040 4f3e 712c 5b3e
00000070: 80b6 253e 4d4b 613e 183c bd3e 80ff 893e
00000080: fddd 513e efcd 753e 10d3 463e d802 8e3e
00000090: db53 a03e 88ec 653e e4a1 423e b8d0 e03e
000000a0: 0da3 553e 9259 893e e7d4 693e a858 893e
000000b0: f165 9c3e 4c53 a03e 4915 2f3e 2557 803e
000000c0: ed8a 7c3e ab49 663e dabd 6a3e 71e8 8c3e
000000d0: bf50 253e d428 673e bde8 3a3e 33df 723e
000000e0: 236b 853e 97e3 b83e c32b 563e d48d 873e
0.26168 0.31349266 0.19919544 0.36699146 0.19775179 0.21381849 0.27013934 0.28950316
0.32841277 0.3064723 0.27812394 0.31959924 0.2005035 0.27421066 0.27633712 0.29092672
0.17237139 0.24108602 0.2501798 0.2132958 0.26823363 0.16391227 0.19899605 0.24579427
0.25204715 0.19469656 0.20239496 0.21403672 0.161829 0.22001381 0.3695991 0.26952744
0.20494838 0.24004339 0.19416451 0.27736545 0.31313977 0.22453511 0.19007069 0.4390924
0.2086298 0.2682615 0.22835122 0.26825452 0.30546525 0.3131355 0.17097963 0.25066486
0.24662371 0.2248904 0.22923985 0.2752109 0.16144083 0.22574168 0.18252845 0.23717956
0.260583 0.36111137 0.20915131 0.26475394

weight f4 [2, 60]
00000000: 8042 a33f 0067 6f3f 566b 6a3f 1af8 b63f
00000010: d052 603f 5b98 a63f aa51 753f 5076 6ebf
00000020: a544 9dbf cd42 75bf 0cf2 973f 6298 c13f
00000030: fa3c 42bf ab8e 9cbf 63aa 903f f7ca 843f
00000040: 1dd2 a73f 8e8a bf3f 5a0d b83f 7456 a23f
00000050: c019 553f ed22 a03f 2ab5 963f 434c 9e3f
00000060: 5dbc 883f 7ea7 a13f e084 10bf 879d 973f
00000070: 09f4 73bf 81fc 963f 4f21 92bf cec2 8bbf
00000080: 008c bd3f d048 763f 5ea0 86bf b365 5ebf
00000090: 2c8c af3f f2f6 8ebf 66ca 983f 645a 9abf
000000a0: 7251 8e3f d16d 6abf c642 6ebf ab57 703f
000000b0: 433a a03f b756 933f 9215 903f 00fd 953f
000000c0: 0914 74bf 098d 963f 6573 9d3f dd79 803f
000000d0: a168 63bf 7874 83bf c298 15bf a846 943f
000000e0: 2bd7 9a3f 82fa 9cbf 89fb 633f 9602 87bf
000000f0: 03d7 94bf 38f9 b7bf 6f7a aabf 9ace 85bf
00000100: db5f 8abf 44d2 92bf 88f3 51bf 2f6f 3c3f
00000110: 2bba 653f 0812 863f e623 8bbf 5651 91bf
00000120: b531 763f 112d 963f bc61 7cbf 88d3 b5bf
00000130: 2591 b5bf 96e2 80bf 1869 b8bf 55d7 52bf
00000140: 1b55 98bf fff1 bbbf 26fa 97bf 8d53 61bf
00000150: cd93 aebf fcff b4bf 5f19 393f 8e6a 93bf
00000160: cd52 353f 64a0 a4bf 4838 6a3f 1f62 833f
00000170: 8108 8fbf 3351 babf 53c9 623f ff87 643f
00000180: 965c 8fbf e7c4 963f fd08 96bf 81d3 8c3f
00000190: b386 a6bf ffc8 f13e fcb4 713f 218b a8bf
000001a0: 6244 96bf c03c 91bf 65c9 6ebf dc9c aebf
000001b0: 1217 353f a1cf 42bf 9026 56bf ab56 a3bf
000001c0: 3010 0a3f d0ce 793f 2624 083f 8af4 96bf
000001d0: 6ed8 bcbf 4853 7b3f 2cdf b0bf 4d41 8a3f
1.2754669 0.9351654 0.9157003 1.4294465 0.8762636 1.3015245 0.95827734 -0.9314928
-1.2286574 -0.95805055 1.1870742 1.5124629 -0.7587429 -1.2231039 1.1301998 1.037444
1.3110996 1.4964159 1.4379075 1.2682633 0.83242416 1.2510659 1.1774037 1.2367023
1.0682484 1.262924 -0.5645275 1.1844949 -0.95294243 1.1795808 -1.1416415 -1.0918825
1.480835 0.96204853 -1.051769 -0.8687393 1.3714652 -1.1169112 1.1936767 -1.2058835
1.1118605 -0.91573817 -0.9307064 0.9388377 1.251778 1.1510838 1.1256583 1.1717834
-0.9534307 1.176179 1.2300841 1.003719 -0.88831526 -1.0269918 -0.58436215 1.1584063
1.2096914 -1.2263949 0.8905569 -1.0547664 -1.1628116 -1.437293 -1.3318614 -1.0453675
-1.0810503 -1.1470418 -0.82012224 0.7360715 0.89737195 1.0474253 -1.087033 -1.1352947
0.96169597 1.1732503 -0.9858663 -1.4205179 -1.418492 -1.0069149 -1.4407072 -0.8235982
-1.1900972 -1.4683226 -1.1873214 -0.88018113 -1.3638855 -1.414062 0.7230434 -1.1516893
0.7082947 -1.2861447 0.9149213 1.0264319 -1.117447 -1.455603 0.88588446 0.89270014
-1.120013 1.177884 -1.1721493 1.1002046 -1.3009857 0.4722366 0.94416785 -1.3167459
-1.1739619 -1.1346664 -0.93276054 -1.364162 0.7073833 -0.76098067 -0.8365259 -1.2760824
0.5393095 0.97581196 0.5318016 -1.1793377 -1.4753549 0.9817395 -1.3818107 1.0801178

bias f4 [2]
00000000: d030 b93e 07a3 f0be
0.36170053 -0.4699938
