dataset/ppi1/0.003_1000/model.pth (torch, 58990 bytes, 20 tensors)

bias f4 [60]
-0.104515836 0.04120381 0.13777292 -0.06836456 0.12203206 0.12810549 0.03465681 0.0020082071
-0.002908634 -0.007419514 0.015610949 -0.15525389 0.16456963 0.0033836432 0.1741083 0.16386892
-0.086049594 0.090268575 0.017312251 0.100178614 0.1651487 -0.055896986 0.03908518 -0.042925198
0.08170727 -0.008983698 0.035836264 0.15604998 0.029540123 0.01614281 0.17576598 -0.16737877
-0.05967598 -0.078437306 0.15131228 0.11326086 0.05734656 -0.03306989 -0.114158176 0.012859401
0.073563166 0.04008158 -0.0394125 -0.03468234 0.052987564 -0.14618833 0.102754615 0.009102481
0.011554629 0.057653792 -0.07276781 0.0069025764 0.21440439 -0.037618533 0.010049357 -0.037738293
0.18174277 -0.05486906 0.12514888 0.07505671
00000000: 660c d6bd 54c5 283d 5814 0d3e b802 8cbd
00000010: f2eb f93d 162e 033e 4df4 0d3d 209c 033b
00000020: c89e 3ebb 651f f3bb 11c5 7f3c e0fa 1ebe
00000030: f184 283e 1dc0 5d3b 7249 323e 41cd 273e
00000040: c53a b0bd bbde b83d 6cd2 8d3c 722a cd3d
00000050: be1c 293e 3df4 64bd c817 203d 55d2 2fbd
00000060: 2456 a73d 5c30 13bc 0cc9 123d 91cb 1f3e
00000070: 21fe f13c ed3d 843c fffb 333e 5765 2bbe
00000080: cd6e 74bd bda3 a0bd 9bf1 1a3e 4ff5 e73d
00000090: 3ae4 6a3d 4b74 07bd c3cb e9bd 3db0 523c
000000a0: 49a8 963d 952c 243d 006f 21bd 120f 0ebd
000000b0: 7d09 593d 65b2 15be 0371 d23d 9322 153c
000000c0: a04f 3d3c 6226 6c3d 4a07 95bd 022f e23b
000000d0: d38c 5b3e e415 1abd 0fa6 243c 7893 1abd
000000e0: c71a 3a3e 61be 60bd 0727 003e 55b7 993d

weight f4 [60, 50]
-0.59502643 -0.18105428 0.101362 0.0365507 -0.39593354 0.3001762 -0.03388077 0.29232454
-0.3283226 0.45439404 -0.10040358 0.12384764 0.059899982 0.40316215 -1.0939561 0.19091226
-0.04926943 0.2540736 0.21726286 0.034540612 -0.31840166 0.14324984 0.27889165 -0.109993786
-0.24604571 -0.53504324 -0.16480574 -0.35149562 -0.71892875 -0.038901053 0.022906082 0.33485582
0.08984548 -0.34645978 -0.06201014 -0.39015096 -0.27729893 -0.6543303 -0.46149182 0.33165282
0.31307942 0.06422751 0.6063811 0.2115629 0.012534897 0.4273841 0.31483835 0.12646517
0.09267438 -0.047029592 0.2101794 -0.1783042 0.29019004 0.4374047 -0.08919925 -0.007470733
-0.08865301 -0.075893044 -0.45811176 0.42244112 0.058509838 0.13362344 -0.13193218 -0.50527716
-0.23681207 -0.3767229 -0.15973964 0.29322842 0.12985273 0.15302059 -0.85662156 0.04708123
0.2960677 0.008490359 0.059785534 0.10189535 0.34121063 -0.29640713 0.2984699 -0.86746335
0.0811979 0.31009024 -0.08416268 0.4862245 -0.27604845 -0.1402448 -0.6459403 -0.34779856
0.12135947 -0.18185525 -0.5890986 0.22418503 0.11588569 0.074815184 0.12008887 0.31968915
-0.4352336 0.4373144 0.32048827 0.42086866 -0.39989346 -0.7052615 0.2960315 0.2470275
-0.11597965 0.14117144 0.24307485 -0.2411476 0.2220898 -0.14653203 -0.13658181 0.16816552
-0.002478564 0.2650438 0.43307185 -0.6413705 0.17093427 0.101404876 -0.22186121 -0.43043128
-0.14682347 -0.17631736 0.078994416 0.5283537 -0.26376995 -1.1682956 -0.23265246 0.037876233
0.34609926 0.12545855 0.17637198 0.023256 0.10055037 0.42782038 -0.37378955 -0.2652324
0.15401441 0.4446916 0.19284984 0.16819124 0.4087166 -0.040035374 0.580809 0.0026241785
-0.119098954 -0.35492548 0.28042397 -0.20440583 0.6039863 -0.38180053 0.15517086 -0.12825333
0.07120479 -0.14040086 -0.03980561 -0.6212164 -0.078775905 0.09258403 -0.398646 -0.87519634
-0.01275095 -0.539328 -0.16739184 0.28463 -0.12722255 -0.12444657 0.19136518 0.12826137
0.280041 -0.11616839 0.21324122 -0.29239568 0.2882546 -0.56617004 -0.058984574 0.11171967
-0.14475559 0.12565814 0.2523473 0.326861 -0.2967283 -0.37141535 0.38632086 -0.16553862
-0.7549982 0.041685957 -0.65534836 0.28642887 -0.15907307 0.013305867 0.025051452 0.36771974
-0.26429236 -0.23571518 0.026159205 0.18189314 0.10268751 0.36553398 -0.010606329 0.16771398
0.0611425 -0.7699461 0.19225918 -0.572063 0.16804776 -0.81365716 0.124730155 -0.0022345625
-0.0062036137 -0.16493429 -0.15036628 0.49937892 -0.088340335 -0.16482067 -0.44963074 -0.21799043
-0.74700093 0.1230418 0.1767581 -0.66951793 -0.25393194 0.007517119 -0.081923306 -0.05125265
0.0052514556 -0.7315078 0.25068295 -0.58292216 0.08949078 -0.66501474 -0.47816452 -0.025348248
0.06957482 0.26964274 0.10747715 0.106102966 0.34297863 0.09897908 -0.14624113 -0.590319
0.18168744 -0.28596884 0.118295655 -0.34490022 -0.00085270964 0.3457007 0.22815892 -0.5808124
0.08691281 -0.19412348 -0.16461822 -0.19533388 0.25696486 -0.12359739 -0.45848313 -0.672627
00000000: a753 18bf 4b66 39be e196 cf3d 30b6 153d
00000010: cdb7 cabe b2b0 993e 90c6 0abd 90ab 953e
00000020: e619 a8be 56a6 e83e 64a0 cdbd d5a3 fd3d
00000030: af59 753d 456b ce3e c106 8cbf 817e 433e
00000040: bece 49bd ef15 823e 287a 5e3e 757a 0d3d
00000050: 8b05 a3be 16b0 123e e3ca 8e3e 6c44 e1bd
00000060: 68f3 7bbe 98f8 08bf d6c2 28be 3cf7 b3be
00000070: b70b 38bf b656 1fbd 89a5 bb3c 3972 ab3e
00000080: e800 b83d 2d63 b1be 58fe 7dbd dec1 c7be
00000090: 20fa 8dbe 3182 27bf a848 ecbe 66ce a93e
000000a0: f24b a03e b689 833d cb3b 1b3f f2a3 583e
000000b0: 2b5f 4d3c 17d2 da3e 7e32 a13e 1680 013e
000000c0: 11cc bd3d 1aa2 40bd 4539 573e 6095 36be
000000d0: ca93 943e 82f3 df3e 19ae b6bd 0dcd f4bb
000000e0: b68f b5bd d06d 9bbd a08d eabe 344a d83e
000000f0: 03a8 6f3d 95d4 083e 3b19 07be d859 01bf
00000100: dd7e 72be d3e1 c0be ca92 23be 0922 963e
00000110: 1df8 043e 6eb1 1c3e 8d4b 5bbf 3fd8 403d
00000120: 3096 973e 261b 0b3c ade1 743d 82ae d03d
00000130: 29b3 ae3e adc2 97be 0cd1 983e 1412 5ebf
00000140: 164b a63d 26c4 9e3e 7c5d acbd 6bf2 f83e
00000150: 3956 8dbe 559c 0fbe 585c 25bf a712 b2be
00000160: 508b f83d 4338 3abe 2acf 16bf c390 653e
00000170: 7a55 ed3d b438 993d 27f1 f53d 4cae a33e
00000180: f0d6 debe ace7 df3e 0a17 a43e 197c d73e
00000190: d6be ccbe 058c 34bf 7191 973e c7f4 7c3e
000001a0: bd86 edbd 3f8f 103e 9de8 783e 65ef 76be
000001b0: 826b 633e 7e0c 16be 1adc 0bbe 9533 2c3e
000001c0: 676f 22bb d2b3 873e 98bb dd3e db30 24bf
000001d0: 6509 2f3e 5cad cf3d 962f 63be 7d61 dcbe
000001e0: e458 16be 8a8c 34be d3c7 a13d 3042 073f
000001f0: db0c 87be b68a 95bf 723c 6ebe 1c24 1b3d
00000200: ec33 b13e 3578 003e db9a 343e 5e83 be3c
00000210: 5aed cd3d 460b db3e 5861 bfbe 8bcc 87be
00000220: f4b5 1d3e 9eae e33e 6e7a 453e 533a 2c3e
00000230: 4d43 d13e 22fc 23bd e6af 143f 69fa 2b3b
00000240: 27ea f3bd cbb8 b5be bb93 8f3e c34f 51be
00000250: d99e 1a3f 5c7b c3be 1ce5 1e3e d754 03be
00000260: d1d3 913d 3ec5 0fbe 350b 23bd 0a08 1fbf
00000270: 4355 a1bd b29c bd3d 541b ccbe de0c 60bf
00000280: 5ce9 50bc 6611 0abf c468 2bbe 06bb 913e
00000290: a146 02be d8dd febd 3cf5 433e f356 033e
000002a0: 8961 8f3e b1e9 edbd e85b 5a3e e3b4 95be
000002b0: 1b96 933e 85f0 10bf cf99 71bd 48cd e43d
000002c0: cf3a 14be 87ac 003e aa33 813e 535a a73e
000002d0: c6ec 97be 272a bebe d9cb c53e f582 29be
000002e0: 9047 41bf e5be 2a3d e9c4 27bf cea6 923e
000002f0: 0de4 22be da00 5a3c b438 cd3c c345 bc3e
00000300: 5451 87be 525f 71be d44b d63c 3242 3a3e
00000310: d44d d23d 4527 bb3e 2bc6 2dbc 37bd 2b3e
00000320: 8f70 7a3d 301b 45bf 97df 443e b972 12bf
00000330: b614 2c3e d64b 50bf 8672 ff3d bd71 12bb
00000340: af47 cbbb 89e4 28be 9ef9 19be 98ae ff3e
00000350: c7eb b4bd c0c6 28be 0036 e6be e238 5fbe
00000360: 743b 3fbf 57fd fb3d 1300 353e 8765 2bbf
00000370: 5e03 82be 2a52 f63b 68c7 a7bd 4cee 51bd
00000380: 6714 ac3b 1844 3bbf 8459 803e 633a 15bf
00000390: f146 b73d 683e 2abf fbd1 f4be 21a7 cfbc
000003a0: 3e7d 8e3d 9d0e 8a3e fb1c dc3d 834c d93d
000003b0: e59a af3e 8bb5 ca3d 3cc0 15be 251f 17bf
000003c0: 460c 3a3e 826a 92be fe44 f23d c396 b0be
000003d0: 6088 5fba afff b03e 7ea2 693e 1fb0 14bf
000003e0: 58ff b13d 4ec8 46be ae91 28be 9b05 48be
000003f0: e690 833e a120 fdbd 4dbe eabe 4831 2cbf

bias f4 [60]
-0.063531995 0.058049835 0.15175138 -0.194631 -0.33694762 -0.04098749 -0.046355817 -0.029093899
-0.17673379 -0.0045575956 0.06603344 0.20842162 -0.0059121465 -0.084980726 0.05054685 -0.032721978
-0.03791905 0.31783918 -0.22838935 0.13909619 -0.053566705 0.0011939649 0.009711427 0.015740486
0.19136994 -0.012956133 -0.0068667987 -0.1865044 0.039082687 -0.022634692 0.15293665 0.28623202
0.19261277 0.14254832 0.044457134 0.092888616 0.33492395 -0.008388845 -0.040845994 0.19942115
-0.10161978 0.16073024 0.11400266 -0.036245055 -0.022588035 0.139485 -0.16834936 0.06541702
-0.014144504 0.06840833 0.089605875 -0.05922025 -0.06590702 -0.10662151 -0.23723894 -0.022714868
-0.049474377 -0.17565928 0.10031566 0.08512051
00000000: 101d 82bd aac5 6d3d b764 1b3e 594d 47be
00000010: 6684 acbe 80e2 27bd 99df 3dbd 5456 eebc
00000020: b4f9 34be e257 95bb 8a3c 873d 7a6c 553e
00000030: aeba c1bb 600a aebd 370a 4f3d 7b07 06bd
00000040: 0151 1bbd d1bb a23e e6de 69be 3b6f 0e3e
00000050: c368 5bbd d07e 9c3a ad1c 1f3c 31f2 803c
00000060: 7bf6 433e f645 54bc e202 e1bb 02fb 3ebe
00000070: 2b15 203d 646c b9bc 6d9b 1c3e 018d 923e
00000080: 483c 453e 30f8 113e af18 363d 633c be3d
00000090: 277b ab3e 5e71 09bc 214e 27bd 0f35 4c3e
000000a0: 081e d0bd 7896 243e 3a7a e93d b275 14bd
000000b0: 8b0a b9bc 28d5 0e3e c663 2cbe 5cf9 853d
000000c0: 5abe 67bc ab19 8c3d 4983 b73d ef90 72bd
000000d0: 42fa 86bd 615c dabd c4ee 72be 8814 babc
000000e0: a5a5 4abd 07e0 33be 4c72 cd3d a953 ae3d

weight f4 [60, 60]
-0.13343988 -0.14526927 0.32617173 -0.35471323 0.22780977 0.14089881 0.1258863 -0.4061369
-0.4260728 -0.48879668 0.25870204 -0.062620655 0.31580395 -0.10603126 0.24341811 0.062831104
-0.39922148 0.086146645 0.0018022922 0.5253782 -0.06078064 0.097308606 0.053188648 0.00039986198
0.06908086 -0.14490767 -0.14147352 -0.18171567 0.50682074 -0.40629864 0.2846427 0.112095185
0.40635237 -0.43857247 0.030839242 -0.09529885 -0.8211668 -0.023418987 -0.4140102 0.11114051
-0.025374854 -0.4356746 0.072193794 0.0327087 -0.013902667 -0.67191124 0.13702734 -0.1339111
-0.42678893 0.44149378 -0.19704966 -0.19468856 -0.06861928 0.2322271 0.49827594 0.24439916
0.0042185285 0.22420053 -0.14741354 0.056072664 0.49704698 -0.33915824 -0.16339633 0.2504462
0.24284714 0.030366778 -0.30361515 0.18909118 -0.13471815 0.31097555 -0.40335503 -0.22759761
0.13169315 -0.32543328 0.49994218 0.25479904 -0.4239364 -0.28280678 -0.027127275 -0.46700776
-0.21011923 -0.39279118 -0.25463194 0.14492562 -0.18316394 -0.06316458 -0.93577474 -0.40482718
-0.08338961 -0.51720536 0.1542206 -0.08410224 0.34308603 0.08429378 -0.43902054 -0.17786299
0.14674701 -0.6016317 -0.17416397 0.22620171 0.036180027 -0.35814366 0.051483016 0.44299918
-0.18058072 -0.61407185 -0.17745803 0.42517346 -0.3299926 0.3309543 0.20072192 0.032054618
0.0956299 0.35383475 -0.0963857 -0.022595368 0.042973265 -0.037864685 0.06463117 0.2355778
-0.12819941 -0.31236446 -0.09975354 -0.23198593 0.62454283 0.13702698 -0.12448267 -0.16805768
0.14222659 -0.29083538 0.35529175 -0.30660343 0.25136194 -0.2197181 -0.09429349 0.049216665
0.046190795 0.052256357 -0.13033247 -0.48427707 0.057261094 -0.37424058 -0.39626762 0.2795879
-0.04994428 0.3043433 -0.44272152 -0.009334124 -0.57417035 0.021910843 0.3264741 -0.6360651
0.5875376 -0.16582784 0.19192229 -0.34656632 -0.030764963 -0.13688536 -0.29685298 -0.10777975
-0.02804979 -0.2963654 0.06167358 0.12619887 -0.12248497 -0.14288586 -0.23669608 -0.28441438
0.45680395 -0.10882565 -0.23402049 0.18181042 -0.3849713 -0.03913867 0.16018249 -0.122113906
-0.36306128 0.36334363 0.36328882 0.18108551 -0.1720634 0.059946314 0.2097108 -0.08484517
0.03518394 0.34589988 0.030575022 -0.33615157 -0.06657959 -0.274756 0.19050422 -0.056463916
0.100534864 0.2597553 0.2918472 -0.10817045 -0.29289344 -0.4020033 -0.105016485 -0.14842807
0.03719099 -0.21110606 0.07430672 0.07991711 0.23148711 0.08226164 -0.54837537 0.26654452
-0.19701496 0.047592904 -0.700673 -0.28469172 0.0828664 0.29401875 0.3463989 -0.0014418389
-0.67733675 -0.32257286 -0.18583746 0.3728074 -0.039916523 -0.12645282 0.22671002 -0.0797803
-0.47595754 -0.46494916 0.2219607 -0.1101982 0.067222185 0.16983032 0.31996173 0.13335012
0.24246636 0.26909932 -0.22246267 -0.23910812 0.23665452 0.166368 0.23650883 0.22235954
-0.5536686 -0.02190127 -0.20229927 0.10724597 -0.44461915 0.34664494 0.5319628 -0.23673074
0.2489135 0.15889573 0.13879336 -0.22633663 -0.05524959 -0.22571222 0.27416742 0.11430812
00000000: 77a4 08be 78c1 14be fbff a63e f99c b5be
00000010: f746 693e c747 103e 57e8 003e 2df1 cfbe
00000020: 3726 dabe 8f43 fabe 9874 843e 423f 80bd
00000030: 0eb1 a13e eb26 d9bd 9942 793e 98ad 803d
00000040: c266 ccbe a76d b03d e43a ec3a 307f 063f
00000050: 1ff5 78bd bc49 c73d 57dc 593d 91a4 d139
00000060: 447a 8d3d ad62 14be 6fde 10be ac13 3abe
00000070: 01bf 013f 6006 d0be b0bc 913e 2992 e53d
00000080: 6b0d d03e 928c e0be 94a2 fc3c 0b2c c3bd
00000090: fd37 52bf 2dd9 bfbc 25f9 d3be a39d e33d
000000a0: edde cfbc be10 dfbe 57da 933d 8ff9 053d
000000b0: 03c8 63bc 6002 2cbf e550 0c3e fe1f 09be
000000c0: 1484 dabe 790b e23e 63c7 49be 705c 47be
000000d0: 4488 8cbd f1cc 6d3e 061e ff3e c643 7a3e
000000e0: 953b 8a3b d394 653e 93f3 16be 73ac 653d
000000f0: f17c fe3e 26a6 adbe 5e51 27be 7c3a 803e
00000100: ecac 783e c0c3 f83c 7273 9bbe 1ea1 413e
00000110: 8ef3 09be 3038 9f3e 8d84 cebe 590f 69be
00000120: 92da 063e 319f a6be 6cf8 ff3e 0575 823e
00000130: 310e d9be 0dcc 90be 053a debc a41b efbe
00000140: 7f29 57be ed1b c9be 1e5f 82be 6267 143e
00000150: 548f 3bbe 6e5c 81bd ef8e 6fbf 8245 cfbe
00000160: 2cc8 aabd 9267 04bf 01ec 1d3e cc3d acbd
00000170: f9a8 af3e 38a2 ac3d 4dc7 e0be b721 36be
00000180: d944 163e 8904 1abf 0a58 32be 6ca1 673e
00000190: 8231 143d 9b5e b7be dbdf 523d cad0 e23e
000001a0: 27ea 38be d033 1dbf 8fb7 35be 56b0 d93e
000001b0: caf4 a8be d872 a93e 0c8a 4d3e b44b 033d
000001c0: 9cd9 c33d d429 b53e de65 c5bd ec19 b9bc
000001d0: bc04 303d 0018 1bbd 595d 843d 4f3b 713e
000001e0: b546 03be 3cee 9fbe 954b ccbd b88d 6dbe
000001f0: 0ae2 1f3f cd50 0c3e c5f0 febd 5017 2cbe
00000200: d9a3 113e 60e8 94be cde8 b53e 20fb 9cbe
00000210: 83b2 803e c8fd 60be f21c c1bd 6a97 493d
00000220: 8f32 3d3d c30a 563d e075 05be 2af3 f7be
00000230: 9c8a 6a3d 769c bfbe 97e3 cabe 2526 8f3e
00000240: 6092 4cbd e3d2 9b3e 65ac e2be 27ee 18bc
00000250: d4fc 12bf 5e7e b33c 9d27 a73e 2ad5 22bf
00000260: dd68 163f c6ce 29be 4787 443e 2471 b1be
00000270: ce06 fcbc ad2b 0cbe 1dfd 97be a1bb dcbd
00000280: acc8 e5bc 35bd 97be 709d 7c3d 473a 013e
00000290: 66d9 fabd ac50 12be 7560 72be c39e 91be
000002a0: 35e2 e93e fbdf debd 11a3 6fbe 832c 3a3e
000002b0: f51a c5be df4f 20bd e106 243e db16 fabd
000002c0: 2be3 b9be 2d08 ba3e fe00 ba3e 7b6e 393e
000002d0: 6331 30be 448a 753d 6ebe 563e 4ec3 adbd
000002e0: 091d 103d ca19 b13e 7878 fa3c 0f1c acbe
000002f0: e15a 88bd d2ac 8cbe 8a13 433e b546 67bd
00000300: 39e5 cd3d a6fe 843e ff6c 953e 7888 ddbd
00000310: 21f6 95be 60d3 cdbe e212 d7bd 87fd 17be
00000320: 9455 183d 302c 58be 1f2e 983d 95ab a33d
00000330: f50a 6d3e ca78 a83d 5462 0cbf 8678 883e
00000340: 4abe 49be c7f0 423d 4e5f 33bf 1dc3 91be
00000350: dcb5 a93d a089 963e 325b b13e 16fc bcba
00000360: f165 2dbf 4528 a5be 2d4c 3ebe 9de0 be3e
00000370: 827f 23bd d97c 01be ac26 683e db63 a3bd
00000380: b5b0 f3be d10d eebe aa49 633e 98af e1bd
00000390: c9ab 893d 00e8 2d3e 06d2 a33e ef8c 083e
000003a0: 1a49 783e 63c7 893e 41cd 63be c2d8 74be
000003b0: 9055 723e 5f5c 2a3e 5f2f 723e 38b2 633e
000003c0: 3abd 0dbf 4b6a b3bc 8a27 4fbe c6a3 db3d
000003d0: 1fa5 e3be 727b b13e b72e 083f 8b69 72be
000003e0: 2ee3 7e3e 90b5 223e d91f 0e3e cac4 67be
000003f0: 654d 62bd 1b21 67be ac5f 8c3e 601a ea3d

bias f4 [60]
0.30914214 0.0021842374 0.036943592 -0.18756539 0.13480805 0.10095885 -0.06819337 0.077504806
0.06812817 0.1380461 0.07357622 0.09039269 0.05457586 0.16651778 0.054620355 0.16085729
0.012276363 0.1519686 0.28512678 -0.038172137 0.1795295 0.17198758 0.0473479 0.13275555
0.22318426 0.067080915 0.09341541 0.016279325 0.14559077 0.08584676 -0.011482927 0.052991334
0.2258835 0.17930846 0.06169891 -0.1476338 -0.27986145 0.019707857 0.12701368 0.104968585
0.14289175 -0.06441771 0.14290483 0.19611031 0.06337527 0.007864573 0.22955951 0.006136892
0.092750974 -0.05413282 -0.0005983781 0.0918911 0.07439237 -0.17217095 0.1181265 9.2530485e-05
0.050555397 0.0044563366 0.29214612 0.1326185
00000000: e147 9e3e 6c25 0f3b 2a52 173d 2411 40be
00000010: 1f0b 0a3e 83c3 ce3d f7a8 8bbd d7ba 9e3d
00000020: c886 8b3d f55b 0d3e 21af 963d cd1f b93d
00000030: f08a 5f3d a383 2a3e 98b9 5f3d c6b7 243e
00000040: cc22 493c a89d 1b3e 23fc 913e 635a 1cbd
00000050: 95d6 373e 831d 303e dfef 413d 12f1 073e
00000060: 6a8a 643e b861 893d 9450 bf3d 385c 853c
00000070: bf15 153e 6dd0 af3d e322 3cbc 710d 593d
00000080: 014e 673e a39c 373e ffb7 7c3d 512d 17be
00000090: 004a 8fbe 5f72 a13c e00f 023e c5f9 d63d
000000a0: 3752 123e 6fed 83bd a555 123e 24d1 483e
000000b0: e5ca 813d 69da 003c a611 6b3e fb17 c93b
000000c0: 39f4 bd3d 60ba 5dbd 79dc 1cba 6731 bc3d
000000d0: 075b 983d 954d 30be 4eec f13d ed0c c238
000000e0: 2d13 4f3d 7606 923b 2d94 953e 25cd 073e

weight f4 [60, 60]
0.21842064 0.17509884 -0.2716974 0.029742606 0.51906663 0.08143161 -0.25682083 -1.0442735
-0.21012068 -0.3741818 0.2794477 0.24401855 -0.41320625 -0.012079957 -0.33510578 -0.02307064
-0.06832364 0.604179 -0.1541329 -0.5385542 0.03874671 -0.12232685 0.054823928 0.06792952
0.0031755383 -0.17286837 -0.033990458 0.070424125 -0.084672734 0.09797852 -0.27216566 0.063826874
0.058448914 0.10593093 0.3284861 -0.22089179 0.25487158 -0.16841504 0.3898755 -0.11585741
-0.07701108 0.25001392 0.114942364 0.01266106 -0.13256572 -0.53341043 0.38811588 0.40732375
-0.14790167 -0.47497174 0.08564943 -0.10147315 -0.49070656 -0.10068247 0.36793306 -0.37041292
0.20059805 0.42384538 -0.27052465 -0.08160918 0.26158017 -0.053660214 0.04113939 0.5616256
0.4495041 0.17986286 0.03960398 0.33724996 -0.20520215 -0.36971277 0.38689324 0.12643395
0.00056114956 0.098920114 0.16528665 -0.28127396 0.10101152 -0.16447097 -0.07380923 -0.097541764
-0.31359106 0.12106554 -0.2347175 -0.2395397 -0.10586962 0.1851906 -0.061182998 -0.39954668
-0.42722818 0.024438102 0.014432029 0.28936523 0.10199069 -0.24976765 0.09958769 0.39278132
-0.18783537 -0.18052857 0.291345 0.19913298 0.32359365 -0.036133844 -0.45019183 0.22360012
-0.35045773 -1.0210727 -0.977352 -0.17844103 -0.29082313 0.2055696 0.34656608 0.3402388
0.10929725 0.28627512 -0.24543515 -0.06751704 0.102128476 0.35682902 -0.17642814 0.27511525
0.1964829 0.42275763 -0.0846818 0.1402348 -0.06099936 -0.17145374 0.04368658 0.21095721
-0.012978933 -0.6016618 0.41001862 0.06868849 -0.08059162 -0.13939033 -0.1760304 0.069116995
0.086091466 0.46685466 -0.20486112 -0.038309958 0.6831685 0.025275704 -0.08599869 -0.23655216
0.26476997 0.14585096 0.12631096 -0.13768768 0.16317257 0.15969808 -0.521003 -0.21276218
0.1417454 0.43690497 0.24418128 -0.24539816 0.09389735 -0.21137995 -0.1522545 -0.20103118
-0.5923422 0.3313398 0.5973639 -0.49706435 -0.5739684 0.10910856 0.07884194 -0.027599484
0.0613319 0.028020142 0.005242779 0.41470316 -0.24470706 -0.29172486 -0.045325253 -0.028472325
0.3795145 0.19431639 -0.22786169 -0.7047883 0.07791353 0.0752573 -1.0131485 0.29548994
0.41335353 -0.031308327 -0.3083051 -0.123415634 0.11990209 -0.013430445 0.20470037 -0.67925227
0.04058458 0.10363525 0.227481 -0.3214488 -0.1698281 0.11115846 -0.061202742 0.36317876
-0.04310912 0.13830797 -0.045954533 0.4456549 -0.2631994 0.10565349 0.029318724 -0.17768975
-0.07556935 -0.030709151 -0.158979 0.08768607 -0.18124911 -0.39702943 -0.5646531 -0.079712614
0.5543066 -0.3271454 0.385579 -0.2728294 0.08026161 0.087428786 -0.6365797 0.2272954
0.08583208 0.027616166 -0.07361275 -1.1710533 -0.8249686 0.61332905 -0.004567962 0.34991428
0.19721329 -0.23557062 -0.06581679 0.14031474 -0.03519211 -0.17926565 -0.38659772 -0.052289564
-0.072065696 0.0019293055 0.12311701 0.12146586 0.092214875 -0.59694105 0.021882275 0.0955892
0.3473225 0.16346808 -0.01070463 0.20411646 -0.31299916 -0.14312536 -0.0009269408 0.13160706
00000000: a9a9 5f3e 1c4d 333e ec1b 8bbe c4a6 f33c
00000010: 8de1 043f 9ec5 a63d 057e 83be c1aa 85bf
00000020: e029 57be c294 bfbe c513 8f3e 00e0 793e
00000030: c58f d3be 03eb 45bc fc92 abbe a4fe bcbc
00000040: 44ed 8bbd 7aab 1a3f 04d5 1dbe b0de 09bf
00000050: dfb4 1e3d 8086 fabd 0e8f 603d a21e 8b3d
00000060: b11c 503b 6804 31be 9439 0bbd 863a 903d
00000070: e668 adbd f6a8 c83d 4c59 8bbe aab7 823d
00000080: 2168 6f3d 51f2 d83d 552f a83e 7531 62be
00000090: 877e 823e fe74 2cbe c39d c73e a646 edbd
000000a0: fcb7 9dbd d301 803e e766 eb3d 5670 4f3c
000000b0: 4fbf 07be 968d 08bf 20b7 c63e bd8c d03e
000000c0: 8973 17be 7f2f f3be f868 af3d 28d1 cfbd
000000d0: e43d fbbe 9c32 cebd b961 bc3e c3a6 bdbe
000000e0: 9369 4d3e 4302 d93e 3582 8abe b722 a7bd
000000f0: d6ed 853e d0ca 5bbd c781 283d b2c6 0f3f
00000100: 6725 e63e f82d 383e c837 223d 07ac ac3e
00000110: 8320 52be fe4a bdbe df16 c63e e777 013e
00000120: 1c1a 133a a196 ca3d e740 293e 2403 90be
00000130: 21df ce3d 146b 28be 4b29 97bd fac3 c7bd
00000140: 028f a0be 36f1 f73d c959 70be e549 75be
00000150: 2cd2 d8bd 9ba2 3d3e 069b 7abd 6291 ccbe
00000160: a7bd dabe 6a32 c83c 5174 6c3c ae27 943e
00000170: 7fe0 d03d 17c3 7fbe a1f4 cb3d a21a c93e
00000180: ea57 40be 7bdc 38be 2c2b 953e 84e9 4b3e
00000190: 11ae a53e 1501 14bd 8b7f e6be 6ef7 643e
000001a0: 326f b3be 83b2 82bf be33 7abf 3fb9 36be
000001b0: c5e6 94be d680 523e 1c71 b13e c833 ae3e
000001c0: 3dd7 df3d a792 923e 5a53 7bbe 6046 8abd
000001d0: bc28 d13d 4bb2 b63e 94a9 34be e8db 8c3e
000001e0: d032 493e b073 d83e a76d adbd b699 0f3e
000001f0: 77da 79bd 9291 2fbe b3f0 323d 2b05 583e
00000200: 97a5 54bc 8206 1abf f6ed d13e 8dac 8c3d
00000210: 380d a5bd 57bc 0ebe 5041 34be 368d 8d3d
00000220: b950 b03d 9307 ef3e 1dc7 51be e7ea 1cbd
00000230: 21e4 2e3f fe0e cf3c 1520 b0bd bb3a 72be
00000240: ee8f 873e f459 153e a957 013e 00fe 0cbe
00000250: b616 273e e587 233e 7460 05bf 54de 59be
00000260: b525 113e 02b2 df3e a80a 7a3e a849 7bbe
00000270: 414d c03d fc73 58be 9be8 1bbe 1edb 4dbe
00000280: bda3 17bf 5fa5 a93e d7ec 183f 387f febe
00000290: 98ef 12bf 4f74 df3d e277 a13d 5018 e2bc
000002a0: 2937 7b3d 7f8a e53c 9ecb ab3b f953 d43e
000002b0: 7d94 7abe f65c 95be f9a6 39bd cb3e e9bc
000002c0: b94f c23e e0fa 463e 9354 69be 026d 34bf
000002d0: 2191 9f3d 8020 9a3d daae 81bf 754a 973e
000002e0: 13a3 d33e 293d 00bd 2bda 9dbe 56c1 fcbd
000002f0: 3a8f f53d 5f0b 5cbc f99c 513e 7ae3 2dbf
00000300: 043c 263d b83e d43d c7f0 683e f094 a4be
00000310: 6be7 2dbe 0ca7 e33d baaf 7abd 91f2 b93e
00000320: 3093 30bd 9ba0 0d3e d23a 3cbd e12c e43e
00000330: 12c2 86be db60 d83d d22d f03c 4df4 35be
00000340: 1ac4 9abd c291 fbbc 64cb 22be c194 b33d
00000350: 5e99 39be 7147 cbbe 1b8d 10bf 5e40 a3bd
00000360: 0ae7 0d3f 9a7f a7be 9c6a c53e 4cb0 8bbe
00000370: 3360 a43d dd0d b33d e3f6 22bf 20c0 683e
00000380: bbc8 af3d 4c3b e23c 48c2 96bd 13e5 95bf
00000390: 2431 53bf 2203 1d3f d8ae 95bb f727 b33e
000003a0: 48f2 493e 6d39 71be f4ca 86bd abae 0f3e
000003b0: 9a25 10bd 6a91 37be 23f0 c5be 952d 56bd
000003c0: 2e97 93bd c0e0 fc3a c524 fc3d 18c3 f83d
000003d0: 27db bc3d 21d1 18bf 7542 b33c 45c4 c33d
000003e0: 41d4 b13e 2d64 273e 7962 2fbc e803 513e
000003f0: 6d41 a0be 748f 12be f2fd 72ba 00c4 063e

weight f4 [60]
1.3973633 1.329081 1.6372985 1.3310422 1.4509197 1.4980068 1.2214423 1.17511
1.3268939 1.2409295 1.0551262 1.2430935 1.5635588 1.2181376 1.3222487 1.5232105
1.1603252 1.146863 1.4135307 1.4711616 1.2416714 1.4392713 1.4001065 1.328449
1.2669115 1.4620568 1.3375609 1.4015086 1.5200232 1.4442246 1.3860663 1.3283824
1.3428996 1.3103536 1.2183888 1.1500057 1.4305904 1.4019006 1.4424651 1.6223252
1.1373978 1.4272306 1.2922446 1.3273982 1.3747194 1.2469712 1.5026615 1.4020342
1.3547554 1.3999383 1.4156902 1.34188 1.4272314 1.4844217 1.3797741 1.638222
1.2740053 1.3890322 1.2791809 1.4745336
00000000: cddc b23f 541f aa3f ff92 d13f 975f aa3f
00000010: bdb7 b93f b0be bf3f 3958 9c3f 016a 963f
00000020: a9d7 a93f c7d6 9e3f 600e 873f b01d 9f3f
00000030: b222 c83f efeb 9b3f 723f a93f 90f8 c23f
00000040: 8985 943f 68cc 923f 93ee b43f 064f bc3f
00000050: 17ef 9e3f 0b3a b83f b136 b33f 9e0a aa3f
00000060: 282a a23f ad24 bb3f 3235 ab3f a264 b33f
00000070: 1f90 c23f 5adc b83f 9f6a b13f 6f08 aa3f
00000080: 22e4 ab3f abb9 a73f 2af4 9b3f 6333 933f
00000090: 961d b73f 7b71 b33f b2a2 b83f 5aa8 cf3f
000000a0: 4096 913f 7eaf b63f 4568 a53f 2fe8 a93f
000000b0: cef6 af3f c19c 9f3f 3657 c03f db75 b33f
000000c0: a068 ad3f 2e31 b33f 5635 b53f b9c2 ab3f
000000d0: 85af b63f 8801 be3f 709c b03f 42b1 d13f
000000e0: 9b12 a33f cfcb b13f 33bc a33f 84bd bc3f

bias f4 [60]
0.07472932 -0.23982383 -0.15168864 -0.1518971 0.04089312 0.30072063 0.014086298 -0.32981053
0.041133437 -0.0692542 -0.13846466 -0.20074943 -0.2227788 0.083573915 0.3117889 -0.03512
-0.47373292 -0.22417583 -0.13018969 -0.4306109 -0.50431585 -0.0172021 -0.1279746 0.050836533
-0.39225477 -0.16692823 -0.6493009 -0.24242736 -0.35221595 -0.12836999 -0.21161805 -0.08886506
-0.12530911 0.3788745 -0.08136099 0.032652177 -0.5005963 -0.2782579 -0.34928504 0.24080302
0.13794132 -0.0312389 -0.22635484 -0.14972949 -0.3057676 -0.24820279 -0.53894854 0.15955663
-0.20380402 -0.034822367 0.1825865 -0.20535147 0.28955162 0.69333136 0.47557244 -0.15009378
-0.26555738 0.19787507 -0.1490484 -0.26249722
00000000: b00b 993d 6194 75be 4454 1bbe ea8a 1bbe
00000010: 8b7f 273d 0ef8 993e 37ca 663c eddc a8be
00000020: 897b 283d 25d5 8dbd aec9 0dbe 4291 4dbe
00000030: 2020 64be cd28 ab3d cba2 9f3e fdd9 0fbd
00000040: 1f8d f2be 598e 65be 7250 05be 0879 dcbe
00000050: d81a 01bf 6beb 8cbc c60b 03be f839 503d
00000060: 9ed5 c8be 3cef 2abe 9538 26bf e13e 78be
00000070: a655 b4be 6c73 03be 67b2 58be e2fe b5bd
00000080: 0851 00be d7fb c13e 97a0 a6bd 4abe 053d
00000090: 1427 00bf d277 8ebe 7dd5 b2be 1195 763e
000000a0: 7d40 0d3e b9e8 ffbc 90c9 67be b052 19be
000000b0: 928d 9cbe df28 7ebe 88f8 09bf d062 233e
000000c0: 00b2 50be e6a1 0ebd f5f7 3a3e a847 52be
000000d0: 1c40 943e 2a7e 313f 3b7e f33e 2fb2 19be
000000e0: 23f7 87be c39f 4a3e 25a0 18be 0966 86be

running_mean f4 [60]
-0.107289724 -0.014452152 0.09603012 -0.077085726 0.059745014 0.10716193 0.059947483 0.018976
-0.021874055 -0.033526868 0.026232034 -0.22251579 0.09212639 0.015063606 0.17281975 0.16420968
-0.093368605 0.06137831 -0.00027709073 0.05878221 0.15519336 -0.1053572 0.008724486 -0.055794574
0.035216346 -0.017427253 0.03743886 0.12910157 0.0043209344 0.006405471 0.17181961 -0.19476083
-0.074111015 -0.12546614 0.058793608 0.14379492 -0.006823639 -0.058091614 -0.20048249 -0.017936533
0.0514608 0.047441017 -0.06414856 -0.068265036 0.021600727 -0.19944946 0.08909457 -0.0015857161
-0.01447884 -0.007059179 -0.08373661 -0.021798698 0.18538208 -0.049222615 -0.01602504 -0.10429423
0.18312618 -0.14045374 0.1520196 0.0060971864
00000000: b7ba dbbd b8c8 6cbc 71ab c43d 1fdf 9dbd
00000010: 30b7 743d b777 db3d 7e8b 753d 8e73 9b3c
00000020: 3831 b3bc 7853 09bd 90e4 d63c 2edb 63be
00000030: c3ac bc3d 58cd 763c a9f7 303e 9526 283e
00000040: 0a38 bfbd d367 7b3d 7d46 91b9 9dc5 703d
00000050: 02eb 1e3e 84c5 d7bd 26f1 0e3c da88 64bd
00000060: 043f 103d 99c3 8ebc 7d59 193d 3433 043e
00000070: a096 8d3b fce4 d13b 7bf1 2f3e 626f 47be
00000080: 84c7 97bd 327a 00be 91d1 703d fa3e 133e
00000090: d598 dfbb 79f1 6dbd 484b 4dbe a3ef 92bc
000000a0: 8fc8 523d 8351 423d 5260 83bd 8ace 8bbd
000000b0: 02f4 b03c 7b3c 4cbe 3777 b63d ced7 cfba
000000c0: a838 6dbc af50 e7bb 1a7e abbd 2f93 b2bc
000000d0: cdd4 3d3e a79d 49bd f246 83bc 3798 d5bd
000000e0: 6e85 3b3e 1bd3 0fbe 07ab 1b3e e8ca c73b

running_var f4 [60]
0.60879546 0.5177279 0.577552 0.53530926 0.680419 0.5643738 0.7240187 0.3404837
0.37815824 0.71591306 0.3750629 0.6410349 0.527705 0.5950171 0.41243836 0.70359045
0.5707318 0.42535454 0.48709437 0.47958058 0.38965085 0.63769954 0.38384905 0.58005357
0.70798516 0.7301194 0.5686978 0.50883603 0.75476 0.72247237 0.4420779 0.6306203
0.47322318 0.45384258 0.63969386 0.4270083 0.4680283 0.648652 0.63352716 0.75016695
0.38200817 0.59256965 0.4428179 0.86199117 0.5567229 0.8134921 0.6241987 0.51770175
0.62604374 0.6662759 0.46224427 0.43355104 0.45348543 0.72241396 0.60754967 0.5743019
0.44375667 0.8253976 0.5162895 0.46331358
00000000: 05da 1b3f d189 043f 73da 133f 070a 093f
00000010: f12f 2e3f cd7a 103f 4a59 393f e153 ae3e
00000020: f59d c13e 1446 373f 3f08 c03e dd1a 243f
00000030: ad17 073f 0a53 183f 1f2b d33e 811e 343f
00000040: 7b1b 123f 12c8 d93e 6f64 f93e 968b f53e
00000050: 5180 c73e 4740 233f dd87 c43e 647e 143f
00000060: 843e 353f 1be9 3a3f 2e96 113f 1443 023f
00000070: f437 413f f3f3 383f 0958 e23e 5570 213f
00000080: 4f4a f23e 0e5e e83e fac2 233f d5a0 da3e
00000090: 68a1 ef3e 0f0e 263f d62e 223f f10a 403f
000000a0: 9396 c33e a5b2 173f 07b9 e23e 74ab 5c3f
000000b0: 6485 0e3f 0541 503f 7ccb 1f3f 1a88 043f
000000c0: 6744 203f 0f91 2a3f 48ab ec3e 67fa dd3e
000000d0: 3e2f e83e 1ff0 383f 6088 1b3f 7305 133f
000000e0: 1334 e33e 424d 533f 8c2b 043f 7037 ed3e

weight f4 [60]
1.4913261 1.2928098 1.905104 1.3950745 1.8568753 1.7150998 1.3039166 1.6240928
1.1387703 1.3106893 1.4729036 1.6517413 1.401833 1.21592 1.502778 1.2331764
1.2680708 1.0382692 1.4624728 1.6369123 1.7169989 1.3573834 1.9235523 1.5011424
1.2584682 1.3630506 1.3369243 1.4556131 1.2763617 1.3922615 1.2788333 1.3836485
1.407716 1.7107363 1.8896526 1.9854823 1.4649181 1.4591818 1.7197847 1.3650078
1.3329157 1.1868778 1.5804579 1.5440116 1.3986509 1.1770895 1.5488762 1.8165773
1.2065737 1.5889505 1.5104958 1.9053304 1.7073288 1.796813 1.4561511 1.2576305
1.695857 1.7701722 1.5670273 1.6394023
00000000: c6e3 be3f cb7a a53f 73da f33f cd91 b23f
00000010: 17ae ed3f 6488 db3f bde6 a63f 46e2 cf3f
00000020: 3ac3 913f abc4 a73f 1b88 bc3f 426c d33f
00000030: 446f b33f 44a3 9b3f 085b c03f b9d8 9d3f
00000040: 2550 a23f 01e6 843f 4f32 bb3f 5886 d13f
00000050: 9fc6 db3f bdbe ad3f f636 f63f 6f25 c03f
00000060: 7c15 a13f 7178 ae3f 5620 ab3f 8851 ba3f
00000070: d25f a33f a035 b23f cfb0 a33f 651b b13f
00000080: 0a30 b43f 68f9 da3f 23e0 f13f 4924 fe3f
00000090: 7082 bb3f 78c6 ba3f e821 dc3f 93b8 ae3f
000000a0: fb9c aa3f 9deb 973f 724c ca3f 2ca2 c53f
000000b0: fe06 b33f deaa 963f 9341 c63f 9b85 e83f
000000c0: 0271 9a3f bb62 cb3f ed57 c13f dee1 f33f
000000d0: c089 da3f f8fd e53f 2963 ba3f 09fa a03f
000000e0: d811 d93f 0195 e23f 5a94 c83f efd7 d13f

bias f4 [60]
-0.32220337 0.15215762 -0.23490982 -0.35582805 -0.6874652 -0.49238983 -0.3281948 -0.24153855
-0.8554913 -0.39256826 -0.3222227 -0.35589194 -0.09150573 -0.45187092 -0.45048073 -0.23543487
-0.21007682 0.010457138 0.06369139 -0.5204164 -0.5191646 -0.13288832 -0.4542872 -0.36588064
-0.19284934 -0.6621705 -0.12869394 -0.16452189 -0.2962836 -0.16020563 -0.099189304 -0.41413298
-0.24379468 -0.5068425 -0.09570328 -0.37511355 -0.26626495 -0.27857935 -0.1434858 -0.065300696
-0.3093599 -0.13607047 -0.41922563 -0.47693607 -0.42376813 -0.47153622 -0.2048809 -0.46412098
-0.24073678 -0.44977465 -0.22790475 -0.45340368 -0.1830089 -0.6027852 -0.091183804 -0.5739512
-0.4806943 -0.32916892 -0.10208869 -0.57319653
00000000: d7f7 a4be 35cf 1b3e 338c 70be 182f b6be
00000010: b8fd 2fbf 851a fcbe 2609 a8be e255 77be
00000020: 7a01 5bbf b5fe c8be 60fa a4be 7837 b6be
00000030: 5b67 bbbd a05b e7be 69a5 e6be d715 71be
00000040: 611e 57be 6a54 2b3c a270 823d 023a 05bf
00000050: f9e7 04bf e013 08be 5598 e8be b554 bbbe
00000060: 4c7a 45be 0284 29bf 58c8 03be 6d78 28be
00000070: 7cb2 97be f20c 24be c323 cbbd 3d09 d4be
00000080: 50a5 79be 6ec0 01bf 1500 c4bd e20e c0be
00000090: e153 88be f4a1 8ebe f1ed 12be 5fbc 85bd
000000a0: 6c64 9ebe 0f56 0bbe bea4 d6be f730 f4be
000000b0: 23f8 d8be 326d f1be 4ccc 51be 44a1 edbe
000000c0: b483 76be dd48 e6be dd5f 69be 8724 e8be
000000d0: af66 3bbe 2250 1abf 93be babd 77ee 12bf
000000e0: 901d f6be d488 a8be e013 d1bd 02bd 12bf

running_mean f4 [60]
0.03833178 0.19389252 -0.45738074 0.33245412 -0.92603904 -0.49785498 -0.09904303 -0.8043979
0.4176372 -0.36012188 -1.0431044 -0.05272729 -0.0066063707 0.017952867 0.06990356 0.048537906
0.22940269 0.87610143 0.018705675 -1.0106343 -0.7147744 0.23408079 -0.4080332 -0.34851256
0.27929267 -0.18970211 -0.11514064 -0.34409967 0.51021075 -0.1150388 -0.3023352 0.24442783
0.5706146 -0.71616036 -0.3897959 -0.63116735 0.8317494 -0.12813391 -0.744461 -0.3646464
-0.19885214 0.6299257 -0.6607567 -0.17141002 -0.17859952 -0.7616633 -0.81209946 -0.16626973
-0.75107366 -0.26773176 -0.29904473 -1.3763658 -0.29901132 -0.48729175 -0.30544102 -0.020439345
-0.5572449 -0.118536696 -0.2692608 -0.63752425
00000000: c901 1d3d c38b 463e cf2d eabe 6d37 aa3e
00000010: e510 6dbf d9e6 febe 12d7 cabd 05ed 4dbf
00000020: 8bd4 d53e e561 b8be 7284 85bf 92f8 57bd
00000030: 417a d8bb e411 933c 9929 8f3d afcf 463d
00000040: 8ae8 6a3e 2f48 603f a53c 993c 775c 81bf
00000050: 75fb 36bf e0b2 6f3e bae9 d0be 3d70 b2be
00000060: 73ff 8e3e 4541 42be dbce ebbd d52d b0be
00000070: 2c9d 023f 7699 ebbd aecb 9abe 4a4b 7a3e
00000080: cc13 123f 4956 37bf 5493 c7be 2f94 21bf
00000090: 87ed 543f 8935 03be ff94 3ebf efb2 babe
000000a0: e59f 4bbe d042 213f 5a27 29bf 1c86 2fbe
000000b0: cbe2 36be 5efc 42bf c0e5 4fbf 9d42 2abe
000000c0: 5d46 40bf 2314 89be 641c 99be c12c b0bf
000000d0: 0318 99be 4e7e f9be c462 9cbe 6a70 a7bc
000000e0: 9aa7 0ebf 5ec3 f2bd 8ddc 89be ca34 23bf

running_var f4 [60]
0.5137241 1.0254513 1.0914851 0.5448688 1.203549 0.5572561 0.54649055 1.6231153
0.55305547 0.6163361 1.4494252 0.6187326 0.885891 0.62176317 0.6964338 1.5476782
0.8640957 0.89513373 0.55918455 1.5607052 0.8209523 0.66662985 1.087222 0.79539317
0.50317115 0.87013555 0.7650068 0.82612723 1.0057828 0.75662357 0.64907134 0.633618
0.45782566 1.0801198 0.9776105 0.7992176 0.7303711 0.5071254 1.3682824 1.2687014
0.6225253 0.830584 0.9615071 0.5413002 1.1200796 1.9812276 0.68004036 0.4756598
0.9051997 0.5863358 0.98039365 2.039285 0.7084919 0.8912059 0.7256448 0.59746045
1.2121732 0.7532492 1.0268986 0.9299383
00000000: 6c83 033f fd41 833f c9b5 8b3f 867c 0b3f
00000010: e50d 9a3f 56a8 0e3f cee6 0b3f 3ec2 cf3f
00000020: 0b95 0d3f 34c8 1d3f c486 b93f 4265 1e3f
00000030: c1c9 623f df2b 1f3f 7c49 323f 521a c63f
00000040: 6035 5d3f 7c27 653f b826 0f3f 30c5 c73f
00000050: ee29 523f 41a8 2a3f 172a 8b3f e39e 4b3f
00000060: d3cf 003f 34c1 5e3f 7cd7 433f 137d 533f
00000070: 7ebd 803f 15b2 413f 8a29 263f ca34 223f
00000080: 2068 ea3e 5e41 8a3f af44 7a3f 8699 4c3f
00000090: 9af9 3a3f f8d2 013f e123 af3f cf64 a23f
000000a0: d15d 1f3f 27a1 543f 5425 763f a692 0a3f
000000b0: c55e 8f3f de98 fd3f 2017 2e3f ae89 f33e
000000c0: 2bbb 673f 1a1a 163f 14fb 7a3f a583 0240
000000d0: ba5f 353f 1226 643f dcc3 393f 2bf3 183f
000000e0: 7e28 9b3f f1d4 403f 6a71 833f 7010 6e3f

weight f4 [60]
1.7130544 2.239877 1.7610534 1.7540023 2.1261477 1.9233695 1.7661709 1.8044274
1.9986142 2.1225276 1.84364 1.7028712 1.821357 2.4382148 1.9481379 2.2853553
2.0048528 2.0520895 2.2129383 1.6746852 2.274395 1.760658 2.425407 1.9849116
2.5143604 1.7054213 2.463635 1.7375424 1.8393729 1.9888982 1.6069429 2.5381663
2.1799128 2.306363 1.7247849 1.7636819 1.8346378 2.0828633 1.7416772 2.2675533
1.3752106 1.8005351 2.1672013 2.48439 2.21139 1.8748379 2.41675 2.0583415
2.459721 1.3900775 2.2258363 2.023617 2.3586597 1.8276795 2.3519285 1.7795604
1.4466554 1.7905432 2.2124317 2.406754
00000000: 5e45 db3f 255a 0f40 336a e13f 2683 e03f
00000010: ce12 0840 f930 f63f e311 e23f 7af7 e63f
00000020: 97d2 ff3f 7ed7 0740 65fc eb3f aff7 d93f
00000030: 3a22 e93f b60b 1c40 955c f93f 4343 1240
00000040: 824f 0040 6f55 0340 c8a0 0d40 165c d63f
00000050: b08f 1140 3e5d e13f de39 1b40 9511 fe3f
00000060: 48eb 2040 3f4b da3f 32ac 1d40 ca67 de3f
00000070: 9270 eb3f 3794 fe3f 4eb0 cd3f 5171 2240
00000080: b183 0b40 749b 1340 c0c5 dc3f 54c0 e13f
00000090: 69d5 ea3f a24d 0540 47ef de3f 981f 1140
000000a0: e706 b03f ef77 e63f 6db3 0a40 3f00 1f40
000000b0: 6a87 0d40 b0fa ef3f 08ac 1a40 debb 0340
000000c0: 126c 1d40 0fee b13f 1a74 0e40 f182 0140
000000d0: 48f4 1640 67f1 e93f ff85 1640 a3c8 e33f
000000e0: 012c b93f 8530 e53f 7b98 0d40 4208 1a40

bias f4 [60]
-1.367186 -1.1027546 -1.6795063 -1.2004783 -0.8806264 -1.5358192 -1.0767621 -0.42429978
-0.683636 -0.7150199 -0.81646204 -0.9365927 -0.6896437 -0.9890554 -0.72921544 -1.087272
-0.9854581 -0.6957639 -0.8574042 -1.0116086 -0.9168862 -0.4660417 -1.0286051 -0.75479174
-1.1485338 -0.56965226 -0.90383154 -1.1467394 -1.4364363 -1.1545572 -1.0955513 -1.10659
-0.8479727 -1.1234229 -1.125669 -1.0792657 -1.3834773 -1.3069557 -1.213899 -0.83337116
-0.26104888 -1.289948 -1.1433408 -0.9062878 -0.7412079 -1.2109673 -0.75576943 -1.2835057
-0.9113257 -0.8735172 -1.0380261 -0.937681 -1.0491279 -1.2014194 -1.1762974 -1.2650579
-0.941835 -0.7960228 -0.9910277 -1.1701287
00000000: f3ff aebf 1027 8dbf 10fa d6bf 46a9 99bf
00000010: bb70 61bf b995 c4bf 57d3 89bf d23d d9be
00000020: c502 2fbf 8b0b 37bf a803 51bf 8ac4 6fbf
00000030: 7d8c 30bf bc32 7dbf ddad 3abf bb2b 8bbf
00000040: fb46 7cbf 951d 32bf d77e 5bbf 647c 81bf
00000050: 0eb9 6abf 059d eebe 55a9 83bf 083a 41bf
00000060: 2803 93bf bbd4 11bf 8161 67bf 5bc8 92bf
00000070: 25dd b7bf 88c8 93bf 063b 8cbf bea4 8dbf
00000080: bd14 59bf 52cc 8fbf ec15 90bf 6125 8abf
00000090: c915 b1bf 534a a7bf 0b61 9bbf d057 55bf
000000a0: 33a8 85be 041d a5bf fe58 92bf 7a02 68bf
000000b0: cdbf 3dbf fa00 9bbf 1b7a 41bf ea49 a4bf
000000c0: a44c 69bf d39e 5fbf 0ade 84bf dd0b 70bf
000000d0: d349 86bf 1cc8 99bf ea90 96bf 6bed a1bf
000000e0: 191c 71bf 26c8 4bbf feb3 7dbf c7c6 95bf

running_mean f4 [60]
0.4590489 0.10209788 0.2788203 -0.48262244 -0.17169909 0.06287834 -0.104632236 0.10087532
-0.13851486 0.10576428 -0.01058391 0.0760182 0.19465981 0.058114033 -0.12294238 -0.38753214
-0.14051327 0.027123176 0.20929189 -0.01858075 0.09263673 0.031125858 -0.103281826 0.12429911
-0.072394565 0.095682785 -0.20264204 -0.071045235 0.17812923 0.04041916 0.033449546 0.041978717
-0.015273981 -0.03253884 0.21366659 -0.17372702 -0.38186556 0.110076025 -0.28003284 -0.22890276
0.06802719 -0.13538347 -0.3585217 0.16208155 0.061309937 -0.2312637 -0.009336588 -0.47734284
0.0019523673 -0.35818264 -0.2558163 -0.33052203 0.08029554 -0.24904262 0.12070795 -0.37373164
-0.2619049 -0.15084007 0.10036163 0.09616212
00000000: 7508 eb3e b118 d13d 89c1 8e3e 4a1a f7be
00000010: e3d1 2fbe 5cc6 803d 6d49 d6bd b897 ce3d
00000020: d7d6 0dbe f19a d83d 2368 2dbc 6eaf 9b3d
00000030: e754 473e fb08 6e3d 37c9 fbbd 9d6a c6be
00000040: b6e2 0fbe 6c31 de3c 9d50 563e a836 98bc
00000050: 53b8 bd3d a8fb fe3c 6c85 d3bd 8890 fe3d
00000060: 9a43 94bd 56f5 c33d 6581 4fbe 2a80 91bd
00000070: 8267 363e 908e 253d 6402 093d e0f1 2b3d
00000080: b83f 7abc 7247 05bd 6acb 5a3e 7fe5 31be
00000090: e283 c3be 8a6f e13d 7760 8fbe 7c65 6abe
000000a0: d751 8b3d f7a1 0abe 2890 b7be b5f8 253e
000000b0: 2120 7b3d 64d0 6cbe 7df8 18bc 4866 f4be
000000c0: 93e6 ff3a b763 b7be 5bfa 82be 2f3a a9be
000000d0: fd71 a43d 0705 7fbe bb35 f73d c159 bfbe
000000e0: 6618 86be d275 1abe 668a cd3d a5f0 c43d

running_var f4 [60]
0.27501604 0.2103109 0.26913837 0.2517809 0.2644881 0.47757643 0.17970245 0.17567837
0.30766344 0.16898365 0.13925153 0.14907673 0.16433842 0.23122813 0.23710269 0.30409625
0.2020349 0.19453439 0.24015324 0.21440859 0.23104244 0.25894946 0.16755952 0.17406659
0.25593677 0.21434808 0.38365397 0.29126787 0.25647292 0.14576831 0.16908054 0.20925072
0.2433736 0.2579754 0.22456062 0.24921845 0.18507136 0.14923511 0.324541 0.41971973
0.19442944 0.23444083 0.30642095 0.16850477 0.1289219 0.22769663 0.4575629 0.22897369
0.31971344 0.1567482 0.29791948 0.2238164 0.19972351 0.19033232 0.14610353 0.20120494
0.17849807 0.18055236 0.15519236 0.21447767
00000000: e7ce 8c3e be5b 573e 81cc 893e 6de9 803e
00000010: fc6a 873e e684 f43e eb03 383e 08e5 333e
00000020: 1086 9d3e 0d0a 2d3e f497 0e3e 92a7 183e
00000030: 5548 283e 11c7 6c3e 0ccb 723e 81b2 9b3e
00000040: 3de2 4e3e 0634 473e bbea 753e ed8d 5b3e
00000050: 6496 6c3e 0695 843e b994 2b3e 833e 323e
00000060: 250a 833e 107e 5b3e 4b6e c43e 1021 953e
00000070: 6b50 833e 4a44 153e 7323 2d3e d245 563e
00000080: ee36 793e 5a15 843e 38f3 653e 1f33 7f3e
00000090: 5983 3d3e 17d1 183e 3d2a a63e 81e5 d63e
000000a0: 8318 473e 4211 703e 35e3 9c3e 848c 2c3e
000000b0: 1a04 043e 4e29 693e af45 ea3e 1478 6a3e
000000c0: 7bb1 a33e 9a82 203e e788 983e 2030 653e
000000d0: 5284 4c3e 7ae6 423e 2a9c 153e ab08 4e3e
000000e0: 33c8 363e b8e2 383e bfea 1e3e 09a0 5b3e

weight f4 [2, 60]
-1.049299 0.6026862 -1.1575899 -1.4347538 1.077162 -1.1000419 -1.1819205 0.98417103
1.0047089 0.8019856 0.9954826 0.91388404 0.44448933 0.7925737 1.2478353 1.3535792
0.9565284 1.4823291 1.1842085 -0.9705106 1.1852782 0.8772002 1.1725545 0.8487592
1.5597973 0.572189 1.2305324 -1.1784614 -1.2409105 0.9755861 -0.8733411 1.2193714
1.1174128 1.2617741 -1.1117502 -1.0075967 -1.4420447 0.9547585 -1.3674183 1.2258853
0.7927767 -1.0825317 1.2213981 1.284656 0.97953695 -1.3646376 1.0694473 0.9917183
0.89945614 -1.108068 0.76662064 0.84133875 1.2129544 -1.1879151 0.8242091 -1.54402
-1.2201176 1.0592842 1.210529 1.1696043 1.38834 -0.9879429 1.4608941 1.3547907
-1.3220577 1.4710059 0.7428039 -0.52871454 -1.005997 -1.1628237 -1.082118 -1.0599711
-0.5751321 -1.1101197 -1.074073 -1.4717116 -1.2591074 -0.9249767 -1.0039792 1.141337
-0.8954484 -0.940509 -1.0639092 -0.95955765 -1.3054314 -0.7881071 -1.0898904 1.3446811
1.4696048 -1.050285 1.2255521 -1.113747 -1.126643 -1.3550837 0.95851004 1.3170859
1.4453095 -0.9254391 1.2163314 -1.0319533 -1.0662315 1.2627537 -1.5020164 -0.9364173
-1.016161 1.7071946 -0.78649443 -1.1374415 -1.2572453 1.4553411 -1.294552 -1.0106897
-0.6714575 1.106556 -1.3140477 1.4615222 1.2446219 -0.9511231 -1.3778464 -1.051385
00000000: 6e4f 86bf a549 1a3f e82b 94bf 03a6 b7bf
00000010: 72e0 893f 2cce 8cbf 2c49 97bf a2f2 7b3f
00000020: 4d9a 803f ee4e 4d3f f3d7 7e3f 4ef4 693f
00000030: 1b94 e33e 1ce6 4a3f 11b9 9f3f 1542 ad3f
00000040: 0cdf 743f f6bc bd3f 2594 973f 6273 78bf
00000050: 32b7 973f 3190 603f 4416 963f 4848 593f
00000060: 70a7 c73f fa7a 123f 1682 9d3f d3d7 96bf
00000070: 28d6 9ebf 03c0 793f 4893 5fbf 5d14 9c3f
00000080: 6207 8f3f d081 a13f d54d 8ebf eef8 80bf
00000090: ec94 b8bf 0e6b 743f 9007 afbf cfe9 9c3f
000000a0: 6af3 4a3f 6690 8abf c656 9c3f 9c6f a43f
000000b0: efc2 7a3f 72ac aebf a6e3 883f 40e1 7d3f
000000c0: c242 663f 2cd5 8dbf 4041 443f fa61 573f
000000d0: 1742 9b3f 9a0d 98bf 5eff 523f 73a2 c5bf
000000e0: d02c 9cbf a096 873f 9df2 9a3f 98b5 953f
000000f0: 20b5 b13f d3e9 7cbf 94fe ba3f c869 ad3f
00000100: 3039 a9bf ec49 bc3f 6528 3e3f d659 07bf
00000110: 82c4 80bf 68d7 94bf d882 8abf 22ad 87bf
00000120: db3b 13bf 6718 8ebf 397b 89bf 0c61 bcbf
00000130: 6e2a a1bf 46cb 6cbf 6482 80bf 5517 923f
00000140: 1b3c 65bf 33c5 70bf 2d2e 88bf 92a5 75bf
00000150: 6018 a7bf 63c1 49bf 8781 8bbf 831e ac3f
00000160: 031c bc3f bd6f 86bf e4de 9c3f 438f 8ebf
00000170: d635 90bf 6273 adbf ea60 753f 4596 a83f
00000180: e7ff b83f 94e9 6cbf bfb0 9b3f 0c17 84bf
00000190: 467a 88bf eaa1 a13f 1342 c0bf 0bb9 6fbf
000001a0: 9011 82bf 5a85 da3f b357 49bf af97 91bf
000001b0: 6aed a0bf 9e48 ba3f e1b3 a5bf 485e 81bf
000001c0: a4e4 2bbf a1a3 8d3f b732 a8bf 2913 bb3f
000001d0: c54f 9f3f ce7c 73bf 455d b0bf c993 86bf

bias f4 [2]
0.23435208 -0.39091218
00000000: fef9 6f3e a425 c8be
