dataset/bac/0.003_3000/model.pth (torch, 34395 bytes, 20 tensors)

bias f4 [40]
-6.5791035e-05 -8.692326e-05 4.0206265e-05 4.0656032e-05 0.00011980742 -7.8033156e-07 -2.9182052e-05 2.2035792e-05
4.233889e-05 3.4782723e-05 1.6119024e-05 -6.656763e-05 7.241646e-05 -6.140073e-05 0.00016652035 9.124715e-05
8.958412e-05 -3.0845295e-05 7.202297e-05 -3.4166816e-05 3.4971374e-05 -2.0361253e-05 6.106002e-05 6.4636966e-05
-7.6944816e-05 1.7076729e-05 -2.8558374e-05 -0.0001351243 3.402755e-06 -3.5606194e-05 -2.9091512e-05 -0.00011174615
9.676658e-06 -7.7763805e-05 4.436044e-06 8.258588e-05 -9.587356e-05 1.8956438e-05 -4.3630273e-05 -8.0549464e-05
00000000: 4bf9 89b8 924a b6b8 26a3 2838 1586 2a38
00000010: 1e41 fb38 fa77 51b5 fbcb f4b7 81d9 b837
00000020: 0995 3138 aae3 1138 5737 8737 399a 8bb8
00000030: 4ade 9738 44c4 80b8 f79b 2e39 f15b bf38
00000040: 1cdf bb38 e25f 01b8 0a0b 9738 574e 0fb8
00000050: 3aae 1238 75cd aab7 590d 8038 b58d 8738
00000060: 6f5d a1b8 ff3f 8f37 a490 efb7 27b0 0db9
00000070: e35a 6436 dc57 15b8 8c09 f4b7 4259 eab8
00000080: ee58 2237 2015 a3b8 54d9 9436 f531 ad38
00000090: ba0f c9b8 a404 9f37 a6ff 36b8 aaec a8b8

weight f4 [40, 10]
0.46616885 -0.06713466 0.04061657 -0.11164405 0.049965292 0.13444658 0.102663 0.19954112
-0.30594125 -0.09283705 0.23658198 -0.058726113 0.098736495 -0.15277821 -0.049594667 0.319483
-0.119484 -0.09372934 -0.20608962 -0.26162264 0.0023308592 0.1964153 0.026712244 -0.10545095
-0.098823175 0.044580314 0.13204348 -0.0058724736 0.028195951 -0.09845249 0.037223995 0.12726831
-0.15758364 0.18729833 -0.15985487 0.15005612 -0.14026164 0.14956023 -0.31315044 -0.17147343
-0.119546555 -0.120349 0.045734916 0.18637018 0.06727999 -0.05751698 0.10933896 -0.1945875
-0.37094438 -0.24500163 0.05529117 -0.1370593 -0.28741938 0.13268593 0.19494918 0.1810517
-0.48259062 0.27260232 0.07646921 -0.039195552 0.4632926 0.021820774 -0.31040135 -0.2942103
0.15898606 0.07099235 0.041517414 0.24603364 0.025853183 0.087579615 0.2335433 0.0813576
0.2240467 -0.1595961 -0.21377291 0.23235635 -0.08549012 0.33210653 0.018425608 0.14735417
-0.024169043 -0.14621486 0.24904507 0.08202073 0.13410251 -0.11753139 0.31703544 -0.13699779
-0.050508406 -0.23005119 -0.15541989 0.06284183 -0.09035721 -0.20961784 -0.009581954 0.1983919
-0.03853437 0.39929557 -0.34676525 0.024573203 -0.06692176 -0.26912174 -0.061616566 -0.1355892
-0.2201399 0.30311304 -0.23519582 -0.24520229 0.19052781 -0.2057476 -0.10299109 0.23651436
0.22343233 0.15773255 0.0224222 0.19907157 0.098115705 0.0054283827 -0.19841784 0.032418463
0.27580166 0.092385344 -0.0056850277 0.115842566 -0.41139963 0.20165713 0.12314015 0.08107149
0.079690844 0.19877727 -0.08478572 0.043082222 -0.30361962 0.1739641 0.06801949 0.074967824
-0.0069624735 -0.06865543 -0.0970619 -0.2323877 -0.14480986 -0.1427117 0.2734022 -0.20629364
-0.059478033 -0.09020689 -0.081158936 -0.17487723 -0.22081849 0.02296532 0.0008979376 0.20732851
-0.024715414 0.10838293 -0.091965936 -0.11859782 -0.10157382 -0.023955807 0.03373903 -0.0750279
0.49402434 0.154464 0.16610947 0.23413797 0.20642085 0.20143576 0.21705762 0.13874567
-0.039835982 0.008777752 -0.04353344 0.21271648 0.094569795 0.0726714 -0.17997278 0.29886562
0.046925355 -0.16384915 -0.024919504 0.24573076 0.23335594 0.19834957 -0.029813554 0.20268375
-0.092465766 -0.111332476 0.07556845 0.0107538225 0.17217961 -0.04402582 -0.2713483 0.14707182
-0.020948613 -0.33424738 0.06569837 0.05749477 0.14116633 -0.106419705 -0.13668184 0.07314876
-0.15968242 -0.16172776 0.016408442 0.23584239 -0.026802724 0.27675807 -0.051465686 -0.13419248
0.16896397 0.13307728 0.23322856 -0.25074065 -0.10384398 0.1370083 -0.03159245 -0.13942404
0.13320068 -0.2784845 -0.015183359 -0.20842406 -0.035739657 0.21241805 -0.07465221 -0.11939578
-0.055036962 0.34481233 0.36488935 -0.28869247 -0.03915555 -0.05645987 0.12673113 0.3180342
0.30966848 -0.14258076 0.20412078 0.26670146 -0.06676323 -0.014211594 0.21285833 0.1738901
0.10424328 0.1125657 -0.040822763 -0.3840459 -0.13290833 0.3187232 -0.19339298 0.06567449
0.044827875 0.045874644 -0.08114625 -0.2348998 0.04447505 0.079368874 0.019810697 -0.20672388
00000000: afad ee3e e67d 89bd 8f5d 263d a3a5 e4bd
00000010: 68a8 4c3d 5dac 093e fb40 d23d 8254 4c3e
00000020: 55a4 9cbe 5a21 bebd 8c42 723e cb8a 70bd
00000030: 5c36 ca3d e471 1cbe c723 4bbd 4793 a33e
00000040: 07b4 f4bd 2bf5 bfbd 2809 53be 67f3 85be
00000050: 54c1 183b 1821 493e a3d3 da3c abf6 d7bd
00000060: ce63 cabd d999 363d 6836 073e e16d c0bb
00000070: 32fb e63c 76a1 c9bd 3078 183d a052 023e
00000080: 9b5d 21be 22cb 3f3e ffb0 23be 50a8 193e
00000090: bfa0 0fbe 5126 193e 4155 a0be bb96 2fbe
000000a0: d3d4 f4bd 8979 f6bd 8954 3b3d d3d7 3e3e
000000b0: 17ca 893d ed96 6bbd 1bed df3d f241 47be
000000c0: 6cec bdbe b5e1 7abe fe78 623d 4659 0cbe
000000d0: a228 93be d2de 073e c2a0 473e 9e65 393e
000000e0: 1e16 f7be 8892 8b3e e49b 9c3d 848b 20bd
000000f0: b034 ed3e 7bc1 b23c edec 9ebe bca2 96be
00000100: 3ecd 223e 7064 913d 2a0e 2a3d 3ef0 7b3e
00000110: 0eca d33c f15c b33d fa25 6f3e d09e a63d
00000120: 806c 653e 296d 23be 49e7 5abe d3ee 6d3e
00000130: 7215 afbd de09 aa3e 4df1 963c 03e4 163e
00000140: 28fe c5bc 59b9 15be ac05 7f3e 7cfa a73d
00000150: 2b52 093e 4cb4 f0bd 7852 a23e 2649 0cbe
00000160: e7e1 4ebd 8a92 6bbe 6426 1fbe 38b3 803d
00000170: 330d b9bd 0fa6 56be a1fd 1cbc 3f27 4b3e
00000180: 37d6 1dbd 7870 cc3e 378b b1be be4d c93c
00000190: 470e 89bd 53ca 89be a761 7cbd e5d7 0abe
000001a0: 5b6c 61be a231 9b3e 2cd7 70be 4f16 7bbe
000001b0: b919 433e 80af 52be feec d2bd d230 723e
000001c0: 72cb 643e a484 213e c3ae b73c 6bd9 4b3e
000001d0: e3f0 c83d 93e0 b13b 0c2e 4bbe 39c9 043d
000001e0: e035 8d3e 8734 bd3d 7849 babb de3e ed3d
000001f0: f9a2 d2be 357f 4e3e e730 fc3d cf08 a63d
00000200: f434 a33d 458c 4b3e 23a4 adbd fc76 303d
00000210: 0874 9bbe a523 323e cd4d 8b3d bb88 993d
00000220: 7625 e4bb 389b 8cbd 64c8 c6bd 0bf7 6dbe
00000230: 0949 14be 0423 12be 60fb 8b3e a43e 53be
00000240: 3d9f 73bd 64be b8bd a836 a6bd 0413 33be
00000250: 3e1e 62be c421 bc3c 9363 6b3a ed4d 543e
00000260: fb77 cabc dff7 dd3d a358 bcbd 6ae3 f2bd
00000270: ef05 d0bd f83e c4bc f031 0a3d 3aa8 99bd
00000280: c2f0 fc3e d02b 1e3e 9a18 2a3e ddc1 6f3e
00000290: fd5f 533e 2d45 4e3e 5a44 5e3e 5813 0e3e
000002a0: 0e2b 23bd 8fd0 0f3c 1f50 32bd 59d2 593e
000002b0: cfad c13d bed4 943d c94a 38be ea04 993e
000002c0: cd34 403d 12c8 27be fd23 ccbc d8a0 7b3e
000002d0: dcf4 6e3e 261c 4b3e 8e3b f4bc 548c 4f3e
000002e0: b15e bdbd 4802 e4bd a2c3 9a3d cd30 303c
000002f0: da4f 303e 6b54 34bd 2aee 8abe ff99 163e
00000300: 6d9c abbc 7922 abbe de8c 863d a37f 6b3d
00000310: e88d 103e 93f2 d9bd 53f6 0bbe 04cf 953d
00000320: ca83 23be f69b 25be ff6a 863c ab80 713e
00000330: 6391 dbbc 3cb3 8d3e afcd 52bd c169 09be
00000340: e404 2d3e 6945 083e 78d3 6e3e 1461 80be
00000350: 27ac d4bd e74b 0c3e 1667 01bd 2dc5 0ebe
00000360: c265 083e 8595 8ebe a0c3 78bc 1e6d 55be
00000370: bf63 12bd 1e84 593e 42e3 98bd c685 f4bd
00000380: 706e 61bd 3e8b b03e c7d2 ba3e 80cf 93be
00000390: 9261 20bd 7742 67bd cec5 013e 61d5 a23e
000003a0: de8c 9e3e b100 12be 0a05 513e 188d 883e
000003b0: 29bb 88bd bfd7 68bc 89f7 593e 3f10 323e
000003c0: 807d d53d d988 e63d c535 27bd aaa1 c4be
000003d0: 1f19 08be b02f a33e cf08 46be 5980 863d
000003e0: 6f9d 373d 0de7 3b3d 0130 a6bd 9389 70be
000003f0: 782b 363d 268c a23d 0b4a a23c 6daf 53be

bias f4 [40]
1.6419184e-05 4.226787e-06 -0.000182259 -4.3334367e-05 1.2188619e-05 -2.4562805e-05 -0.0001226097 -9.497498e-05
-4.151097e-05 6.0711485e-05 5.193062e-05 -2.8449054e-05 -1.1507346e-05 7.1196424e-05 0.000106161286 -6.976592e-05
3.885107e-05 -8.729349e-05 1.0534676e-05 3.293778e-05 -8.119122e-05 3.7852446e-05 -0.00014833194 -0.00014024545
-2.6021238e-05 9.299424e-05 0.0001621097 -0.00018635203 -4.4778288e-05 -8.076297e-05 -1.1800754e-05 -0.00016901019
0.00017012104 -8.905274e-05 -0.000116372285 -1.1747421e-05 -4.2162683e-06 -4.188365e-05 0.00011427138 -1.6577127e-05
00000000: eebb 8937 d3d3 8d36 c71c 3fb9 ecc1 35b8
00000010: b87d 4c37 390c ceb7 ca90 00b9 4e2d c7b8
00000020: 111c 2eb8 76a4 7e38 14d0 5938 e1a5 eeb7
00000030: ad0f 41b7 4a4f 9538 e8a2 de38 4b4f 92b8
00000040: 05f4 2238 5611 b7b8 17be 3037 ac26 0a38
00000050: 3445 aab8 c1c3 1e38 8d89 1bb9 da0e 13b9
00000060: 2f48 dab7 e705 c338 fefb 2939 7e67 43b9
00000070: 52d0 3bb8 4a5f a9b8 dafb 45b7 5438 31b9
00000080: 8562 3239 d3c1 bab8 e50c f4b8 ca16 45b7
00000090: 7879 8db6 3aac 2fb8 fba4 ef38 1c0f 8bb7

weight f4 [40, 40]
-0.044856045 0.035945706 -0.0880797 0.05042681 0.13427563 -0.051734414 -0.16399844 -0.03004001
-0.10843388 0.057837393 0.023208363 -0.069018595 -0.08505099 0.015913483 0.01076974 0.117077984
-0.33846167 0.13295788 0.04103757 -0.16721368 0.15642305 -0.14499718 0.006147004 -0.36549336
-0.12876418 -0.17096315 0.030248879 0.011356256 -0.3837278 0.0835366 -0.09032805 0.10258838
-0.13129686 -0.029261895 0.22676304 0.012436965 -0.04554574 -0.052709952 0.12169684 0.079193555
0.07522683 -0.09403334 -0.10577626 0.20159051 0.028667022 0.26595035 -0.026857797 0.010693475
-0.07789077 -0.034670845 0.19063173 -0.02103834 0.09926451 0.0025854127 0.1887256 0.14061147
0.12683584 -0.11075346 0.3197139 -0.0068178102 -0.03865805 -0.060545523 -0.03176144 0.13045049
0.13094729 -0.039445758 0.012893624 -0.088139415 -0.03314771 -0.028714925 0.04867185 -0.120455876
-0.09086437 0.36291194 0.012349654 0.016719196 0.04679286 0.13415359 0.097637035 0.02622609
0.06862943 0.045174986 -0.026997127 -0.13618954 0.018250637 -0.071683355 0.046243276 -0.23810634
-0.21441117 -0.123840265 0.07793114 0.1262118 -0.21634364 0.0076737385 -0.16722876 0.013545241
-0.05932544 -0.03242975 -0.101405114 0.0627692 -0.0010441467 0.02243259 0.011078621 -0.12561981
-0.006722862 0.14510071 -0.011137061 0.08816418 0.1525349 -0.0037853413 -0.1333459 -0.106492445
0.05737025 -0.04404426 0.056256134 0.18620716 -0.21962027 -0.0069329804 0.1133344 -0.17698298
-0.03552961 0.18052867 -0.11350773 0.061743338 0.12205012 0.028751707 -0.10310911 -0.41419414
-0.111312404 0.02819718 -0.30324128 -0.013380701 -0.1288904 -0.02223839 0.17556706 -0.09053616
-0.05655364 0.031446967 0.009910016 -0.27128628 0.06304077 0.104774036 0.07523786 -0.015463463
0.021769922 0.05194613 0.108156584 0.10558115 -0.09384535 -0.011496267 -0.0308602 0.017841814
-0.20556524 0.1080958 -0.008692419 -0.20068015 -0.3208846 -0.047033828 0.10116599 0.059032496
0.1748428 0.016112473 -0.11831083 0.08428375 0.11174195 -0.033099975 -0.0756393 -0.119096436
-0.17831533 0.17649864 0.06211792 0.020742897 0.14970806 -0.2517426 -0.031370252 -0.040682763
-0.121263795 0.07810771 0.15461501 -0.11692115 0.04051439 0.013486494 -0.09664494 0.23807752
-0.17116156 -0.30426425 -0.34661123 -0.09399413 -0.020238705 -0.13329142 0.087955944 0.12563911
-0.0809444 0.08103071 -0.109471366 -0.0903449 0.034650132 -0.22442038 -0.074983776 -0.25259215
0.008461845 0.016639179 -0.26270464 -0.29379642 0.01945633 -0.030026771 0.028020548 0.10876255
0.11813091 -0.0014729019 0.13312432 -0.054261208 -0.14002207 -0.011568084 0.16964702 -0.06854998
-0.20844293 -0.15922995 0.05443219 -0.017607102 -0.05962308 -0.17458771 0.05890739 -0.009185765
-0.18723884 0.028377997 -0.1477428 -0.058601446 0.11065935 0.037343364 -0.03257963 0.1387474
-0.17508683 0.05752534 -0.2514624 -0.1334199 0.070298396 -0.06974189 -0.08859654 0.049487654
-0.11370731 -0.07674434 0.06839881 -0.12818351 0.0055350694 -0.05415797 -0.15812129 0.17999783
0.010559947 0.10096972 -0.13944866 -0.3007144 -0.25242782 -0.08726198 -0.11299167 0.087898485
00000000: f9ba 37bd ce3b 133d 2163 b4bd 588c 4e3d
00000010: 8d7f 093e 77e7 53bd 35ef 27be 7816 f6bc
00000020: 9512 debd e7e6 6c3d 771f be3c 9f59 8dbd
00000030: 372f aebd fe5c 823c 9073 303c 95c6 ef3d
00000040: d94a adbe 1c26 083e 0317 283d 103a 2bbe
00000050: 5d2d 203e 247a 14be cf6c c93b f221 bbbe
00000060: c2da 03be f710 2fbe 7fcc f73c 970f 3a3c
00000070: f877 c4be 3d15 ab3d eafd b8bd db19 d23d
00000080: af72 06be a4b6 efbc 9234 683e 69c4 4b3c
00000090: 2b8e 3abd 64e6 57bd 313c f93d 3b30 a23d
000000a0: 8610 9a3d 8d94 c0bd 39a1 d8bd be6d 4e3e
000000b0: 1ad7 ea3c a52a 883e e204 dcbc af33 2f3c
000000c0: 3285 9fbd 0403 0ebd f734 433e 9958 acbc
000000d0: 314b cb3d 0770 293b 4941 413e 74fc 0f3e
000000e0: 41e1 013e b6d2 e2bd 8ab1 a33e f067 dfbb
000000f0: e757 1ebd 95fe 77bd 4918 02bd d094 053e
00000100: 0c17 063e e091 21bd c73f 533c 7082 b4bd
00000110: e5c5 07bd 903b ebbc 225c 473d 92b1 f6bd
00000120: 1917 babd 98cf b93e 3456 4a3c b2f6 883c
00000130: dfa9 3f3d 8f5f 093e edf5 c73d 19d8 d63c
00000140: 968d 8c3d 6809 393d 1429 ddbc 4575 0bbe
00000150: 5c82 953c b9ce 92bd 9769 3d3d 26d2 73be
00000160: 9a8e 5bbe f79f fdbd 5d9a 9f3d ab3d 013e
00000170: 3089 5dbe fc73 fb3b 043e 2bbe dcec 5d3c
00000180: 3cff 72bd 0fd5 04bd 7cad cfbd 238d 803d
00000190: c0db 88ba 8dc4 b73c 1b83 353c 7ba2 00be
000001a0: 744b dcbb 4895 143e 3878 36bc 6c8f b43d
000001b0: 1c32 1c3e 7d13 78bb d48b 08be b618 dabd
000001c0: 11fd 6a3d c167 34bd d56c 663d 17ad 3e3e
000001d0: 23e4 60be 0e2e e3bb de1b e83d 073b 35be
000001e0: 7f87 11bd 82dc 383e be76 e8bd 95e6 7c3d
000001f0: 6af5 f93d b388 eb3c de2a d3bd 4111 d4be
00000200: c2f7 e3bd c6fd e63c 7142 9bbe ba3a 5bbc
00000210: d8fb 03be 492d b6bc dac7 333e 066b b9bd
00000220: caa4 67bd 89ce 003d 9f5d 223c 09e6 8abe
00000230: 851b 813d c593 d63d 4f16 9a3d 775a 7dbc
00000240: d656 b23c 77c5 543d 3381 dd3d ee3a d83d
00000250: fe31 c0bd d75a 3cbc 88ce fcbc ff28 923c
00000260: b27f 52be 5561 dd3d a66a 0ebc 197f 4dbe
00000270: fc4a a4be 8ba6 40bd 1d30 cf3d 0fcc 713d
00000280: fe09 333e 4efe 833c f34c f2bd f59c ac3d
00000290: f7d8 e43d d793 07bd c7e8 9abd d5e8 f3bd
000002a0: 4b98 36be 0fbc 343e 5c6f 7e3d 02ed a93c
000002b0: 124d 193e 68e4 80be 187e 00bd f8a2 26bd
000002c0: 2759 f8bd eff6 9f3d 6653 1e3e 5b74 efbd
000002d0: 6bf2 253d 75f6 5c3c c8ed c5bd 98ca 733e
000002e0: fa44 2fbe 86c8 9bbe 0777 b1be ff7f c0bd
000002f0: a4cb a5bc 8c7d 08be 3f22 b43d 8aa7 003e
00000300: 2dc6 a5bd 6ef3 a53d 8632 e0bd bf06 b9bd
00000310: 4ced 0d3d 75ce 65be 1891 99bd c253 81be
00000320: 8da3 0a3c e34e 883c 3981 86be 7c6c 96be
00000330: e262 9f3c b4fa f5bc 598b e53c e6be de3d
00000340: 9eee f13d 630e c1ba be51 083e 0041 5ebd
00000350: f261 0fbe 1088 3dbc f3b7 2d3e ef63 8cbd
00000360: 1072 55be 2d0d 23be 4af4 5e3d c53c 90bc
00000370: 5537 74bd 1fc7 32be e048 713d e47f 16bc
00000380: 8abb 3fbe f978 e83c e349 17be 1208 70bd
00000390: 5fa1 e23d 5bf5 183d 3872 05bd cc13 0e3e
000003a0: f649 33be b19f 6b3d aebf 80be 3a9f 08be
000003b0: 9bf8 8f3d d6d4 8ebd 1a72 b5bd 91b3 4a3d
000003c0: 61df e8bd 232c 9dbd ad14 8c3d 8a42 03be
000003d0: 875f b53b bfd4 5dbd 8cea 21be 5a51 383e
000003e0: a103 2d3c 36c9 ce3d a1cb 0ebe 3df7 99be
000003f0: 383e 81be 69b6 b2bd 2d68 e7bd 1f04 b43d

bias f4 [40]
-9.2342125e-05 6.907447e-05 5.3716198e-05 2.9066641e-05 -2.1656171e-05 5.7559217e-05 -1.4838313e-05 -2.5884125e-05
2.5902982e-05 8.236473e-05 2.6992508e-05 -6.308605e-05 -0.00024272338 -9.496089e-05 -5.8251833e-05 5.3595406e-05
-6.965012e-05 8.325879e-05 -6.563773e-05 6.640033e-05 -0.00010175508 -1.950152e-05 -5.578223e-05 -6.0699476e-05
-2.9399158e-05 -0.00011383925 -5.7472735e-05 4.0316736e-05 8.9028734e-05 8.001848e-06 -0.000118626245 1.3656073e-05
7.726965e-05 2.6724461e-05 9.6646174e-05 0.00024324695 -3.414331e-05 -1.3142381e-05 8.95751e-05 2.0821995e-05
00000000: cda7 c1b8 13dc 9038 544d 6138 23d4 f337
00000010: 46aa b5b7 bd6b 7138 12f2 78b7 bc21 d9b7
00000020: 3b4a d937 3abb ac38 f86d e237 114d 84b8
00000030: 9083 7eb9 bd25 c7b8 6e53 74b8 a1cb 6038
00000040: 2011 92b8 399b ae38 fda6 89b8 6840 8b38
00000050: 5865 d5b8 3297 a3b7 b7f7 69b8 9197 7eb8
00000060: 369e f6b7 fbbc eeb8 e10e 71b8 c419 2938
00000070: f0b4 ba38 ad3f 0637 fbc6 f8b8 631c 6537
00000080: d40b a238 582e e037 85ae ca38 1b10 7f39
00000090: 1a35 0fb8 197e 5cb7 44da bb38 e5aa ae37

weight f4 [40, 40]
-0.2899796 0.06061678 -0.15617152 -0.05654551 0.12795398 0.039719176 0.16415131 0.12822135
0.05638789 0.077453904 0.08211759 0.057379585 0.0541961 -0.12917283 -0.16108575 0.06933705
-0.08602853 -0.07775878 0.16942799 -0.0386384 -0.054593 -0.06423023 0.19704795 -0.072764196
-0.013606383 -0.03157314 0.12810126 -0.19748315 0.19641429 -0.2374961 -0.15673219 -0.064629756
-0.13782312 -0.16274087 -0.009450653 0.14393747 0.15993449 0.18158557 -0.1739209 -0.08183262
0.024618985 -0.24237682 -0.050803177 0.18210131 0.15804622 -0.13581645 -0.021885496 -0.149038
0.13321754 -0.13492179 -0.0013719541 0.09902935 -0.015992723 0.11446241 0.074326284 0.008803987
-0.15003742 0.09280275 -0.0017471588 0.03486175 0.16374597 -0.06760261 0.091357306 -0.0112437885
-0.16534665 0.031179152 0.09429853 0.13697034 -0.09647237 -0.059640843 0.012240511 -0.018246997
-0.23769897 -0.07546396 -0.0014037743 0.09452593 -0.071405776 -0.0026861452 0.04565637 -0.055853333
0.00994731 -0.2555102 -0.007042231 -0.01232805 0.15082456 -0.18349503 -0.115506135 -0.1934974
0.022099447 -0.1528293 -0.12190297 0.086713776 0.06270466 0.04015093 -0.0578473 0.039030597
-0.2000331 0.1636387 0.049128335 -0.0061109704 0.10947913 0.057798866 0.022855414 -0.13174064
-0.14636607 0.17036246 0.13114753 0.062242568 -0.097265184 -0.04564946 -0.030285854 -0.074538775
-0.1255521 -0.10886044 -0.022205109 0.2045953 -0.10393042 0.036238223 -0.074170806 -0.038393594
-0.1514942 0.0580733 0.080711305 0.0066794017 0.13391644 0.18679583 -0.014834212 -0.02204062
0.089844875 0.07321795 0.18725789 -0.10992238 -0.09508064 0.0068629584 -0.030844864 0.023986045
-0.11728494 -0.23994644 -0.17226072 0.08727482 0.05134021 0.12731557 0.21721238 -0.12474286
-0.110457264 0.011972198 0.14753948 0.15639593 -0.04440651 -0.29142714 -0.027090738 -0.18091659
-0.062325444 -0.23604083 -0.106268026 -0.038619287 0.0026702436 0.2313087 0.024503268 0.03465539
0.20937356 0.25977835 -0.22934361 0.09312523 -0.07902646 0.17732297 0.060309816 -0.02471682
-0.04459612 0.012188048 -0.02047265 -0.1223397 -0.09309064 -0.07050823 -0.14620085 -0.0840228
0.080416165 -0.06374991 0.086347595 0.0146227395 0.03499392 -0.09606644 0.11324158 0.19384657
0.059703864 -0.021227695 0.21885121 0.018590169 -0.14158306 0.06099178 -0.15321316 0.016843865
0.09161104 -0.09477303 -0.12792264 0.110136665 0.06409598 -0.083225176 -0.24605194 0.043016817
0.181944 0.022340203 -0.06728806 0.12726068 -0.11015719 0.0633528 -0.03679664 0.036315057
0.06836846 0.02766402 0.096394025 -0.07417018 -0.09943906 0.027825136 0.16098544 -0.13026716
0.05542309 -0.07228498 -0.10977793 0.06350901 -0.0124061555 -0.049424153 0.014688281 0.14890614
-0.03822136 -0.03101546 0.016841294 0.11848678 -0.0498059 0.029435249 0.025008926 -0.017080747
-0.010631811 0.03361456 -0.054937832 -0.07367475 0.014197427 0.029624296 0.08462237 -0.035803847
0.1696256 0.010810492 -0.06574345 0.13973145 -0.10234919 0.079304956 -0.031184178 0.016326921
0.057580996 0.036527608 0.10334037 -0.0980383 -0.087527655 -0.0058700037 0.16035585 -0.1438188
00000000: 3578 94be 4d49 783d 6deb 1fbe 449c 67bd
00000010: 5e06 033e 93b0 223d 4817 283e 754c 033e
00000020: fdf6 663d 27a0 9e3d 442d a83d db06 6b3d
00000030: bbfc 5d3d e245 04be aaf3 24be 9500 8e3d
00000040: ba2f b0bd ff3f 9fbd 887e 2d3e 4d43 1ebd
00000050: e99c 5fbd 248b 83bd f0c6 493e 6505 95bd
00000060: 4fed 5ebc d652 01bd fa2c 033e 0639 4abe
00000070: d420 493e 2d32 73be 677e 20be 9b5c 84bd
00000080: 8121 0dbe 8ba5 26be e9d6 1abc 5864 133e
00000090: dec5 233e 91f1 393e 5218 32be dc97 a7bd
000000a0: c1ad c93c a131 78be fe16 50bd c478 3a3e
000000b0: ded6 213e 7813 0bbe 3649 b3bc 6b9d 18be
000000c0: 2e6a 083e f028 0abe 24d3 b3ba e6cf ca3d
000000d0: 2c03 83bc 456b ea3d 6138 983d 993e 103c
000000e0: 69a3 19be 5e0f be3d ec00 e5ba 32cb 0e3d
000000f0: 06ad 273e 3d73 8abd 8a19 bb3d de37 38bc
00000100: a250 29be 6c6b ff3c 961f c13d f441 0c3e
00000110: 4e93 c5bd f549 74bd 6d8c 483c ba7a 95bc
00000120: 5c67 73be d98c 9abd d9fe b7ba d096 c13d
00000130: 313d 92bd 0a0a 30bb 2d02 3b3d 77c6 64bd
00000140: 0bfa 223c 3cd2 82be 84c2 e6bb 97fb 49bc
00000150: c171 1a3e 1fe6 3bbe 7b8e ecbd 2f24 46be
00000160: e609 b53c 497f 1cbe 44a8 f9bd fe96 b13d
00000170: 4d6b 803d 4d75 243d 4af1 6cbd 8cde 1f3d
00000180: 7ad5 4cbe e790 273e cb3a 493d 893e c8bb
00000190: 9836 e03d 81be 6c3d 473b bb3c 05e7 06be
000001a0: fde0 15be 7f73 2e3e 8a4b 063e 10f2 7e3d
000001b0: f832 c7bd eefa 3abd 0a1a f8bc c9a7 98bd
000001c0: bb90 00be 39f2 debd 7de7 b5bc 6e81 513e
000001d0: 79d9 d4bd 886e 143d dde6 97bd 9a42 1dbd
000001e0: 4c21 1bbe 45de 6d3d f84b a53d e2de da3b
000001f0: 6421 093e 6847 3f3e 320b 73bc 888e b4bc
00000200: 9700 b83d 4bf3 953d 88c0 3f3e fc1e e1bd
00000210: a3b9 c2bd abe2 e03b 5eae fcbc 627e c43c
00000220: 1633 f0bd 85b4 75be 1d65 30be 24bd b23d
00000230: 1d4a 523d 035f 023e ec6c 5e3e 2f79 ffbd
00000240: 6b37 e2bd 0a27 443c 9714 173e 4126 203e
00000250: 9ae3 35bd f035 95be 65ed ddbc 3342 39be
00000260: f748 7fbd b0b4 71be 0da3 d9bd 422f 1ebd
00000270: 41ff 2e3b 30dc 6c3e 14bb c83c cff2 0d3d
00000280: 0666 563e ab01 853e 0dd9 6abe 71b8 be3d
00000290: a0d8 a1bd 2794 353e 6d07 773d ee7a cabc
000002a0: 6caa 36bd 61b0 473c 42b6 a7bc 3d8d fabd
000002b0: 4ea6 bebd 9e66 90bd adb5 15be 2514 acbd
000002c0: 3bb1 a43d 508f 82bd 02d7 b03d 3794 6f3c
000002d0: c955 0f3d 7bbe c4bd 34eb e73d b77f 463e
000002e0: 0a8c 743d b4e5 adbc 881a 603e 694a 983c
000002f0: 26fb 10be 84d2 793d e9e3 1cbe 25fc 893c
00000300: 929e bb3d 5d18 c2bd 27fe 02be 558f e13d
00000310: c144 833d f671 aabd 0af5 7bbe 6732 303d
00000320: 874f 3a3e cd02 b73c 53ce 89bd a050 023e
00000330: 189a e1bd 1dbf 813d 13b8 16bd 19bf 143d
00000340: c304 8c3d a89f e23c 3b6a c53d 89e6 97bd
00000350: b5a6 cbbd 8af1 e33c 5ed9 243e c164 05be
00000360: 5203 633d 260a 94bd 40d3 e0bd 0311 823d
00000370: 3043 4bbc fb70 4abd 1ea7 703c da7a 183e
00000380: 008e 1cbd 2214 febc c1f6 893c 32a9 f23d
00000390: 4501 4cbd 3122 f13c 85df cc3c ecec 8bbc
000003a0: 0c31 2ebc 6caf 093d 7e06 61bd cae2 96bd
000003b0: 539c 683c a7ae f23c 7e4e ad3d 0ea7 12bd
000003c0: 55b2 2d3e 7d1e 313c 80a4 86bd c315 0f3e
000003d0: 749c d1bd a36a a23d f675 ffbc 09c0 853c
000003e0: 0dda 6b3d f99d 153d 1ea4 d33d 4ec8 c8bd
000003f0: b341 b3bd 2959 c0bb 5334 243e 3c45 13be

weight f4 [40]
0.85762006 1.2154716 0.75276035 0.67230564 0.7094689 0.7913331 0.8471902 1.2240534
0.7635452 1.0065026 1.013496 0.9510065 0.8656282 0.59165686 0.6156935 0.5444506
1.4822584 0.60129625 0.63657844 0.76703143 0.5513226 0.8216074 1.0852232 0.76639926
0.7478604 0.6010782 0.74401903 0.9032424 0.84898967 0.73214287 1.2176543 0.5443221
0.5881974 0.5619813 0.77754277 0.81955385 0.67723435 0.7653412 0.9296293 0.78133094
00000000: fd8c 5b3f 9394 9b3f e7b4 403f 391c 2c3f
00000010: c19f 353f ce94 4a3f 75e1 583f c8ad 9c3f
00000020: b377 433f 14d5 803f 3dba 813f 2975 733f
00000030: cf99 5d3f d376 173f 179e 1d3f 1d61 0b3f
00000040: a5ba bd3f 8dee 193f cef6 223f 2c5c 443f
00000050: 7a23 0d3f dd54 523f 98e8 8a3f be32 443f
00000060: c773 3f3f 43e0 193f 0878 3e3f e53a 673f
00000070: 6357 593f b76d 3b3f 19dc 9b3f b158 0b3f
00000080: 1b94 163f 02de 0f3f 0b0d 473f 48ce 513f
00000090: 3b5f 2d3f 67ed 433f 30fc 6d3f 4e05 483f

bias f4 [40]
0.37331247 0.121409334 -0.47507468 0.36753783 0.4087293 -0.18595345 -0.13176586 -0.07435755
-0.08131059 -0.015437777 -0.009739309 -0.13108827 0.34684548 -0.37032548 0.6235257 -0.07359576
-0.2751535 0.3216069 0.5442604 -0.1681108 0.46752882 0.049663506 -0.09879228 0.57555676
0.1836594 -0.22937156 -0.23541138 0.40889868 0.006667214 -0.20046817 -0.07616647 0.2546693
-0.18390775 0.6024578 -0.31739545 0.38312015 -0.06443229 0.4086641 0.24109027 0.1396428
00000000: d022 bf3e 75a5 f83d fd3c f3be eb2d bc3e
00000010: f844 d13e 956a 3ebe a1ed 06be c548 98bd
00000020: 2b86 a6bd bbee 7cbc 9f91 1fbc 013c 06be
00000030: bb95 b13e 4d9b bdbe 619f 1f3f 60b9 96bd
00000040: ebe0 8cbe a9a9 a43e a654 0b3f 3d25 2cbe
00000050: f05f ef3e f66b 4b3d 9b53 cabd b057 133f
00000060: 3611 3c3e 61e0 6abe ae0f 71be 2b5b d13e
00000070: a578 da3b 8747 4dbe 2bfd 9bbd 0464 823e
00000080: 5052 3cbe ad3a 1a3f a881 a2be 5328 c43e
00000090: 14f5 83bd 6c3c d13e 5ee0 763e 86fe 0e3e

running_mean f4 [40]
-0.18842861 -0.15360278 0.21382464 0.095529325 -0.28180468 0.179559 0.11592348 0.01455186
-0.13476 -0.07008239 -0.14186467 -0.02552732 -0.051350314 0.15893318 -0.4125291 0.30768594
0.09227921 -0.15158069 0.36478454 -0.09342504 -0.22735494 -0.18690601 -0.046196055 0.22516699
0.06211448 -0.12645623 0.090335764 -0.056508135 -0.07054573 -0.19369015 -0.14086412 -0.13463761
-0.3641671 0.13131014 0.16079858 0.081558846 -0.053555794 -0.30109248 -0.205733 -0.22076625
00000000: 6ef3 40be 0c4a 1dbe d9f4 5a3e e1a4 c33d
00000010: b448 90be 51de 373e 4a69 ed3d ed6a 6e3c
00000020: 87fe 09be 5b87 8fbd f944 11be ac1e d1bc
00000030: b554 52bd 61bf 223e 0437 d3be 0389 9d3e
00000040: e2fc bc3d f837 1bbe 0ac5 ba3e a155 bfbd
00000050: bccf 68be 4a64 3fbe 1338 3dbd 2d92 663e
00000060: c16b 7e3d be7d 01be f501 b93d 1375 67bd
00000070: 487a 90bd b656 46be af3e 10be 71de 09be
00000080: 1c74 babe 2a76 063e 62a8 243e 5308 a73d
00000090: 525d 5bbd cb28 9abe acab 52be 8c10 62be

running_var f4 [40]
3.8546784 1.9431012 5.455388 4.8491564 1.8806608 3.7714758 3.5458374 1.0899483
1.55446 0.9720134 1.4670815 0.9711953 2.2587247 5.2549286 9.537772 8.364613
0.90277517 5.162886 7.84086 0.9812141 7.0848746 1.7706392 1.7143648 1.4764674
1.0142344 4.384702 0.7483374 2.1928043 1.5014722 2.1123648 1.4828008 2.6547897
10.294189 3.1387217 4.818635 0.31369823 0.7271692 4.7024536 2.7644536 1.0601301
00000000: 0db3 7640 8ab7 f83f 8a92 ae40 4a2c 9b40
00000010: 7eb9 f03f dc5f 7140 00ef 6240 6d83 8b3f
00000020: 8cf8 c63f dfd5 783f 54c9 bb3f 41a0 783f
00000030: f28e 1040 6028 a840 b79a 1841 74d5 0541
00000040: 461c 673f 5d36 a540 53e8 fa40 d930 7b3f
00000050: 4bb7 e240 4ea4 e23f 4e70 db3f e2fc bc3f
00000060: 6fd2 813f 7b4f 8c40 0a93 3f3f e856 0c40
00000070: 3e30 c03f fc30 0740 6bcc bd3f 13e8 2940
00000080: 00b5 2441 d1e0 4840 4232 9a40 0e9d a03e
00000090: c327 3a3f 807a 9640 cfec 3040 58b2 873f

weight f4 [40]
1.0638045 0.37599537 0.6494138 0.9522389 0.9729116 0.6729312 0.9594034 0.75192624
0.7586122 0.584307 1.123962 1.0699111 0.4322221 0.6832722 0.6660889 0.7976446
0.4732767 0.8222139 0.7403443 1.4043226 0.72296035 1.1634482 1.2097433 1.0249141
0.5823276 0.96894884 0.7260082 0.9439568 0.5171332 0.99789965 0.42851055 1.2074175
1.3633842 0.95549226 1.0296296 0.6971724 0.6768031 0.62433934 0.5793088 0.6324577
00000000: bf2a 883f 7782 c03e fc3f 263f eec5 733f
00000010: bc10 793f 3845 2c3f 769b 753f 3d7e 403f
00000020: 6934 423f 2595 153f fddd 8f3f d9f2 883f
00000030: 374c dd3e edea 2e3f cd84 2a3f 7032 4c3f
00000040: 5351 f23e 9c7c 523f 3487 3d3f d8c0 b33f
00000050: ee13 393f dfeb 943f ded8 9a3f 6330 833f
00000060: 6c13 153f 080d 783f acdb 393f 27a7 713f
00000070: d762 043f 5a76 7f3f bc65 db3e a88c 9a3f
00000080: 6083 ae3f 249b 743f e7ca 833f e479 323f
00000090: f842 2d3f b4d4 1f3f 954d 143f bfe8 213f

bias f4 [40]
-0.29782924 1.0485693 -0.10129044 -0.37761346 -0.06802657 0.29006994 -0.50495577 0.09068968
-0.19894636 0.25079218 -0.43479604 -0.32912582 -0.20400114 -0.03385814 -0.16468537 -0.19060242
0.4231933 -0.4612563 0.21704568 -0.7921762 -0.55215746 -0.18179156 -0.61240685 0.099103205
0.12822822 -0.32356676 -0.07567859 -0.26021385 0.19771926 -0.22294952 0.07889441 -0.6078333
0.23614854 -0.23495694 -0.667412 -0.091689184 -0.036598172 -0.054847717 0.08248952 0.09250922
00000000: 137d 98be 8537 863f 5d71 cfbd 8d56 c1be
00000010: 8451 8bbd 0c84 943e c844 01bf 83bb b93d
00000020: 98b8 4bbe d567 803e 969d debe 2e83 a8be
00000030: ade5 50be d5ae 0abd 48a3 28be 482d 43be
00000040: cbac d83e c929 ecbe 3941 5e3e 0fcc 4abf
00000050: 315a 0dbf 9127 3abe b2c6 1cbf 9ff6 ca3d
00000060: 424e 033e 8baa a5be 60fd 9abd c03a 85be
00000070: eb76 4a3e e14c 64be 6493 a13d f79a 1bbf
00000080: ecd0 713e 8d98 70be 83db 2abf 8ac7 bbbd
00000090: f7e7 15bd 00a8 60bd 44f0 a83d 7975 bd3d

running_mean f4 [40]
-0.09446547 0.58276993 -0.26699665 0.12570564 0.23722902 -0.106749624 -0.35157135 0.27585307
0.059424933 0.18284255 -0.14927855 -0.4969564 0.4878394 -0.31648785 -0.028358676 0.098581314
0.18244301 0.07158036 -0.054301474 0.019527603 0.19531514 0.3181627 -0.19544826 0.13218789
0.28389183 -0.6183412 0.08030421 -0.11904603 0.33332548 0.22550818 -0.29066154 -0.043161
-0.7569529 -0.117368266 -0.17127638 -0.09349041 -0.35202283 -0.13129705 -0.20555115 0.22090033
00000000: 1d77 c1bd 6930 153f c9b3 88be fbb8 003e
00000010: 2aec 723e 8c9f dabd 2901 b4be 9d3c 8d3e
00000020: 8f67 733d 143b 3b3e 7adc 18be 1271 febe
00000030: 16c6 f93e b20a a2be 7450 e8bc 00e5 c93d
00000040: 57d2 3a3e b998 923d 396b 5ebd 5af8 9f3c
00000050: b100 483e 39e6 a23e 9723 48be 435c 073e
00000060: 455a 913e 9c4b 1ebf 8976 a43d 68ce f3bd
00000070: a3a9 aa3e 9eeb 663e 97d1 94be 97c9 30bd
00000080: aac7 41bf c65e f0bd 1363 2fbe e677 bfbd
00000090: 563c b4be bc72 06be 007c 52be b233 623e

running_var f4 [40]
0.036958314 0.16902237 0.04099547 0.026999341 0.03357999 0.106752396 0.028548528 0.05738886
0.04571953 0.096210755 0.01566126 0.067790955 0.032531135 0.029579334 0.08957841 0.018097438
0.11680321 0.026654374 0.050031386 0.042607784 0.025824538 0.017040528 0.0060478644 0.023440868
0.050494794 0.066725016 0.021485094 0.029101681 0.031081622 0.02589855 0.043551102 0.008047919
0.038570177 0.03390394 0.017586783 0.04619732 0.024289638 0.023425851 0.052869674 0.03554332
00000000: 9a61 173d 3314 2d3e deea 273d b92d dd3c
00000010: 2c8b 093d 00a1 da3d 9ade e93c 9510 6b3d
00000020: 6744 3b3d 250a c53d 0b4c 803c fcd5 8a3d
00000030: 5e3f 053d 5c50 f23c e374 b73d 1441 943c
00000040: 8536 ef3d 465a da3c b6ed 4c3d 8085 2e3d
00000050: fb8d d33c 9498 8b3c 2a2d c63b 1007 c03c
00000060: a1d3 4e3d 20a7 883d 8201 b03c a666 ee3c
00000070: e39e fe3c 3229 d43c a462 323d 6bdb 033c
00000080: c3fb 1d3d dcde 0a3d 2812 903c 6739 3d3d
00000090: 10fb c63c 92e7 bf3c df8d 583d df95 113d

weight f4 [40]
1.9810537 1.9640831 2.0247414 1.8043368 1.9914547 1.2597908 1.2511781 1.8022346
1.7678927 1.8042758 1.2946653 1.612486 1.8352647 1.9022948 1.7656047 1.2845668
1.6893682 1.7425574 1.75439 1.7189159 2.0025501 1.4929068 2.075205 2.0608516
2.1182857 1.7460809 1.5932242 1.7265323 1.6460514 1.6974809 1.7359302 1.622201
1.6478877 1.6271439 1.8491212 1.8077885 1.7626615 1.779564 1.6187054 1.6698538
00000000: 2b93 fd3f 1367 fb3f 5d95 0140 82f4 e63f
00000010: fde7 fe3f d340 a13f 9b26 a03f a0af e63f
00000020: 4f4a e23f 82f2 e63f 98b7 a53f f165 ce3f
00000030: f4e9 ea3f 657e f33f 56ff e13f af6c a43f
00000040: 383d d83f 1f0c df3f da8f e03f 7005 dc3f
00000050: c829 0040 9217 bf3f 29d0 0440 fee4 0340
00000060: fe91 0740 947f df3f c5ee cb3f 03ff dc3f
00000070: d0b1 d23f 0e47 d93f f632 de3f 48a4 cf3f
00000080: fced d23f 4046 d03f 01b0 ec3f 9d65 e73f
00000090: e49e e13f c1c8 e33f bd31 cf3f c5bd d53f

bias f4 [40]
0.2330163 -0.3106488 0.3536768 0.18825014 0.19111736 0.51524013 0.4771195 0.225349
0.46057272 0.053467985 0.5667622 -0.5114424 -0.3501444 0.014067256 -0.32193854 0.5508786
0.12836227 0.3721991 0.1657989 0.051359262 0.09510666 -0.18152927 -0.053696696 -0.09293237
0.13675821 0.08290683 -0.27532956 0.3280685 0.080206946 0.22506696 0.086130716 0.07513404
-0.24534202 -0.5671993 0.26168367 -0.015134017 0.54641616 -0.14867975 -0.634701 -0.091555394
00000000: d39b 6e3e 5c0d 9fbe 2015 b53e a5c4 403e
00000010: 45b4 433e c7e6 033f 0249 f43e e3c1 663e
00000020: 30d0 eb3e 3f01 5b3d 5417 113f e4ed 02bf
00000030: 2046 b3be 597a 663c 21d5 a4be 6106 0d3f
00000040: 6671 033e e190 be3e 30c7 293e 175e 523d
00000050: 48c7 c23d cfe2 39be 11f1 5bbd 5453 bebd
00000060: 580a 0c3e 0ecb a93d fff7 8cbe 98f8 a73e
00000070: 8a43 a43d f477 663e 4d65 b03d e0df 993d
00000080: f03a 7bbe f933 11bf 67fb 853e abf4 77bc
00000090: eee1 0b3f 813f 18be c47b 22bf 6581 bbbd

running_mean f4 [40]
0.021222016 -0.5005919 -0.49659175 -0.010032878 0.34468076 0.047307376 0.044086076 0.10805629
0.18736896 3.498259e-05 0.050259233 -0.023537397 0.054482557 -0.029383516 -0.02580488 0.037946656
-0.028425006 -0.03970559 -0.019571919 -0.08503873 0.21947205 0.043599714 0.24818751 -0.47520256
-0.5324562 -0.32371336 -0.07948239 -0.05123864 0.00059954735 -0.07788447 -0.00036876692 -0.018294528
-0.33701575 0.015712982 0.1586838 -0.014692681 -0.020980274 -0.13058116 0.014449867 0.020973379
00000000: cbd9 ad3c ca26 00bf 4641 febe f160 24bc
00000010: ff79 b03e 61c5 413d 9a93 343d 9e4c dd3d
00000020: a6dd 3f3e 45ba 1238 a0dc 4d3d 80d1 c0bc
00000030: 1a29 5f3d b3b5 f0bc c164 d3bc f46d 1b3d
00000040: 8fdb e8bc 54a2 22bd 4a55 a0bc c928 aebd
00000050: 48bd 603e 9d95 323d de24 7e3e c04d f3be
00000060: 0d4f 08bf c2bd a5be aac7 a2bd 9cdf 51bd
00000070: f12a 1d3a e581 9fbd 0f57 c1b9 68de 95bc
00000080: 548d acbe 83b8 803c 027e 223e 92b9 70bc
00000090: d3de abbc 11b7 05be 23bf 6c3c 5dd0 ab3c

running_var f4 [40]
0.0024273032 0.016849369 0.010820528 0.0024562655 0.0058573373 0.0020907435 0.0023451596 0.0043065567
0.0040615792 0.0016923082 0.0027803832 0.0018967316 0.0017656625 0.0038704337 0.0015441434 0.0029379872
0.002232361 0.0022560766 0.0012199582 0.0028451013 0.003842221 0.0012523873 0.004877053 0.012700653
0.01374006 0.0074291653 0.003507275 0.0032596742 0.003849231 0.0033166758 0.002393603 0.0028592548
0.0071333065 0.0014643528 0.0050092116 0.0017075564 0.0043420442 0.0033456406 0.0014226671 0.0020534678
00000000: 6413 1f3b b007 8a3c 9548 313c 4cf9 203b
00000010: e8ee bf3b db04 093b 40b1 193b 041e 8d3b
00000020: ff16 853b 71d0 dd3a 1737 363b c09b f83a
00000030: cd6d e73a 1aa7 7d3b db64 ca3a 3f8b 403b
00000040: cd4c 123b afda 133b 01e7 9f3a e174 3a3b
00000050: c6cd 7b3b 2527 a43a b0cf 9f3b 6616 503c
00000060: fd1d 613c 5b70 f33b 4fda 653b 42a0 553b
00000070: 6143 7c3b 965c 593b ffdd 1c3b 5662 3b3b
00000080: 83be e93b 87ef bf3a 5024 a43b 16d0 df3a
00000090: b547 8e3b 8942 5b3b c978 ba3a 7993 063b

weight f4 [8, 40]
0.54893553 0.108127296 0.526276 0.4696267 0.4577089 -0.8094765 -0.7845811 0.6149324
0.6470723 0.6437105 -0.81400603 -0.01474088 -0.075160906 -0.29699457 0.11964499 -0.798856
0.51730573 0.5559026 -0.38620374 0.06698974 0.2280643 -0.23942994 0.23227221 0.08024834
0.44960168 -0.38505313 0.90852857 0.04116156 0.77993244 0.6920589 0.52805275 -0.20905475
-0.25242838 -0.18727835 -0.24723567 -0.18083625 0.5808138 0.6711696 -0.17968038 -0.2755264
0.48413223 -0.804454 -1.1444924 0.6206032 0.49611723 0.3208651 0.36779007 0.33405834
0.5037301 -0.33359155 0.3083773 -0.52653223 0.09075224 -0.13111468 0.6053015 0.36502194
0.5351558 -1.1212187 -1.3452744 0.49640322 0.5292241 0.043489438 0.5497978 -1.1626238
-1.134676 -1.316896 -0.30333233 -0.56783396 0.30702347 -0.6514938 0.07053149 0.23157004
-0.13960254 -0.16791156 0.40824947 -1.1803014 -0.5602253 -0.54996115 -0.10162272 -0.65434843
0.3252533 0.42354026 0.23642068 0.5332531 0.20459189 0.30595207 0.3238022 -1.1959699
0.24436918 -0.9302436 0.30859074 0.4510792 -1.4022465 -0.6756587 0.59040034 0.36216733
0.58087015 0.09381053 0.048319302 0.44344065 0.35800955 0.1796519 0.37472776 0.319995
0.29679894 0.22294743 -0.035205305 -1.2104487 -0.8515478 0.3872482 -1.3275664 -0.021285724
0.4142857 -0.982587 0.3587785 0.1968305 -0.6540444 0.50636137 -1.118784 0.5815779
0.32835045 0.6329473 0.49584553 0.5232149 -1.3671635 0.23041065 0.25767234 0.44337368
-0.17923696 -0.6169687 0.20304658 -1.118428 -0.21207675 0.37541 0.48124844 0.28587538
0.49258846 -0.9604109 -0.24773432 0.43675628 -0.8323513 -0.99342686 -0.98438746 0.6205457
0.514576 0.53409094 -0.469199 0.2256656 0.18524434 -0.9229614 0.10258912 -0.16664869
0.5097499 -0.39126003 -0.5889862 -0.7990863 0.02445544 -1.0986843 -0.22269632 -0.6892995
-0.15837865 -0.04666269 0.56010914 0.09821078 0.41433784 -0.8525769 -0.82935655 0.4451613
0.45244092 -0.42928296 -0.88513136 -0.27512893 0.29578066 0.936287 -0.23806995 -0.86453354
-0.3922301 0.17007536 0.49003795 0.38536578 0.19086662 -0.46515372 0.15969665 0.43016157
0.450773 0.50273997 -0.019635033 0.6318472 -0.33990705 0.56636494 -0.4114717 0.85510683
-0.089444764 -0.22744921 0.8504901 0.30022466 0.85226 0.31117365 -0.22720203 0.7482128
-0.31013763 -1.2129167 -1.1808274 -0.9258158 0.47612894 0.2262121 0.23767084 -0.19397259
0.2576117 0.55101585 0.21897167 0.43711513 0.53028935 0.43383113 -0.68697727 0.2604772
-0.92910093 0.43423024 0.553508 -1.2824013 0.44267353 0.46142295 0.49818859 -1.0957358
-1.2580324 -0.20225348 -0.25955132 0.38939092 -0.023035396 -0.25500995 0.41263023 -0.055756852
-1.2251065 0.68089736 0.51114625 0.5712767 0.35378033 -0.28230217 0.69536215 0.38911265
-1.4596936 0.34395844 0.17360884 -0.5170858 0.13597846 0.26352137 0.2880567 0.2229085
-1.21468 0.4304553 0.26538968 0.45477036 0.4702135 -0.94735765 0.08792177 0.3160837
00000000: 0a87 0c3f d871 dd3d 06ba 063f e972 f03e
00000010: d258 ea3e da39 4fbf 4fda 48bf 366c 1d3f
00000020: 88a6 253f 36ca 243f b362 50bf bb83 71bc
00000030: f6ed 99bd ac0f 98be 6f08 f53d d481 4cbf
00000040: 266e 043f a24f 0e3f 7fbc c5be eb31 893d
00000050: b089 693e 1f2d 75be c4d8 6d3e 3e59 a43d
00000060: 3132 e63e af25 c5be 5495 683f 0699 283d
00000070: a7a9 473f c62a 313f 772e 073f 7312 56be
00000080: 4b3e 81be e5c5 3fbe 592b 7dbe 232d 39be
00000090: 37b0 143f c5d1 2b3f 22fe 37be cc11 8dbe
000000a0: 2ee0 f73e b3f0 4dbf ba7e 92bf dadf 1e3f
000000b0: 1403 fe3e 6e48 a43e fb4e bc3e b209 ab3e
000000c0: 75f4 003f 83cc aabe a1e3 9d3e d1ca 06bf
000000d0: 4fdc b93d ed42 06be 0af5 1a3f 28e4 ba3e
000000e0: f8ff 083f 1884 8fbf f431 acbf 9028 fe3e
000000f0: 3b7b 073f fb21 323d 8cbf 0c3f dbd0 94bf
00000100: 103d 91bf 0c90 a8bf 604e 9bbe 915d 11bf
00000110: 2e32 9d3e 4cc8 26bf d072 903d b220 6d3e
00000120: f8f3 0ebe 02f1 2bbe 1306 d13e 1e14 97bf
00000130: ed6a 0fbf 41ca 0cbf 931f d0bd 6183 27bf
00000140: 9a87 a63e 45da d83e 4318 723e 4683 083f
00000150: 8980 513e c0a5 9c3e 67c9 a53e 8b15 99bf
00000160: ea3b 7a3e 7224 6ebf 9bff 9d3e daf3 e63e
00000170: d07c b3bf f8f7 2cbf 7a24 173f ff6d b93e
00000180: e8b3 143f bc1f c03d 76ea 453d a70a e33e
00000190: 074d b73e abf6 373e 51dc bf3e 62d6 a33e
000001a0: 08f6 973e 554c 643e 7033 10bd fcef 9abf
000001b0: 09ff 59bf 6545 c63e b2ed a9bf 665f aebc
000001c0: 411d d43e d28a 7bbf d1b1 b73e ef8d 493e
000001d0: 746f 27bf e6a0 013f 5034 8fbf 4ae2 143f
000001e0: 8d1d a83e d608 223f 77df fd3e 69f1 053f
000001f0: 37ff aebf c5f0 6b3e a1ed 833e e001 e33e
00000200: e589 37be a9f1 1dbf 71eb 4f3e a628 8fbf
00000210: a62a 59be bd35 c03e 3266 f63e 425e 923e
00000220: 8e34 fc3e 7ddd 75bf 11ae 7dbe 859e df3e
00000230: fa14 55bf 3951 7ebf d100 7cbf 15dc 1e3f
00000240: 41bb 033f 2fba 083f da3a f0be e214 673e
00000250: b1b0 3d3e 3347 6cbf 3f1a d23d f4a5 2abe
00000260: f87e 023f 3c53 c8be cdc7 16bf eb90 4cbf
00000270: c656 c83c b0a1 8cbf 810a 64be ef75 30bf
00000280: 032e 22be 6021 3fbd 5063 0f3f bc22 c93d
00000290: 1724 d43e 7b42 5abf b650 54bf 2fec e33e
000002a0: 56a6 e73e faca dbbe f897 62bf b3dd 8cbe
000002b0: 9070 973e 81b0 6f3f 9cc8 73be 1252 5dbf
000002c0: 62d2 c8be 3c28 2e3e 41e6 fa3e aa4e c53e
000002d0: 8a72 433e a128 eebe 8587 233e 233e dc3e
000002e0: b8cb e63e 91b3 003f a6d9 a0bc bdc0 213f
000002f0: 4c08 aebe 4bfd 103f 6bac d2be 48e8 5a3f
00000300: d12e b7bd 72e8 68be b8b9 593f 0cb7 993e
00000310: b62d 5a3f 2752 9f3e a6a7 68be e08a 3f3f
00000320: 5cca 9ebe db40 9bbf 5a25 97bf 4402 6dbf
00000330: 2cc7 f33e 25a4 673e fc5f 733e c0a0 46be
00000340: aee5 833e 600f 0d3f 1c3a 603e 8ecd df3e
00000350: 0bc1 073f 1d1f de3e bedd 2fbf 445d 853e
00000360: 8fd9 6dbf 6d53 de3e b3b2 0d3f ba25 a4bf
00000370: 1ba6 e23e a13f ec3e 9312 ff3e 1241 8cbf
00000380: 3507 a1bf 891b 4fbe e9e3 84be 3f5e c73e
00000390: bab4 bcbc aa90 82be 4544 d33e 4c61 64bd
000003a0: 4ad0 9cbf 4a4f 2e3f 7bda 023f 313f 123f
000003b0: b222 b53e e989 90be 4103 323f c639 c73e
000003c0: 3dd7 babf 521b b03e 84c6 313e bc5f 04bf
000003d0: f03d 0b3e 46ec 863e 2b7c 933e 2042 643e
000003e0: a27a 9bbf a364 dc3e 28e1 873e a9d7 e83e
000003f0: d3bf f03e 0886 72bf 5410 b43d b9d5 a13e

bias f4 [8]
0.011353302 0.45363274 0.0409723 0.05724642 0.0026655414 0.033425856 -0.4210467 -0.10899787
00000000: 3303 3a3c 8d42 e83e 92d2 273d 397b 6a3d
00000010: 5db0 2e3b 8de9 083d 6f93 d7be 463a dfbd
