dataset/tree_cycle/0.005_1000/model.pth (torch, 21979 bytes, 20 tensors)

bias f4 [20]
000000 75 f5 c7 3a c4 a7 c3 b9 9d c4 ad ba 77 e0 07 ba
       0.0015255647 -0.00037318293 -0.0013257448 -0.0005183289
000010 c3 d0 67 bb 91 e9 17 bb 55 49 2e 3b 96 c2 27 3b
       -0.0035372234 -0.0023179988 0.0026594002 0.002559816
000020 7f d7 74 3a 37 2a d8 bb 47 a6 ee 3a 84 64 3e 3b
       0.0009339973 -0.0065968293 0.0018207513 0.0029051611
000030 63 ae 8e ba 0f f4 df b9 3f b9 f3 ba ce 18 3d 3b
       -0.0010885712 -0.00042715712 -0.0018594636 0.0028853896
000040 7e 24 5f 3a 52 ba 2c bb 06 71 8e b9 4b 3c c4 b9
       0.00085122127 -0.0026356173 -0.0002716856 -0.00037428955

weight f4 [20, 10]
000000 85 5f ec 3e ff d1 ae bd 9e 98 9a bd 9e 26 b7 3e
       0.46166626 -0.08536147 -0.07548641 0.3577165
000010 a7 9a c5 be df bd 4e 3e f8 82 ad bd 57 6f 92 3e
       -0.38594553 0.20189618 -0.08472246 0.2860057
000020 de 81 2d bc d5 23 b1 3d bf ff 2e bd e1 54 ca be
       -0.010590045 0.086494125 -0.042724367 -0.39517882
000030 a4 f8 00 3e 54 df 9a bd b4 6b c0 be 6f bc 51 be
       0.12594849 -0.07562128 -0.3758217 -0.20482038
000040 22 4d f6 bd 80 0d e8 be 80 5b 47 3e 8e 85 2d 3c
       -0.12026431 -0.453228 0.19468498 0.010590924
000050 1c 9f 8a 3e bc 0e 3d 3e 83 a2 00 be 0c 5d 22 3d
       0.27074516 0.18462652 -0.12561993 0.039639518
000060 7f b2 6d 3e 04 0b 02 be bc f9 93 be 41 54 87 3e
       0.23212622 -0.12699515 -0.2890147 0.26431468
000070 07 a6 27 3c 0c ee 70 3e 66 ca c6 be 39 a0 a6 3e
       0.010232455 0.23528308 -0.38826293 0.32544115
000080 81 3a a2 be 02 80 98 bd 9f 93 ac be 6b 71 68 be
       -0.3168526 -0.074462906 -0.33706376 -0.22699516
000090 56 13 38 3e 08 e4 60 3e bf c9 31 bd cd ef 7a be
       0.17976126 0.21961987 -0.04340529 -0.24505539
0000a0 29 cb d9 3c 9b 2a 10 be b9 2e b0 be 05 50 92 be
       0.026586132 -0.14078753 -0.34410647 -0.28576675
0000b0 1d 42 9e be 03 ca d3 3d e1 f2 7a be 55 21 36 3e
       -0.30909815 0.10341265 -0.24506713 0.17786153
0000c0 ef 23 af be 51 2f e1 3d 5d 70 80 3e 56 18 01 3e
       -0.34207103 0.10995353 0.25085726 0.1260694
0000d0 ae fd e6 bd bb 21 75 be ac 0e 54 3e 71 5f 87 3e
       -0.11278854 -0.23938648 0.20708722 0.26440004
0000e0 ac 17 9c bd 92 3c a0 3e 58 e4 46 bd c6 92 07 3e
       -0.076217026 0.3129621 -0.04855761 0.13239583
0000f0 77 1d 41 3e d7 21 cb 3e 4e e4 ba 3d 16 22 e8 bc
       0.18858896 0.39674255 0.09125577 -0.028336566
000100 30 9b c0 be 63 4f 6f 3e a6 b2 48 be 91 87 46 bc
       -0.376184 0.23370127 -0.19599399 -0.0121172825
000110 35 a7 ca bd 2b 3e b0 3e 6b a3 c3 3c c1 24 d1 3e
       -0.098951735 0.3442243 0.023881635 0.40848354
000120 3d 2f 93 3d b4 37 15 be 7f a1 18 3e 45 9e 0c bd
       0.07186744 -0.1457203 0.14905356 -0.034330625
000130 5a fe c4 3e 9b d9 1b 3e 71 34 da 3d d4 93 4c be
       0.38475305 0.15219729 0.10654534 -0.19978267
000140 5b 02 53 3e 17 98 14 3e 6a c0 01 3e e0 86 14 be
       0.20606367 0.14511143 0.12671056 -0.14504576
000150 ea 23 66 3d fe de 2e bd b0 e6 08 3d 3b ae 88 3d
       0.056186594 -0.04269313 0.033423126 0.06673857
000160 33 6f 53 3d db 52 5f 3e ba c3 ea 3e 33 66 61 be
       0.05161972 0.2180895 0.45852453 -0.22011642
000170 e6 be 5e 3e 0e 3c 9e 3e 53 f6 52 3e b7 ad 31 be
       0.2175251 0.30905193 0.20601778 -0.17351423
000180 b3 c3 62 3d d6 ef 83 3e e3 f9 ba be f3 29 b5 be
       0.055362415 0.25768918 -0.36518773 -0.35383567
000190 ba c3 af 3e 2a 7b ce bd a5 f3 0f be e4 55 11 be
       0.34329015 -0.100820854 -0.14057787 -0.14192921
0001a0 cb 16 8b bd 2c 7a 2e 3e a4 55 82 bd a4 2f e2 bd
       -0.06791457 0.17038792 -0.06363991 -0.11044243
0001b0 a5 69 d7 3e 9f 8c 05 bc 76 79 1a 3e 9f 6e 92 3e
       0.42072788 -0.008151202 0.15085396 0.28600022
0001c0 28 75 9a 3e 78 f2 16 3e 83 f0 ca bd b6 35 63 3e
       0.30167508 0.14740932 -0.09909155 0.22188458
0001d0 72 f3 3a 3d 8a 44 00 3e 23 37 4f be c2 a1 ae bb
       0.045642324 0.12526146 -0.20235877 -0.0053293416
0001e0 e7 42 02 bf 0f ce 72 be 63 a9 5d 3e 46 8b 34 3e
       -0.50883335 -0.23711418 0.21646647 0.17631254
0001f0 3d 86 8e 3e 76 18 b1 3e ef a3 a5 be 12 3b 2a 3e
       0.2783679 0.34588975 -0.32351634 0.16624096
000200 c6 eb 9d bd e8 e0 95 be 16 6a 4f be d1 8b 47 be
       -0.07710986 -0.29273152 -0.20255312 -0.1948693
000210 80 45 0b be 98 21 c1 bd 2e d1 0a be 5f 80 19 be
       -0.13600731 -0.094302356 -0.13556358 -0.14990376
000220 75 c6 fd bc 64 d2 45 be cc ce c9 3d 90 13 4a 3d
       -0.03097842 -0.19318539 0.098538965 0.049335063
000230 27 14 03 3e b1 a2 82 bd 3f 07 08 3e b5 9c 66 3d
       0.12800656 -0.06378687 0.13284014 0.05630179
000240 61 ec d7 3d 7d 6a 47 3e 14 37 c6 bd b5 ef ae be
       0.105431326 0.19474216 -0.09678474 -0.34167257
000250 e9 32 4a 3e f4 c2 0b 3e 9c 8e d3 3c cc 0a b5 3e
       0.19745983 0.13648587 0.025824837 0.353598
000260 ac 15 9d be 7e 2a 4d 3e 78 7c a4 be c7 9f cd 3e
       -0.30680597 0.2003574 -0.32126212 0.40160963
000270 af f3 b9 3d 90 ab 2a 3e 79 44 ac be 63 72 90 3e
       0.09079682 0.16667008 -0.3364599 0.2821227
000280 a9 b5 ce be ea 1b c2 3d 2b 9d 09 be 89 29 d7 be
       -0.4037297 0.094779804 -0.13438861 -0.42023876
000290 f8 13 a2 3e 37 35 ca be 90 fe 75 3e 1d 10 2f be
       0.3165586 -0.39493725 0.24022889 -0.1709599
0002a0 f0 eb 31 be 08 77 ea 3d 01 41 06 bd 48 90 e1 3c
       -0.1737516 0.11448485 -0.032776836 0.027534619
0002b0 db 0a 40 3c 79 da 4c be 1c fa 7b be ce af 5e 3e
       0.011721338 -0.20005216 -0.24607128 0.21746752
0002c0 3a e2 9b 3e de 5c b8 bd ef ad a8 3e 61 30 8d 3e
       0.30446035 -0.09002088 0.329452 0.27575973
0002d0 a2 03 cf 3e 3c 84 96 bd 45 4e d7 be dc 3f bb 3d
       0.4043246 -0.073494405 -0.42051902 0.091430396
0002e0 6a 32 02 be 71 41 b8 be 3c 6f e5 3c e2 d1 92 3e
       -0.12714544 -0.35987428 0.028007142 0.28675753
0002f0 84 04 bf bc 5f 90 a9 bd ee ee 74 3e ca 98 a4 be
       -0.023317583 -0.0827949 0.2391927 -0.3214782
000300 25 56 60 3e 08 1b cc be b0 01 e0 bd 23 23 7d be
       0.21907862 -0.39864373 -0.10937822 -0.24720435
000310 2b 93 13 3e 71 99 0a be c0 dd b8 be fa 6a e6 3d
       0.14411609 -0.13535096 -0.36106682 0.11250873

bias f4 [20]
000000 fa 7e 50 3a 56 65 83 b8 bd 92 21 ba 09 f9 96 bb
       0.00079534913 -6.265442e-05 -0.00061635283 -0.004607324
000010 3a ec 87 3a b8 cc 37 3a 73 82 06 ba bb 6b f7 b9
       0.0010370084 0.00070114015 -0.0005131133 -0.00047191777
000020 5c c0 90 ba ea 56 35 b9 85 ab 7b b9 1d 74 ee b8
       -0.0011043656 -0.00017293883 -0.00024001121 -0.00011370352
000030 b3 d3 97 ba 2f 10 a7 39 9b ec c3 b9 2e 74 04 bc
       -0.0011583477 0.0003186478 -0.00037369583 -0.00808434
000040 35 cb a6 39 4b 63 e3 b9 39 c1 83 38 e1 8e 59 ba
       0.00031813388 -0.00043370793 6.282557e-05 -0.00082991837

weight f4 [20, 20]
000000 63 b5 60 3e 0f 44 c1 bd 40 23 97 bd 02 6a ec 3e
       0.21944194 -0.09436809 -0.0737977 0.46174628
000010 93 17 9a be 38 8d 4e 3d a3 be 83 3d 4c ca d0 3e
       -0.3009611 0.050427645 0.064328454 0.4077934
000020 90 1e e9 3d f6 17 4e be 9b f2 9c be 08 8f 97 3e
       0.113827825 -0.20126328 -0.30653843 0.29601312
000030 f2 f4 f8 bd ef d1 66 be c3 6f 82 3e f0 6e 49 bc
       -0.121560946 -0.22541021 0.25475892 -0.012294516
000040 fb 01 27 3e 83 c1 ad 3e b4 09 44 3e a3 98 6d 3e
       0.16309349 0.339367 0.19144326 0.23202758
000050 a3 b0 71 3d 7f a2 23 be de d8 82 3e f4 c2 bd be
       0.059006345 -0.15979956 0.25556082 -0.370628
000060 61 fc c7 bc 4f ea 31 be 09 a9 92 bd 46 00 b0 be
       -0.024412336 -0.17374538 -0.07161147 -0.3437521
000070 67 69 e7 be 63 33 c6 be 00 27 11 be c5 15 07 be
       -0.45197603 -0.3871108 -0.14175034 -0.13191898
000080 7a 07 b3 be 52 0f 94 3e 3e 8a d1 3d 48 e5 1f 3e
       -0.34966642 0.28917938 0.10231446 0.15614808
000090 be 0a b3 3d c2 e0 ab be 93 e3 46 3d f1 0f e6 bc
       0.08742283 -0.33569914 0.048556875 -0.028083773
0000a0 3e 2c 83 3e aa 0c c8 3e d7 84 e3 bb 76 52 cb 3e
       0.25619692 0.39072162 -0.006943326 0.3971135
0000b0 b1 04 25 be b9 67 30 be 04 c7 14 be fb fc 92 3d
       -0.16115071 -0.17227067 -0.14529043 0.071771584
0000c0 5a ff 89 3e 31 8b 12 bd 8c fc 88 be 15 2b 89 bb
       0.2695263 -0.035777275 -0.26755178 -0.004186044
0000d0 18 cb cf bc b3 7d 5f be cf 18 85 be 4f 61 b1 be
       -0.025365397 -0.21825294 -0.2599549 -0.34644553
0000e0 28 df d4 3e cb f5 66 be 1c 62 80 3e 28 38 2c 3e
       0.41576505 -0.225547 0.25074852 0.16818297
0000f0 35 30 50 bd b4 37 1b 3e b5 9a 9b 3e 07 13 5a be
       -0.050827224 0.15157968 0.3039147 -0.21296321
000100 af 6c d8 3e 86 07 af 3d 00 48 d1 3d 15 41 f7 3d
       0.4227042 0.08546357 0.10218811 0.1207296
000110 51 89 1f 3d a2 f6 52 be 05 af fc ba 0a 0b 48 be
       0.038949315 -0.20601895 -0.0019278234 -0.19535461
000120 18 10 81 3e 73 71 a6 be cd 3f ac 3e f7 46 fd bd
       0.2520759 -0.3250843 0.33642426 -0.12367051
000130 7d fd 16 be ba 73 b0 bd cf f1 80 be 44 f8 50 3e
       -0.14745136 -0.08615823 -0.25184485 0.20407206
000140 9c e0 5a be 24 07 b9 be 34 a9 85 3d 44 38 16 3e
       -0.21374744 -0.3613826 0.065264136 0.14669901
000150 3f 2a f1 bd b6 7d 3b 3d 42 64 e1 be e0 3a 5e 3d
       -0.11775636 0.045774184 -0.44021803 0.054255366
000160 03 ad a3 be ba b4 bd 3d 02 fd a3 bc bf 7a 84 3c
       -0.31967935 0.092629865 -0.020018104 0.016171811
000170 99 57 13 bd d1 2f 20 be d5 31 8d 3e 71 8c 68 bd
       -0.03597221 -0.1564324 0.2757708 -0.05677456
000180 cd f4 c5 3e ac 23 1d be ad 5f e9 3d 7b 89 86 be
       0.3866333 -0.15345639 0.11395202 -0.26276764
000190 78 34 1e 3c fb 3e 8b 3e f9 b3 ca 3e e0 37 60 3e
       0.009656064 0.27196488 0.39590433 0.21896315
0001a0 96 6a bf 3c 5e f4 7f 3d d1 d2 55 be c0 d9 5c bd
       0.023366254 0.062488906 -0.20881201 -0.0539186
0001b0 fd 16 e6 be c4 22 3c be 27 fe db 3d fe 34 1f be
       -0.44939414 -0.18372637 0.10741835 -0.15547559
0001c0 1c 8d df be 80 70 a6 be 6a b9 2a be b1 56 6d be
       -0.43662345 -0.32507706 -0.16672292 -0.23177601
0001d0 64 f8 b7 be 94 3f 8c be b7 53 96 3e 4f 6c a5 be
       -0.35931695 -0.27392256 0.29360744 -0.32309195
0001e0 a4 cf 98 be 93 75 cd be 61 7c 53 3e ee 43 25 3e
       -0.29845917 -0.40128765 0.20652916 0.16139194
0001f0 cf 99 62 be 82 4e 1f be ad e4 9b be cc 7a 8f 3e
       -0.22128986 -0.15557292 -0.30447903 0.28023374
000200 57 fc cc be 12 39 af be d4 ce ab 3e b6 9d 15 3c
       -0.4003627 -0.3422323 0.33556235 0.0091318395
000210 80 f5 5b 3e c2 75 8a bd af d4 8b 3e 92 32 d1 3d
       0.2148037 -0.06760742 0.27310702 0.10214724
000220 01 e1 04 3c 95 37 a0 be 68 4a 38 be f5 e3 4c 3e
       0.008110286 -0.31292406 -0.17997134 0.20008834
000230 aa 18 84 be 6b 20 b9 3e b9 33 aa be d1 02 f2 3d
       -0.25800067 0.36157545 -0.33242586 0.118169434
000240 30 a5 28 3e b4 72 7b be d2 e8 04 be 69 46 37 bc
       0.16469264 -0.24555475 -0.12979439 -0.011186221
000250 0d 57 21 bd dc 2a 44 bc 69 36 42 bc 2e 3a 2e be
       -0.03938966 -0.011973109 -0.011853793 -0.17014381
000260 c4 ec f1 3d 67 87 87 be e2 11 25 3e 5d 6d 92 bc
       0.118127376 -0.2647049 0.16120103 -0.017874414
000270 85 ee b2 be e1 02 3b 3e 02 4a af 3d a7 15 24 3e
       -0.349476 0.18262817 0.08559038 0.16023885
000280 7b 26 c2 3e 8b a9 e0 3e eb ca 9b 3e 06 46 82 bd
       0.37919983 0.4387935 0.30428252 -0.06361012
000290 76 4b f1 bd 54 84 92 3e 8a cf a7 3d 9c 53 02 be
       -0.11781971 0.28616583 0.08193882 -0.12727207
0002a0 93 22 80 3d 3c a9 88 be 81 2d 14 be 4a 58 52 be
       0.062565945 -0.26691616 -0.14470483 -0.20541492
0002b0 7c 51 b3 3d ef b5 42 3e 68 31 78 3e 9b df a9 3e
       0.08755776 0.19014715 0.24237597 0.3317841
0002c0 02 6c bd 3d 54 ca ed bd 7b 08 0c be 68 06 17 3e
       0.092491165 -0.11610857 -0.1367511 0.14748538
0002d0 49 5d 5d 3e 00 bf 1b bf 80 fb ef bd 58 1d 21 be
       0.21617617 -0.6083832 -0.11717892 -0.1573385
0002e0 4b d7 1a bf a5 ef fb 3d 9f ce b8 3e ae 1a 8d 3e
       -0.6048476 0.12301568 0.3609514 0.27559417
0002f0 48 15 e9 bd ce 16 2f 3e 35 55 aa be 6d 1e 88 be
       -0.11381012 0.17098543 -0.33268133 -0.26585713
000300 c0 48 0d 3c 50 fe 0a bc 42 da d5 3e 4f 11 ad be
       0.008623302 -0.008483484 0.4176808 -0.33802268
000310 3b 0e c6 bd 17 d2 22 be 1b 06 e3 be 5e df 14 be
       -0.09670683 -0.15900455 -0.44340596 -0.14538333
000320 12 1e a4 be e3 ea ae 3e 69 55 c9 3e 3d c1 86 be
       -0.32054192 0.3416358 0.39322975 -0.26319304
000330 4b 3c 48 3d fc 66 8a 3e e7 56 55 3e 1a 38 8b 3e
       0.048885625 0.27031696 0.20833932 0.2719124
000340 f6 bb a8 bd eb eb 28 3e d8 f9 67 be 37 2b 00 3e
       -0.08238976 0.16496246 -0.22653902 0.12516485
000350 2f 23 db 3e 81 b9 a4 3d 84 ef e5 3e df db 84 3e
       0.4280028 0.080431946 0.44909298 0.25948998
000360 75 e1 07 be ae b6 e0 3d c4 9b 98 bc a0 87 bf 3e
       -0.13269599 0.109723434 -0.018628962 0.3740816
000370 f8 33 93 3e e9 b6 c0 be b8 41 56 3e 9e 87 aa be
       0.28750587 -0.3763955 0.20923507 -0.33306593
000380 e4 33 87 be a0 61 91 3e 57 aa 40 bc 2b 05 ad be
       -0.26406777 0.28394794 -0.011759362 -0.33793005
000390 07 c1 bb 3d b6 b1 97 bb 4b c9 83 be fd b2 c4 be
       0.091676764 -0.004629339 -0.25739512 -0.38417807
0003a0 5e 5d c7 3e 59 b7 ef 3e c5 6a c5 3d f6 71 0d bd
       0.3893842 0.4681957 0.09639505 -0.03453251
0003b0 7d 64 82 be ec 70 e5 bc 19 46 47 3e 49 0d 42 be
       -0.2546729 -0.028007947 0.19460334 -0.1895038
0003c0 00 cd d5 3d b8 e2 58 bd a2 6c 81 3e 9a 18 a7 be
       0.10439491 -0.05295059 0.25278193 -0.32635957
0003d0 ce 99 39 3e 53 f9 54 3e 58 98 af bd 25 92 b8 be
       0.18125078 0.20798235 -0.08573979 -0.36049
0003e0 6a 0f b9 be 27 6d c3 bd 52 2b bb be 11 f1 f8 bd
       -0.36144572 -0.095423035 -0.36556488 -0.12155355
0003f0 89 27 49 3d 2c a6 19 3e 54 e4 1b bd 02 c7 c0 3d
       0.04910997 0.15004796 -0.038059548 0.09412958

bias f4 [20]
000000 95 89 ee b9 c3 a7 30 b8 da 8d 06 3a 7d 25 b0 b9
       -0.00045497404 -4.211791e-05 0.0005132832 -0.00033597267
000010 ff 23 b4 36 c9 2f 27 3a 5c b4 fb 38 fc 49 7e b7
       5.3686085e-06 0.0006377665 0.00012002207 -1.5156806e-05
000020 39 af 92 b8 d6 49 ea 33 f3 23 25 39 44 3b cb 34
       -6.99446e-05 1.0909905e-07 0.00015749018 3.7854818e-07
000030 9a 69 07 b6 a9 e5 55 b7 08 51 1b ba a8 cf 7d 38
       -2.0178036e-06 -1.2749261e-05 -0.00059248554 6.0513295e-05
000040 1b 7a 89 b7 53 88 ee 35 6d dd 70 b8 26 dd 34 b9
       -1.6388532e-05 1.7772057e-06 -5.7426678e-05 -0.00017248522

weight f4 [20, 20]
000000 a5 92 14 be f3 a4 85 3e e5 51 d5 bd eb 11 0b bf
       -0.14509065 0.2610241 -0.10416011 -0.54324216
000010 29 4f 8c 3d f6 65 63 be 7c 17 ba bd 6f 32 71 3e
       0.06851036 -0.22206864 -0.090865105 0.23554395
000020 da 1d d0 3e b7 08 10 3e 95 a7 81 3e 9a 9d 2b bd
       0.40647775 0.14065824 0.25323167 -0.041898347
000030 40 d1 8a 3e 50 aa 80 3d f9 3d a3 be 93 6f f8 3d
       0.2711277 0.062824845 -0.3188322 0.12130656
000040 b4 6f bf be c6 45 56 3e 1c 98 82 3e e7 80 8a be
       -0.3738991 0.20925054 0.25506675 -0.2705147
000050 a9 6d f8 3d 3d c2 33 be df 04 c1 3e 86 39 d7 be
       0.12130291 -0.17554565 0.3769903 -0.42036074
000060 a1 5e c8 3d dc ae f3 bd 2d e6 f0 be 90 c6 76 3e
       0.09783674 -0.11898586 -0.4705061 0.24099183
000070 3c 86 fc bd 85 b7 8d bd c0 3f e0 3e c2 59 4d 3d
       -0.12330291 -0.06919769 0.43798637 0.050134428
000080 59 49 30 3e 99 9d 06 bd fd bb 2a bd 6e e0 70 be
       0.1721548 -0.03286514 -0.041683186 -0.23523113
000090 ba 1f 74 3e bc 2d b9 3e 4d e3 32 3e 3f fb 6f be
       0.23840228 0.36167705 0.17469521 -0.23435687
0000a0 d9 df ad 3c e3 fc 67 3e 13 43 09 3e c4 89 8c be
       0.021224903 0.22655062 0.13404493 -0.27448857
0000b0 68 12 b7 be 5f 44 77 bc 4a 28 85 be dd 22 29 3e
       -0.3575623 -0.0150919845 -0.260073 0.16517206
0000c0 13 32 d6 bc cc d3 b6 bd a9 ff 63 3e 9c 59 60 3e
       -0.026146924 -0.08927116 0.22265495 0.21909183
0000d0 37 2c 78 3e db 8b 29 3e 03 d0 c1 be f9 e4 cf bd
       0.24235617 0.16557257 -0.37854013 -0.10151095
0000e0 b4 e0 63 3e 43 df ab 3e a1 b0 0e be e1 00 f6 be
       0.22253686 0.33568773 -0.13934566 -0.48047546
0000f0 ca a0 95 3e da ef 17 3e 2c 08 6a be bb 4a a4 3e
       0.29224235 0.1483759 -0.2285468 0.32088265
000100 d0 d2 87 3e 39 2d bd 3e 63 89 21 be b7 cb e8 39
       0.26528025 0.36948565 -0.15775065 0.00044402268
000110 cd 4f 3c be 72 74 1e bc 87 f6 56 3d e1 27 92 be
       -0.18389817 -0.009671317 0.0524812 -0.2854605
000120 f6 aa 7e be 05 6c 3f 3e ae 94 8d be ee 1d 89 be
       -0.24869904 0.1869355 -0.27652496 -0.26780647
000130 8e 96 0c 3e 57 eb 15 bd dd db 0f bf 66 56 39 3e
       0.13729307 -0.03660139 -0.5619486 0.18099365
000140 1e 7e 3b 3e bd 75 42 3e 9e 8c cb 3d fd 2c 58 3e
       0.18309829 0.18990226 0.0993893 0.21110912
000150 61 fc a9 3e f1 da 93 be 68 fb 77 3e 3e f7 8d be
       0.33200362 -0.28877977 0.24216998 -0.27727693
000160 0b 17 1a 3e 33 00 3c 3f 68 f0 15 3e c8 23 ad 3e
       0.15047853 0.73437804 0.14642489 0.3381636
000170 5d 1e 93 3d e2 4f 20 bf 5e c6 01 be 2c ce ba 3e
       0.07183526 -0.6262189 -0.12673327 0.36485422
000180 54 30 15 3e 20 a4 4a 3e 0c c3 b9 3c a6 24 c8 be
       0.14569217 0.19789171 0.022676013 -0.3909046
000190 b8 97 92 3e d7 de bf 3e 0a a7 8a be be dc 89 3e
       0.28631377 0.374747 -0.27080566 0.26926225
0001a0 97 8e 05 3e 6c df 49 bc 57 1c 30 bd 79 e0 eb bd
       0.13042675 -0.012321334 -0.042995777 -0.11517424
0001b0 c5 51 19 be 1d 8f a6 be a2 4a 79 be dd 5b 20 be
       -0.14972599 -0.32531062 -0.24344876 -0.15660043
0001c0 52 52 9f be 6f a5 88 3c 09 e4 5b 3e 0a a9 a0 be
       -0.31117493 0.016680447 0.21473707 -0.31378967
0001d0 41 7d b5 3e 70 fb b1 bd 2a 51 85 be 2a 6f 2d be
       0.35447124 -0.08690536 -0.26038486 -0.16936937
0001e0 93 6c 59 3e b3 16 98 3e 71 52 75 3e cd 3b bb be
       0.21232824 0.29704818 0.2395723 -0.36569062
0001f0 70 5a ee 3d 09 d2 14 be fc a8 16 be 33 ee 43 3e
       0.11638343 -0.14533247 -0.147129 0.19133835
000200 c2 34 9f 3e 94 7e ce be d8 07 4c bd 8e df 90 bc
       0.3109494 -0.40330946 -0.049812168 -0.017684724
000210 09 66 63 be d6 05 af 3e 72 24 94 be 74 8c b9 be
       -0.22206892 0.3418414 -0.28934056 -0.3623997
000220 44 fc 1d be 3f 94 3e 3e 3c 96 b8 3d cb 6e 78 3e
       -0.15428263 0.18611239 0.0901303 0.24261014
000230 ea 07 34 3e 9e f6 aa be 84 d9 55 be e7 1d bd 3b
       0.17581144 -0.3339128 -0.20883757 0.005771387
000240 02 79 8d be ba 55 88 be d6 0d b7 be 79 8f b1 3e
       -0.27631384 -0.26627904 -0.35752743 0.34679773
000250 44 ee cc 3e 78 bb ec be c4 f8 47 be b6 0f 2f be
       0.40025532 -0.46236777 -0.1952849 -0.17095837
000260 a4 4f 82 3e 17 82 9d 3e 53 0b a1 be 80 a5 bb 3c
       0.25451386 0.30763313 -0.31453952 0.022906065
000270 c7 6b 94 bd b3 fc a4 3d fd 95 99 be 4b ed 04 be
       -0.072471194 0.08056011 -0.29997244 -0.12981145
000280 7d 8f be be 8e 11 36 3e 6d 1f 95 be da 03 61 bd
       -0.37218848 0.17780134 -0.29125538 -0.054935314
000290 66 16 9c be af 8d 9e 3b 91 16 2b 3c 23 b7 31 3e
       -0.3048584 0.0048386673 0.010442392 0.17355017
0002a0 d6 8a 23 be 28 d6 e3 3d 38 62 08 3e f1 a4 ef be
       -0.1597093 0.111248314 0.13318717 -0.46805528
0002b0 df ee 79 3e 0e 57 3d 3e e9 38 b1 bd 2f 1a c3 be
       0.24407528 0.1849024 -0.08653433 -0.38105914
0002c0 28 63 b3 3c 59 12 ed bd 28 b2 73 3e c8 53 a9 3d
       0.021897867 -0.11575765 0.2379843 0.08267933
0002d0 36 4b 9c 3e 15 e3 9b be 71 2e 90 be ad 94 a7 3d
       0.3052613 -0.30446687 -0.28160432 0.081826545
0002e0 cc 85 89 be 2c c0 b8 3e 85 ef 99 be af 03 96 be
       -0.2685989 0.36084116 -0.3006555 -0.29299685
0002f0 28 10 a8 3c ea 13 84 be d6 0d 2b 3e 47 d7 b4 be
       0.020515516 -0.25796443 0.16704497 -0.35320494
000300 48 0f db 3e 22 fe ed bd 68 1e 9d 3e ed d5 de 3e
       0.42785096 -0.116207376 0.3068726 0.43522587
000310 25 79 b8 3e 79 45 56 be 6e cb 95 3d 52 79 2e 3e
       0.36029926 -0.20924939 0.07314192 0.17038468
000320 b6 f1 8b 3e fb 41 b9 be 5c ab 0f 3d 4f 5e e9 bc
       0.27332848 -0.36183152 0.03507553 -0.028487353
000330 8d 07 ab 3e 9a 66 c7 3d 0f 28 4e 3e 17 1a 67 3e
       0.33404198 0.097363666 0.20132469 0.22568546
000340 f2 b4 95 be ea e8 a6 be 82 22 6e be ed c8 01 bf
       -0.29239613 -0.32599574 -0.23255351 -0.50697213
000350 b9 d0 21 3e 25 74 2b 3e 94 a3 81 bc 0b 4e 0a be
       0.15802278 0.16743524 -0.01582507 -0.13506334
000360 06 44 cf 3d 00 95 92 be e9 9b a3 3e 71 f1 45 3e
       0.10120396 -0.28629303 0.31954888 0.19330384
000370 ca a5 8d 3e 20 99 b0 3e 62 d7 85 be 5f 77 7e 3d
       0.2766555 0.34491825 -0.26140887 0.06212556
000380 be 97 af be 64 5c f5 bd f1 78 da 3d f9 31 6f 3d
       -0.34295458 -0.11980513 0.10667599 0.058397267
000390 ba 6b 94 3e 82 cb 7b 3d d5 84 13 be b8 1e 00 bd
       0.2898844 0.061473377 -0.1440614 -0.031279296
0003a0 14 42 3f be 16 02 c3 be 1b 01 43 be 22 ff 65 bd
       -0.1867755 -0.3808753 -0.1904339 -0.056151517
0003b0 0b 44 8f be 38 3c fe 3d cb e0 4e be 9c 49 0f 3e
       -0.279816 0.124138296 -0.20202939 0.13992923
0003c0 a3 6a 33 3e f8 34 26 bd a7 25 04 bd a8 97 6d be
       0.17521147 -0.04057786 -0.03226247 -0.23202384
0003d0 84 48 76 bd cf 2f c3 bc 14 bd 86 be d4 ee ef 3e
       -0.06012775 -0.023826508 -0.2631613 0.468619
0003e0 cf a8 51 3e f3 75 0c be fc c4 08 3f 10 1a c5 3d
       0.20474552 -0.13716869 0.53425574 0.09624112
0003f0 67 d0 c9 3d e7 84 a3 3d e8 c9 bd bd 91 ba cb be
       0.09854203 0.079843335 -0.09267026 -0.39790776

weight f4 [20]
000000 3d ab 83 3f 6d 20 90 3f 56 8e 71 3f bd 4c 8e 3f
       1.0286633 1.1259896 0.9435781 1.1117169
000010 4c 21 81 3f 8e df 7f 3f 54 2a 81 3f c3 46 7c 3f
       1.0088286 0.9995049 1.0091043 0.98545474
000020 44 70 83 3f 7c 90 82 3f c3 94 75 3f fd af 82 3f
       1.0268636 1.0200343 0.9593012 1.0209957
000030 10 7d 63 3f 6a 58 66 3f 39 b3 72 3f 7f ef 74 3f
       0.88862705 0.8997866 0.9480472 0.9567794
000040 ea 12 8a 3f d6 de 82 3f c4 27 65 3f 75 8b 7f 3f
       1.0787022 1.0224254 0.895138 0.9982217

bias f4 [20]
000000 8d 22 cb bc cb b8 db bd 6e 9c a6 be f1 30 2b bd
       -0.024796749 -0.10728606 -0.3254122 -0.04179472
000010 ac c8 dc bd 7e 4f ce bb 8a 6b c4 3d 2e 2e 85 bd
       -0.107804626 -0.0062960973 0.09590824 -0.06502949
000020 2e 9c 2a 3e 99 71 28 3d 90 06 8a bd 15 72 f4 bd
       0.1666114 0.04112396 -0.06739533 -0.11935822
000030 f5 97 01 3e 33 b6 82 be 09 94 80 bd 4b 02 5a be
       0.12655623 -0.25529632 -0.062782355 -0.21289937
000040 52 6d c8 bd f7 f7 d5 3d fe 06 5e bd cf 9c df bd
       -0.09786476 0.10447686 -0.054205887 -0.10918581

running_mean f4 [20]
000000 ae 25 3e 3f 0d dd a8 bf 32 09 2f 3f fe 54 65 bf
       0.74276245 -1.3192459 0.68373406 -0.8958281
000010 ad 5b 9e bf 47 be 4d 3f b5 db 09 3f 59 4f 68 3f
       -1.2371727 0.80368465 0.5385087 0.90746075
000020 72 45 35 3f e9 27 c2 3e d8 dd 98 3e 9e 63 76 3f
       0.7080909 0.37921074 0.29856753 0.96245754
000030 be f7 81 be 27 f1 79 bf 38 fd e1 3e 2b f4 0c 3f
       -0.25384325 -0.97633594 0.44138503 0.5506007
000040 f4 41 6b bf 15 30 16 3f b6 f7 8b be c7 d3 58 bf
       -0.9189751 0.5866712 -0.27337426 -0.84698147

running_var f4 [20]
000000 33 6b f3 3b 2b b2 c0 3c f4 ea cf 3b 65 87 31 3c
       0.0074285506 0.023522457 0.0063451473 0.010835503
000010 ee 67 a8 3c 64 f0 0f 3c 9c 48 7e 3b 35 60 35 3c
       0.02055737 0.008785341 0.0038800603 0.011070301
000020 97 51 dd 3b da 29 04 3b ed 28 9c 3a 29 ff 4b 3c
       0.006754111 0.0020166547 0.0011914052 0.012450972
000030 16 f7 61 3a fd d2 52 3c d2 c3 2d 3b 73 2c 85 3b
       0.00086198875 0.012867686 0.0026514423 0.0040641367
000040 d9 67 3b 3c 18 2f 9a 3b 3e 9b 83 3a 5f c8 1e 3c
       0.011438333 0.004705321 0.0010040773 0.009691327

weight f4 [20]
000000 7b 58 8d 3f 01 ed 75 3f 25 20 80 3f d7 68 8e 3f
       1.1042627 0.96064764 1.000981 1.1125745
000010 51 a7 77 3f 8b a3 82 3f 62 49 71 3f f8 fb 3a 3f
       0.9673968 1.0206159 0.942526 0.73040724
000020 73 85 89 3f 1e e4 6b 3f 50 eb 50 3f 18 8f 6a 3f
       1.074385 0.92144954 0.8160906 0.91624594
000030 90 46 73 3f 77 eb 78 3f ef 45 83 3f 6f e9 83 3f
       0.95029545 0.9723429 1.0255717 1.0305613
000040 73 01 84 3f 86 0a 60 3f 20 6c 62 3f af 9e 82 3f
       1.0312942 0.8751606 0.88446236 1.0204676

bias f4 [20]
000000 6b 42 4b 3d ed b3 e4 3d 75 63 50 3e 87 04 d0 3e
       0.049623888 0.111671306 0.2035044 0.40628454
000010 79 47 51 bd bb f4 8a bd bd 65 5c bd 33 cb 9d 3e
       -0.051093552 -0.0678496 -0.053807963 0.3081909
000020 08 d3 5f 3d c8 15 d9 be b9 68 88 be c6 af 25 bf
       0.054644614 -0.4239943 -0.26642397 -0.64721334
000030 57 ef 89 bd 2d af 22 be 36 a4 f0 bd fd 05 98 be
       -0.067351036 -0.15887137 -0.11750071 -0.2969207
000040 58 6b 6f 3e 75 e0 36 bc 78 5b 9c be 52 36 a8 3e
       0.23380792 -0.011161913 -0.30538535 0.32853943

running_mean f4 [20]
000000 18 48 2a 3f 34 40 81 bf 34 96 c7 3d fe 5b 23 3e
       0.66516256 -1.0097718 0.09745446 0.15953061
000010 3e cb e1 be a0 fe 4a bf 48 fd 02 bf 35 49 42 be
       -0.44100374 -0.79294777 -0.51167727 -0.18973239
000020 d9 65 f9 3e 9b 91 ed be b3 c4 63 3f 57 3d 44 be
       0.48710516 -0.4640015 0.88972014 -0.19164024
000030 5e 92 01 bf 3a 94 b9 bd 3f 43 5f bf 76 d4 64 be
       -0.50613964 -0.09061475 -0.87211984 -0.22346672
000040 06 24 1f bf 69 b8 48 bf 3d ae 00 3f a4 e1 24 be
       -0.6216434 -0.7840639 0.50265867 -0.161017

running_var f4 [20]
000000 1d b3 0b 3e ca 20 77 3e 42 96 f9 3d 80 c6 0b 3c
       0.13642545 0.24133602 0.121868625 0.008531213
000010 b5 53 45 3d ca 16 24 3e 8b 14 5e 3d 5b cb 3e 3d
       0.048175532 0.16024318 0.05421881 0.046580654
000020 da 13 d7 3d 37 3d a4 3e 65 31 93 3e 7b c6 0b 3d
       0.10501833 0.32077953 0.28748623 0.034124833
000030 71 03 a2 3d 0e 9f 1f 3d d2 9d 98 3e f4 40 1d 3c
       0.07910813 0.038970046 0.29807907 0.009598006
000040 fd 36 ad 3d 50 62 75 3e 85 68 11 3e 09 c2 73 3c
       0.08457754 0.23963284 0.14200027 0.014877805

weight f4 [20]
000000 d4 33 dd 3f 74 65 97 3f 32 c6 95 3f 78 4c fb 3f
       1.7281442 1.1827836 1.170111 1.9632711
000010 ce 6b da 3f f6 7a a3 3f 58 5e b8 3f 3c 39 a9 3f
       1.7064149 1.27719 1.4403791 1.3220592
000020 98 63 84 3f 96 cd 63 3f 1c 02 8f 3f 52 bc 5a 3f
       1.0342894 0.88985574 1.1172519 0.85443604
000030 79 21 c5 3f 57 26 68 3f c4 88 03 40 b6 32 c6 3f
       1.540084 0.906835 2.0552225 1.5484226
000040 bc e1 4c 3f 5f a5 66 3f 8a 5b 78 3f 54 6f a4 3f
       0.80031943 0.90096086 0.9701468 1.2846475

bias f4 [20]
000000 51 90 c3 3e d1 75 d6 3d e1 bc aa 3d b9 be c8 3e
       0.38196042 0.104716904 0.08336807 0.3920801
000010 99 be 0b 3e 55 af 3c 3a 00 b8 42 3e 71 60 8e 3d
       0.13646926 0.00071977574 0.19015503 0.069519885
000020 e9 eb 21 3e 7e f4 2c be cc 56 8f 3e af 94 0f be
       0.15812649 -0.16890141 0.27995908 -0.14021562
000030 c0 b5 77 3e 3b 96 9e bd cc f9 95 3e c9 b0 86 3e
       0.24190426 -0.07743498 0.29292142 0.2630675
000040 cc 1b 5c be 4a 50 ca bd 10 9b 51 3e b4 ec 42 3e
       -0.21494979 -0.09878595 0.20469308 0.19035608

running_mean f4 [20]
000000 71 0a 9c be 5e 56 68 bd e0 24 86 be 1b 1c 70 3e
       -0.30476716 -0.05672299 -0.26200008 0.23448221
000010 ed 48 e8 3e ae ba 90 3c 1d d4 0a 3e 20 72 cd be
       0.45368138 0.01766714 0.13557477 -0.40126133
000020 45 bb aa be 3a 05 a3 3e f9 62 6d 3e 08 9f 0d be
       -0.33346 0.31839925 0.23182286 -0.13830197
000030 c1 a6 36 be 20 b1 17 3d 04 bd 1a 3e 8e 18 fa bd
       -0.17837049 0.037034154 0.15111166 -0.12211715
000040 8f 4c 17 3f 1d 70 0b 3d 32 2f 64 be 36 63 ba 3e
       0.59101194 0.034042466 -0.22283629 0.36403817

running_var f4 [20]
000000 72 29 39 3c 8e c9 29 3d 52 ff 2d 3d 7f 4a 13 3c
       0.011301385 0.041451983 0.04247982 0.008989929
000010 dd 8c e5 3d 02 25 2a 3c fa 69 b4 3d a2 ef 06 3f
       0.11208508 0.0103848 0.08809276 0.527094
000020 5d 91 91 3d 15 2c 00 3e c5 99 13 3d 58 01 e0 3d
       0.07107804 0.12516816 0.036035318 0.10937756
000030 fa a4 7f 3e f2 d2 86 3c 75 a6 3d 3c fd 5a 76 3c
       0.24965277 0.016458008 0.011575331 0.015036342
000040 85 f8 cf 3e b9 43 0a 3f 94 d0 03 3e b5 8b b6 3d
       0.40619293 0.54009587 0.12872535 0.08913366

weight f4 [2, 20]
000000 9d 32 5f 3f 7c 92 1c 3f e6 44 13 3f b5 b3 ec be
       0.87186605 0.6116102 0.57527006 -0.46230856
000010 09 ee f2 bd f0 2a f8 be e8 c3 bd 3e a6 94 8b 3e
       -0.11861808 -0.4847026 0.37063527 0.27261847
000020 32 df 15 be 67 83 a0 3e 3c ba ff be 65 5a 99 3e
       -0.14635924 0.31350252 -0.49946773 0.29951778
000030 43 24 57 3f 73 43 62 3d 32 9f c8 be 9b 13 1c 3f
       0.84039706 0.055240106 -0.39183956 0.60967416
000040 8a 1c 8f be 08 26 26 3e b1 35 6a be f9 1b 42 3f
       -0.2795146 0.16225445 -0.22872044 0.7582393
000050 6c 14 c5 bd 25 aa 19 bf 99 55 19 be 28 99 08 3f
       -0.09623036 -0.60025245 -0.14974059 0.533587
000060 79 60 49 bf 4f 15 13 3f 00 33 b4 be fd 6e 16 bf
       -0.7866283 0.5745439 -0.3519516 -0.58763105
000070 ec 20 60 3e 88 a2 91 3e dd 81 a5 3d f2 f0 a0 3e
       0.21887559 0.28444314 0.0808141 0.31433827
000080 be 77 93 3d d7 ee e5 bd 10 2b 47 3f 59 9d f3 be
       0.072005734 -0.11227196 0.77800083 -0.47580984
000090 34 6f 38 3e ee 6c 55 3d be 6f 86 3e 8f 41 48 bf
       0.1801117 0.052105837 0.26257128 -0.78225034

bias f4 [2]
000000 2c f0 5d 3d fc 5b 0c 3e
       0.054184124 0.13706964
