dataset/ppi2/0.003_1000/model.pth (torch, 58990 bytes, 20 tensors)

bias f4 [60]
-0.036133535 -0.08032431 0.070590824 -0.025764177 -0.0039378796 0.025321938 0.05520272 0.042480666
-0.076895215 0.01949206 0.014935163 -0.05918607 -0.16676569 0.047352437 -0.0003006364 -0.04379761
0.1623514 0.029736148 0.0059942985 -0.0042520044 0.0012295793 -0.056847468 0.08304208 0.12400757
-0.0031316548 -0.07679246 -0.007435859 0.06629831 0.07102475 0.19263028 0.07345019 -0.016588833
0.026127303 -0.058448967 -0.033924792 0.031356126 0.08951233 0.117973834 -0.0008853638 -0.0013269028
-0.052932095 0.09347276 -0.092921965 -0.058202572 -0.070667565 0.26506054 0.21079183 0.091407254
0.0417934 0.07374599 -0.020445237 0.02574401 -0.20706454 0.06775754 0.08175132 0.11317121
0.09595338 0.043327183 -0.22214411 -0.061029032
00000000: c200 14bd 1281 a4bd ec91 903d 650f d3bc
00000010: 5409 81bb f46f cf3c 3f1c 623d 3500 2e3d
00000020: 3d7b 9dbd d0ad 9f3c 9db2 743c 186d 72bd
00000030: a0c4 2abe a1f4 413d bc9e 9db9 1f65 33bd
00000040: 723f 263e 3999 f33c d26b c43b 6654 8bbb
00000050: d629 a13a e4d8 68bd f711 aa3d aef7 fd3d
00000060: 733c 4dbb 5e45 9dbd 82a8 f3bb 69c7 873d
00000070: 6d75 913d df40 453e 0e6d 963d 4ee5 87bc
00000080: ed08 d63c 2f68 6fbd b9f4 0abd 486f 003d
00000090: 3e52 b73d 449c f13d c217 68ba 78eb adba
000000a0: 53cf 58bd a56e bf3d df4d bebd d265 6ebd
000000b0: 28ba 90bd 04b6 873e d0d9 573e ba33 bb3d
000000c0: 8e2f 2b3d 2308 973d c57c a7bc 1ae5 d23c
000000d0: ba08 54be 77c4 8a3d 3c6d a73d 4fc6 e73d
000000e0: 3583 c43d d877 313d bf79 63be 94f9 79bd

weight f4 [60, 50]
-0.04174241 0.43266207 -0.5763694 0.6848913 0.25621998 -0.059098344 -0.60632306 0.014591531
0.020900354 -0.1413293 0.001869682 0.22368152 -0.6110375 -0.08967868 0.14629473 -0.028850984
-0.055413216 -0.55076176 0.14635818 -0.72202176 -0.03075353 -0.03713111 -0.044734996 0.07570438
-0.3208319 -0.052574426 0.4499552 -1.3331196 -0.2632286 -0.37759522 -0.17786944 -0.23306371
0.04463325 -0.3903561 -0.2309095 -0.32457885 -0.5308363 0.29522106 -0.77997947 -0.37182733
-0.09820157 0.13266213 -0.1283111 -0.017640708 -0.26397023 -0.23112977 0.4124645 0.52242994
0.23418765 0.07252179 -0.10229047 -0.38035622 0.2598429 0.24971464 0.14226063 0.18371296
-0.021287808 -0.312477 0.1359658 -0.5148957 -0.07364128 -0.68794626 -0.36560085 -0.5012484
0.10465405 -0.31376463 0.116434224 0.08755481 -0.052373573 -0.15019394 0.3059721 0.18620244
-0.017192272 -0.012218886 -1.035812 0.019764964 -0.8120576 -0.9608037 -0.22953156 -0.7455836
-0.116520144 -0.140881 0.23788492 0.24470572 -0.1395474 -0.46655607 0.237104 0.21892354
-0.046301693 0.43035161 0.48080495 -0.025342615 0.12091387 0.05724661 -0.20820159 0.23968725
0.09808452 0.25862142 0.027682923 0.37169212 -0.03723263 0.20804195 -0.020030081 0.14675769
0.019521631 -0.36388102 -0.22675303 0.024623463 -0.21257633 0.019195203 0.114707015 -0.24099694
0.09110963 -0.12440175 0.6780389 0.24610059 -0.26944962 -0.04368086 -0.11719328 0.41869062
-0.51015157 0.45800966 0.0073731616 0.08205346 0.23165548 0.2979756 -0.055171512 0.1641164
0.30258104 -0.13470574 0.21368892 -0.25220805 0.2340084 0.25527886 0.15211086 -0.045356512
-0.18554893 0.30250254 -0.02642333 -0.20460482 -0.7726646 0.98841155 -0.552886 0.35242718
-0.067890935 -0.077588044 -0.2641238 0.30336332 -0.048691697 0.10050422 -0.38546523 0.21618143
-0.26289627 -0.074801564 0.13477415 0.16745114 -0.33003253 -0.07329922 0.0020818883 -0.8035397
0.022988861 -0.3080749 0.0540055 0.18443687 -0.13568507 0.12429694 -0.18956028 -0.03799136
0.2774577 0.262085 -0.10573884 -1.1520222 -0.09730777 0.47953898 -0.19501708 0.18913902
-0.37573987 -1.0847412 0.50006366 0.26458672 0.12705219 0.11702452 0.15086792 0.16573605
0.16518807 0.38587993 -0.15578492 -0.13361476 -0.10862649 0.33212948 -0.3848337 -0.31906635
0.2558098 -0.3407916 -0.14664869 -0.4307592 0.2844101 -0.04755473 -0.4403529 -0.6372522
0.0133836735 -0.03144942 0.08042201 -0.87927586 -0.07870918 -0.08047009 0.22634917 -0.18088166
0.24362406 0.039455947 0.15315464 0.21595284 0.042377666 -0.208971 0.8048874 0.07015167
0.22012606 0.046070226 0.0014672496 -0.14335966 0.35253388 0.18750745 -0.714176 0.38604307
0.23451625 0.18083665 -0.847452 -0.122099355 0.03607767 -0.134772 -0.51808023 -0.022075688
0.55210894 0.50158125 0.12619394 0.09922036 -0.46262154 0.0014755046 -0.4372042 0.505911
0.17796989 0.20008834 -0.57947403 0.19599226 -0.33789164 0.11825373 0.07863175 -0.1085745
0.33021188 0.6437 -0.12829821 -0.39524776 -0.36252242 0.21252884 0.14733665 0.1902752
00000000: 17fa 2abd e285 dd3e f28c 13bf 0955 2f3f
00000010: 442f 833e 1b11 72bd fd37 1bbf 5111 6f3c
00000020: 3837 ab3c a1b8 10be 1e10 f53a c50c 653e
00000030: f46c 1cbf 75a9 b7bd 49ce 153e e658 ecbc
00000040: f8f8 62bd b9fe 0cbf ebde 153e 6bd6 38bf
00000050: d4ee fbbc ca16 18bd 0b3c 37bd e60a 9b3d
00000060: 1444 a4be 4858 57bd 8760 e63e aaa3 aabf
00000070: e6c5 86be 2954 c1be 6823 36be 41a8 6ebe
00000080: 5bd1 363d c1dc c7be 8a73 6cbe 332f a6be
00000090: e3e4 07bf 3727 973e bcac 47bf 2760 bebe
000000a0: e81d c9bd 95d8 073e fc63 03be 3f83 90bc
000000b0: 1b27 87be 48ad 6cbe 8c2e d33e f8bd 053f
000000c0: e3ce 6f3e 4e86 943d aa7d d1bd 0dbe c2be
000000d0: 210a 853e 32b5 7f3e c5ac 113e 401f 3c3e
000000e0: c563 aebc fcfc 9fbe 9e3a 0b3e 34d0 03bf
000000f0: 3dd1 96bd 3f1d 30bf 0930 bbbe d151 00bf
00000100: dd54 d63d c2a5 a0be 1175 ee3d f04f b33d
00000110: ac85 56bd 71cc 19be 60a8 9c3e daab 3e3e
00000120: cfd6 8cbc b931 48bc 7d95 84bf 22ea a13c
00000130: 02e3 4fbf 3bf7 75bf 520a 6bbe 91de 3ebf
00000140: 1da2 eebd 1c43 10be 1b98 733e 2394 7a3e
00000150: 83e5 0ebe 70e0 eebe 64cb 723e 7e2d 603e
00000160: d8a6 3dbd 0c57 dc3e 112c f63e 519b cfbc
00000170: b1a1 f73d 6c7b 6a3d cc32 55be 9370 753e
00000180: 89e0 c83d 076a 843e 4cc7 e23c 6e4e be3e
00000190: 3e81 18bd f308 553e 2016 a4bc a647 163e
000001a0: d4eb 9f3c 9d4e babe f231 68be 25b7 c93c
000001b0: 9cad 59be 423f 9d3c 83eb ea3d e7c7 76be
000001c0: b097 ba3d 58c6 febd f593 2d3f cb01 7c3e
000001d0: 4df5 89be b4ea 32bd 0803 f0bd 9e5e d63e
000001e0: 4b99 02bf 3e80 ea3e 909a f13b a50b a83d
000001f0: 1837 6d3e 4290 983e 86fb 61bd 210e 283e
00000200: e7eb 9a3e 4df0 09be 45d1 5a3e 6a21 81be
00000210: e69f 6f3e e9b3 823e f3c2 1b3e c0c7 39bd
00000220: 8a00 3ebe 9de1 9a3e bd75 d8bc ed83 51be
00000230: 59cd 45bf 8a08 7d3f f089 0dbf 5671 b43e
00000240: 670a 8bbd 7be6 9ebd 3c3b 87be 7052 9b3e
00000250: f270 47bd 28d5 cd3d b35b c5be aa5e 5d3e
00000260: 579a 86be 9031 99bd 3c02 0a3e 5078 2b3e
00000270: 06fa a8be e71d 96bd 4a70 083b c7b4 4dbf
00000280: 2353 bc3c febb 9dbe df34 5d3d 05dd 3c3e
00000290: 07f1 0abe 658f fe3d 171c 42be d49c 1bbd
000002a0: f00e 8e3e 0130 863e 9b8d d8bd 7775 93bf
000002b0: 4c49 c7bd 2286 f53e 8fb2 47be a9ad 413e
000002c0: fa60 c0be cdd8 8abf 2c04 003f e977 873e
000002d0: f819 023e 8daa ef3d 1f7d 1a3e b6b6 293e
000002e0: 1027 293e 0e92 c53e 1586 1fbe 4fd2 08be
000002f0: 9177 debd e00c aa3e ec08 c5be aa5c a3be
00000300: 81f9 823e 3d7c aebe 132b 16be 788c dcbe
00000310: 339e 913e c0c8 42bd ef75 e1be f622 23bf
00000320: 3247 5b3c 1bd1 00bd 4bb4 a43d 3918 61bf
00000330: 4732 a1bd 81cd a4bd 14c8 673e 0b39 39be
00000340: 9678 793e 8f9c 213d 92d4 1c3e be22 5d3e
00000350: 3494 2d3d 7efc 55be 1a0d 4e3f aeab 8f3d
00000360: ba68 613e 22b4 3c3d ba50 c03a e0cc 12be
00000370: 527f b43e f401 403e 3dd4 36bf 70a7 c53e
00000380: 0725 703e 3e2d 393e 9df2 58bf 3a0f fabd
00000390: 2ec6 133d ac01 0abe e8a0 04bf 13d8 b4bc
000003a0: 0357 0d3f a167 003f fc38 013e 0b34 cb3d
000003b0: bbdc ecbe b865 c13a 3bd9 dfbe 6283 013f
000003c0: bd3d 363e f5e3 4c3e 6958 14bf 32b2 483e
000003d0: 2200 adbe 032f f23d af09 a13d 4f5c debd
000003e0: 8811 a93e 86c9 243f 9b60 03be ea5d cabe
000003f0: 8a9c b9be 29a1 593e 6bdf 163e 81d7 423e

bias f4 [60]
-0.18116531 -0.1917944 0.14944378 -0.06930395 -0.17107971 -0.11260393 -0.018379962 -0.3435965
-0.024975771 -0.18906909 0.10226365 -0.12881525 -0.065515086 0.050378148 -0.3159476 0.12135002
-0.20915502 0.025536273 0.3171797 0.03151705 0.12299448 0.22227879 -0.07781179 0.048046716
-0.03175078 0.21573687 0.07195887 0.094326146 0.04789054 0.10822602 -0.023836693 0.17726433
0.10436668 -0.16243464 0.02907836 -0.05947709 0.025939649 -0.03449277 0.05845914 0.037727725
0.35183212 0.15377605 -0.09063711 -0.02033438 -0.11575561 -0.054405145 -0.109443605 0.26169732
0.051759243 -0.11969032 -0.12878487 -0.13707684 -0.13324443 0.118217416 0.26532385 -0.048261575
0.18314874 -0.16423646 -0.012890061 0.0749618
00000000: 6683 39be c065 44be ca07 193e 3bef 8dbd
00000010: 852f 2fbe e49c e6bd 9391 96bc e1eb afbe
00000020: fd99 ccbc 549b 41be 9b6f d13d 25e8 03be
00000030: c62c 86bd 5159 4e3d e2c3 a1be 5c86 f83d
00000040: bc2c 56be 7231 d13c 6165 a23e 0618 013d
00000050: 88e4 fb3d 0d9d 633e ca5b 9fbd a2cc 443d
00000060: 1b0d 02bd 20ea 5c3e 2c5f 933d 112e c13d
00000070: df28 443d 9ba5 dd3d 2b45 c3bc c884 353e
00000080: 33be d53d 4455 26be be35 ee3c 409e 73bd
00000090: 637f d43c 4a48 0dbd da72 6f3d 6388 1a3d
000000a0: 5723 b43e 7877 1d3e f39f b9bd 4994 a6bc
000000b0: 4711 edbd eed7 5ebd f823 e0bd 31fd 853e
000000c0: 8001 543d 3320 f5bd 2ee0 03be df5d 0cbe
000000d0: 3a71 08be f91b f23d 87d8 873e eead 45bd
000000e0: 588b 3b3e 9a2d 28be d630 53bc 9285 993d

weight f4 [60, 60]
0.11054165 -0.32926974 -0.5042514 -0.26517862 0.3239914 0.36746943 0.011795056 -0.13073027
0.44785812 0.14720708 -0.069489844 0.112744756 -0.08538684 -0.10242047 -0.6132442 -0.19505413
0.26979548 0.117083654 0.13588893 -0.060919855 -0.18004425 0.013207689 -0.051874224 0.37822887
-0.5635212 0.12672992 0.4489602 0.27785856 -0.22205389 0.059960917 0.05902199 -0.08884644
-0.68176466 0.40143815 -0.17946072 0.49206102 -0.2803799 -0.04443566 -0.7017908 -0.10138509
0.17682815 -0.31954956 -0.2365188 0.10078385 0.03137165 0.349785 -0.06376296 0.055778693
0.07211009 0.056539718 -0.13031998 -0.37542826 -0.08832615 -0.23802234 -0.31501198 0.29105935
0.099090725 -0.14150253 0.08001634 -0.11709385 -0.25563988 -0.27470154 0.38959733 0.28015685
0.29045546 0.24001843 0.578709 0.008817502 -0.16380459 0.30601013 -0.1670817 -0.4331827
0.03195892 -0.43898597 -0.0485834 0.28443977 -0.10144807 0.48607352 -0.32868537 -0.2209665
0.15390266 0.120511524 0.3116984 -0.59505296 0.2822314 0.035257835 -0.34938386 -0.1760215
-0.0022491324 -0.34378514 -0.13425836 0.42300612 -0.1267424 0.13994233 0.44550472 0.11462371
-0.39583194 -0.059925977 -0.02492724 -0.48689663 -0.25590172 0.31468797 -0.18912578 -0.04867248
-0.19536357 0.21366374 0.16736701 0.10848222 -0.2475441 -0.18781804 -0.2740733 -0.19378313
-0.11331828 0.30511644 0.21062607 0.104844525 -0.023411198 0.14304106 -0.54038644 -0.012570079
-0.05307263 0.026840074 0.080060765 0.05997545 0.110562526 -0.516567 0.23101777 0.05540375
0.22419624 -0.18389232 0.12521365 -0.26651788 -0.31221965 -0.03475007 -0.7289932 0.14166172
0.056424767 -0.29188353 -0.017712096 0.18231225 -0.07282739 -0.45202076 -0.45552275 0.14292465
-0.34161985 0.08620075 0.13080959 0.4773915 0.0024091424 0.64334816 -0.63303 -0.46741423
-0.019401593 0.28571725 -0.18051106 0.0831978 -0.09561027 -0.28728095 -0.15789135 -0.5367487
0.17100194 -0.51748794 -0.18938273 0.18099985 0.08251437 0.233857 0.20307977 -0.095298775
-0.20191158 0.23875837 -0.030588921 0.37685192 0.17282416 0.2283203 0.28151602 0.025113152
0.02238045 -0.03168471 -0.29310527 0.31721148 -0.022728274 0.49509838 0.09944694 0.011372396
-0.30224183 0.436732 -0.3442337 0.050064467 -0.36700466 -0.24371165 0.24265558 0.21291326
0.011782469 -0.11403634 -0.016522631 0.11369036 -0.43138185 0.11018554 0.094923265 0.19563778
0.3216619 -0.533687 0.033537075 0.6459605 0.22383091 0.014412981 -0.52259207 -0.40683478
-0.65275115 0.023131356 0.30831376 -0.9726581 0.16148826 0.03651717 0.5625103 0.13973278
-0.7394901 -0.092004634 -0.28515628 0.15168543 -0.6471018 -0.41497505 0.17054547 0.046025217
-0.016314216 0.16407582 -0.32590276 -0.48321033 -0.50387406 0.16497526 0.26969704 -0.3180356
-0.0136027215 0.023955664 -0.09143645 0.29770452 -0.06145108 -0.5457817 -0.031857893 -0.14101472
0.11005805 -0.007876337 -0.0729686 -0.86109024 0.13660921 -0.4605153 0.052790366 0.43864694
0.048963357 -0.12434411 0.57686853 -0.41094857 0.15077908 -0.03917836 -0.061247546 -0.20934793
00000000: a963 e23d 0b96 a8be 9f16 01bf 7ec5 87be
00000010: 33e2 a53e f424 bc3e 0d40 413c 28de 05be
00000020: a94d e53e 74bd 163e b150 8ebd b9e6 e63d
00000030: 4cdf aebd d3c1 d1bd 92fd 1cbf 45bc 47be
00000040: a222 8a3e 8ec9 ef3d 7826 0b3e 1987 79bd
00000050: 855d 38be 1065 583c 117a 54bd 37a7 c13e
00000060: ed42 10bf 7dc5 013e 1dde e53e 7a43 8e3e
00000070: 1862 63be 9499 753d 0bc1 713d 1ff5 b5bd
00000080: 2188 2ebf 4d89 cd3e 8dc4 37be 6cef fb3e
00000090: f48d 8fbe 2b02 36bd 90a8 33bf fca2 cfbd
000000a0: 7012 353e 009c a3be fc31 72be c367 ce3d
000000b0: 8f7f 003d 0517 b33e 2896 82bd 3378 643d
000000c0: 74ae 933d 3196 673d 9a72 05be 2238 c0be
000000d0: 57e4 b4bd 21bc 73be 4049 a1be bb05 953e
000000e0: 14f0 ca3d 0ae6 10be 9bdf a33d e7ce efbd
000000f0: 3be3 82be aea5 8cbe 4d79 c73e b870 8f3e
00000100: 94b6 943e 64c7 753e 4626 143f 4977 103c
00000110: 64bc 27be 5cad 9c3e 7717 2bbe 1fca ddbe
00000120: 5be7 023d c5c2 e0be 63ff 46bd 17a2 913e
00000130: 01c4 cfbd a1de f83e 7349 a8be 0b45 62be
00000140: a998 1d3e bfce f63d ef96 9f3e 6455 18bf
00000150: a280 903e 856a 103d 71e2 b2be fb3e 34be
00000160: 2e66 13bb 9b04 b0be 067b 09be 4294 d83e
00000170: c2c8 01be 0b4d 0f3e 3219 e43e d6bf ea3d
00000180: 7caa cabe f174 75bd 3634 ccbc 844a f9be
00000190: 8d05 83be c81e a13e 30aa 41be cb5c 47bd
000001a0: 630d 48be abca 5a3e 4262 2b3e ed2b de3d
000001b0: 337c 7dbe 5f53 40be 5653 8cbe 166f 46be
000001c0: 6a13 e8bd 3938 9c3e 5cae 573e bab8 d63d
000001d0: d7c8 bfbc 5b79 123e c456 0abf bcf2 4dbc
000001e0: b062 59bd b7df db3c e6f6 a33d d1a8 753d
000001f0: 9b6e e23d bc3d 04bf ec8f 6c3e 0bef 623d
00000200: b393 653e 454e 3cbe 0238 003e 0875 88be
00000210: 41db 9fbe 1756 0ebd 4c9f 3abf c50f 113e
00000220: a81d 673d c271 95be f518 91bc 10b0 3a3e
00000230: 8726 95bd 446f e7be 473a e9be d75a 123e
00000240: cce8 aebe 058a b03d f3f2 053e a96c f43e
00000250: b4e2 1d3b 77b2 243f 410e 22bf eb50 efbe
00000260: 17f0 9ebc 8849 923e e4d7 38be 9c63 aa3d
00000270: 51cf c3bd 7d16 93be 45ae 21be 5d68 09bf
00000280: 221b 2f3e 177a 04bf 8ced 41be 0658 393e
00000290: 4bfd a83d 3678 6f3e 25f4 4f3e 012c c3bd
000002a0: e9c1 4ebe 137d 743e 9e95 fabc bcf2 c03e
000002b0: d1f8 303e cccc 693e de22 903e 19ba cd3c
000002c0: 3557 b73c d4c7 01bd e511 96be 8b69 a23e
000002d0: a530 babc 897d fd3e d6aa cb3d 4953 3a3c
000002e0: 71bf 9abe 569b df3e 663f b0be 6610 4d3d
000002f0: 09e8 bbbe 8c8f 79be b47a 783e ef05 5a3e
00000300: 420b 413c e28b e9bd 785a 87bc 7ed6 e83d
00000310: 15de dcbe f5a8 e13d 2167 c23d 4555 483e
00000320: deb0 a43e b69f 08bf 2c5e 093d ab5d 253f
00000330: ee33 653e 6d24 6c3c 98c8 05bf a64c d0be
00000340: b31a 27bf f87d bd3c 4ddb 9d3e 1f00 79bf
00000350: 2e5d 253e 0793 153d ad00 103f 1c16 0f3e
00000360: 394f 3dbf ed6c bcbd 0100 92be 6d53 1b3e
00000370: 77a8 25bf 9c77 d4be 79a3 2e3e f084 3c3d
00000380: 64a5 85bc 7e03 283e badc a6be 5867 f7be
00000390: e4fd 00bf 46ef 283e bb15 8a3e 90d5 a2be
000003a0: f3dd 5ebc ab3e c43c 0943 bbbd ba6c 983e
000003b0: 21b4 7bbd 59b8 0bbf 6c7d 02bd 2a66 10be
000003c0: 1d66 e13d c00b 01bc 9070 95bd 6970 5cbf
000003d0: 49e3 0b3e a9c8 ebbe b63a 583d 5596 e03e
000003e0: cd8d 483d 20a8 febd a8ad 133f da67 d2be
000003f0: d565 1a3e 7d79 20bd b5de 7abd 4e5f 56be

bias f4 [60]
0.16194914 -0.079171136 -0.011779222 0.027684975 0.16021232 -0.13672596 -0.090247 -0.101643786
0.18094014 0.050341304 -0.041749634 0.029885406 0.13950783 0.18259451 0.22591344 0.086570755
0.00091402675 0.16568987 0.06779396 -0.111289464 0.20480087 -0.038971033 0.10073785 0.08281139
0.03949706 0.069621444 0.033551995 -0.027155846 0.13099456 0.026648747 -0.02023327 0.13010466
-0.08756073 -0.16243802 0.15448047 -0.05689588 0.047173172 0.061744805 -0.19679812 0.054349683
0.20343389 0.06704106 0.07677893 0.1221679 0.12933761 0.06951939 0.21017218 0.07390151
0.091035984 -0.068842895 -0.063144915 0.10251113 0.17859411 0.167709 0.092904605 0.041012466
0.093624085 0.06783256 0.13386817 0.036859438
00000000: ffd5 253e 7a24 a2bd a3fd 40bc 9acb e23c
00000010: b30e 243e e401 0cbe 6bd3 b8bd 9e2a d0bd
00000020: 5f48 393e af32 4e3d aa01 2bbd 3dd2 f43c
00000030: 24db 0e3e 0efa 3a3e da55 673e 024c b13d
00000040: 4c9b 6f3a 9baa 293e 8fd7 8a3d bbeb e3bd
00000050: 52b7 513e 17a0 1fbd a54f ce3d 0599 a93d
00000060: abc7 213d b095 8e3d d16d 093d f075 debc
00000070: 7023 063e 794e da3c 3ec0 a5bc 283a 053e
00000080: 0a53 b3bd 2756 26be 2130 1e3e a70b 69bd
00000090: a838 413d 1fe8 7c3d 7285 49be c69d 5e3d
000000a0: f950 503e d34c 893d 463e 9d3d 2a33 fa3d
000000b0: 1471 043e 2f60 8e3d 6037 573e ad59 973d
000000c0: 1371 ba3d 81fd 8cbd 1f52 81bd 5bf1 d13d
000000d0: 60e1 363e e8bb 2b3e c544 be3d b0fc 273d
000000e0: fcbd bf3d cceb 8a3d bd14 093e ecf9 163d

weight f4 [60, 60]
0.14366505 -0.08175911 0.09677245 0.17220572 -0.029399492 -0.19782934 0.014678734 -0.12097713
0.3269419 0.16032462 -0.115042664 0.6099045 0.4549753 -0.543528 0.20413464 -0.09737873
-0.24240223 -0.33026528 0.20812145 0.11670049 0.054940823 -0.22253789 -0.7330655 0.31687725
0.10270317 -0.18205783 -0.7007091 -0.09075065 0.17683001 -0.21222025 -0.5095002 0.13113426
-0.4228864 0.21970282 -0.26353845 0.21774188 -0.26111594 0.22933245 -0.21445794 0.38735595
0.6213899 -0.14953448 0.19323976 -0.43988493 0.051493715 -0.13253342 -0.24783863 0.16131364
0.06275567 -0.35373557 -0.5392857 -0.29667094 -0.57209784 0.1719358 0.16443633 -0.1523965
0.29243895 -0.052072864 0.029013706 0.38987702 -0.73870397 -0.1769192 -0.14785871 0.3804975
0.6013774 -0.29822934 -0.3062434 -0.2580558 0.9089573 0.26809758 0.11218673 0.27299026
0.09880474 -0.6359627 0.014620018 0.25667766 -0.16705754 0.028277881 -0.025042595 0.34313896
-0.08004431 0.37799302 0.08448789 -0.36962613 -0.021394651 0.048439298 -0.30985534 -0.086116225
-0.16933548 -0.060185432 -0.28560346 0.33403698 -0.064289406 -0.165283 -0.7036829 -0.17187819
0.030008102 0.07653622 0.43035328 -0.5473414 -0.37333852 -0.29356322 0.4078184 -0.22186099
-0.032192435 0.07921572 -0.39278695 -0.17845127 0.042566687 -0.22504677 0.20600186 0.23225027
0.094912276 -0.48777807 0.21835282 0.0010556486 -0.09408239 0.17981216 0.030639073 0.58390826
-0.09321926 -0.08506296 -0.46350023 -0.14383613 0.24776952 -0.15062454 -0.5169413 0.2860236
0.04862253 -0.2621211 -0.34225646 -0.32271895 0.007846517 -0.22339751 -0.27331558 -0.018474681
-0.15412812 0.14578663 0.46026462 0.31022644 -0.11310231 0.408094 0.024842527 -0.12273178
-0.24158446 0.23453934 -0.2932314 -0.22675982 -0.096351005 0.52601236 -0.098602965 -0.26764467
0.15908134 -0.55324167 -0.8633225 -0.5156898 0.437958 0.083307765 0.24096018 0.11730763
0.47884566 -1.0778452 0.42885834 -0.97419524 -0.0014232728 -0.64759934 0.44235575 -0.54018533
0.32333037 -0.20886466 -0.022217501 0.02677308 -0.34936294 -0.15393966 0.123283334 0.2434214
-0.28799087 0.36894464 0.08340629 0.2513054 -0.0823754 -0.16650918 0.050255295 0.15975511
0.010098141 -0.22160484 -0.03474193 -0.006913486 0.2094625 0.15618554 -0.3447361 -0.7588308
-0.32041833 0.57965547 0.3597465 -1.0029235 -0.14437301 -0.2854739 -0.36260843 0.15792961
0.18595816 -0.16464292 0.08244961 -0.028171541 -0.122840814 -0.0029817072 0.27712908 -0.22595118
-0.09152446 -0.39175248 -0.7040462 0.26046917 0.0012345539 0.23167205 -0.32830095 0.37457076
-0.37990314 -0.25197276 0.33127543 0.0659312 -0.38381848 0.2537649 0.49962255 0.10498354
0.5032111 0.06808952 -0.39479277 0.36786577 -0.23867238 0.29821092 0.076028004 0.14275134
0.0069099795 -0.019116728 -0.35448048 -0.08325573 -0.09701948 0.36429706 -0.16359392 0.11074864
0.10306678 -0.123261034 0.020807017 0.18905757 0.04549716 -0.012351955 0.34797567 -0.048793327
0.29903895 -0.24128479 0.030173726 0.41133 -0.10221858 -0.1676404 0.05296483 -0.43852067
00000000: ee1c 133e 5271 a7bd a230 c63d b256 303e
00000010: 34d7 f0bc c693 4abe 137f 703c dcc2 f7bd
00000020: ee64 a73e 232c 243e 7d9b ebbd b422 1c3f
00000030: 86f2 e83e a724 0bbf ac08 513e 806e c7bd
00000040: 4a38 78be 8818 a9be ca1d 553e ab00 ef3d
00000050: a109 613d f9e0 63be 2eaa 3bbf bc3d a23e
00000060: 0a56 d23d 5e6d 3abe ac61 33bf 7adb b9bd
00000070: ed12 353e 4450 59be 9b6e 02bf 0f48 063e
00000080: 9184 d8be c7f9 603e 83ee 86be baf7 5e3e
00000090: fdb0 85be 20d6 6a3e dd9a 5bbe 8553 c63e
000000a0: 6913 1f3f 911f 19be a5e0 453e 9938 e1be
000000b0: 13eb 523d d7b6 07be 69c9 7dbe 672f 253e
000000c0: 0b86 803d d41c b5be a10e 0abf 41e5 97be
000000d0: 0175 12bf f00f 303e ff61 283e d40d 1cbe
000000e0: 8fba 953e 5b4a 55bd 27ae ed3c f69d c73e
000000f0: b41b 3dbf 4f2a 35be 4668 17be 91d0 c23e
00000100: dff3 193f 84b1 98be efcb 9cbe e41f 84be
00000110: 6db1 683f 1644 893e 28c2 e53d 61c5 8b3e
00000120: 245a ca3d 74ce 22bf cd88 6f3c 416b 833e
00000130: 2211 2bbe 04a7 e73c 2126 cdbc e9af af3e
00000140: 45ee a3bd 4d88 c13e fd07 ad3d a33f bdbe
00000150: d643 afbc 4968 463d 5ca5 9ebe b45d b0bd
00000160: 4866 2dbe 0085 76bd 9e3a 92be e506 ab3e
00000170: 2aaa 83bd f23f 29be 9024 34bf d600 30be
00000180: 8dd3 f53c 06bf 9c3d 4457 dc3e 911e 0cbf
00000190: 3a26 bfbe eb4d 96be 93cd d03e 872f 63be
000001a0: 37dc 03bd da3b a23d 5f1b c9be eebb 36be
000001b0: 685a 2e3d a972 66be 27f2 523e 04d3 6d3e
000001c0: 5e61 c23d 0cbe f9be e297 5f3e b05d 8a3a
000001d0: 45ae c0bd ae20 383e cbfe fa3c 037b 153f
000001e0: bde9 bebd 7d35 aebd e74f edbe c749 13be
000001f0: 4bb7 7d3e 523d 1abe 4456 04bf af71 923e
00000200: 6b28 473d bd34 86be 3d3c afbe 6b3b a5be
00000210: ad8e 003c 51c2 64be 05f0 8bbe 3758 97bc
00000220: c3d3 1dbe 1749 153e cea7 eb3e 00d6 9e3e
00000230: 2fa2 e7bd b2f1 d03e 8e82 cb3c cd5a fbbd
00000240: eb61 77be 152b 703e 6d22 96be ba33 68be
00000250: ad53 c5bd bfa8 063f 5af0 c9bd b908 89be
00000260: 38e6 223e 3fa1 0dbf b402 5dbf 3f04 04bf
00000270: 083c e03e 439d aa3d 44be 763e fc3e f03d
00000280: 422b f53e d5f6 89bf 5293 db3e dc64 79bf
00000290: 1c8d baba 12c9 25bf 747c e23e 9649 0abf
000002a0: 8f8b a53e 9ee0 55be 7a01 b6bc 3853 db3c
000002b0: b3df b2be 5ca2 1dbe f97b fc3d 7643 793e
000002c0: 8a73 93be 50e6 bc3e ebd0 aa3d 1aab 803e
000002d0: 6fb4 a8bd 6281 2abe 7fd8 4d3d d896 233e
000002e0: ac72 253c 61ec 62be 8e4d 0ebd 868a e2bb
000002f0: 567d 563e 1aef 1f3e 4081 b0be bc42 42bf
00000300: df0d a4be 4d64 143f b130 b83e cc5f 80bf
00000310: 85d6 13be a329 92be d0a7 b9be 4db8 213e
00000320: d16b 3e3e 2798 28be 57db a83d 01c8 e6bc
00000330: f793 fbbd bf68 43bb dde3 8d3e bf5f 67be
00000340: 2d71 bbbd c893 c8be 5f3c 34bf 375c 853e
00000350: c1d0 a13a 703b 6d3e 1017 a8be bdc7 bf3e
00000360: aa82 c2be 9302 81be ef9c a93e f006 873d
00000370: db83 c4be 79ed 813e 87ce ff3e 9c01 d73d
00000380: 71d2 003f 8572 8b3d 4722 cabe e758 bc3e
00000390: 8866 74be 1aaf 983e 92b4 9b3d 682d 123e
000003a0: 1c6d e23b af9a 9cbc 777e b5be fb81 aabd
000003b0: 26b2 c6bd 2585 ba3e 2a85 27be 2fd0 e23d
000003c0: ad14 d33d 4870 fcbd 7a73 aa3c 4f98 413e
000003d0: 3b5b 3a3d db5f 4abc de29 b23e 83db 47bd
000003e0: a21b 993e 5c13 77be e42e f73c d999 d23e
000003f0: fa57 d1bd eda9 2bbe a6f1 583d c885 e0be

weight f4 [60]
1.5107635 1.3720447 1.3427811 1.4065862 1.3137112 1.3816116 1.2946757 1.297246
1.2531046 1.1574106 1.5492873 1.408279 1.3463471 1.3877226 1.5112476 1.3217503
1.4096417 1.3378258 1.4164304 1.290642 1.3392323 1.320153 1.1314555 1.3199542
1.1811111 1.4622029 1.2678857 1.1832881 1.431158 1.4664367 1.3383785 1.1663098
1.2890729 1.3582573 1.4910109 1.6901349 1.2565936 1.4727911 1.461922 1.2021818
1.276839 1.3307781 1.3356434 1.4876004 1.4486377 1.5530734 1.3814806 1.3450421
1.423987 1.4813889 1.1052521 1.2941946 1.3639547 1.2445267 1.2726835 1.4435847
1.367261 1.5893246 1.3754557 1.2748511
00000000: b360 c13f 299f af3f 40e0 ab3f 040b b43f
00000010: b027 a83f a6d8 b03f efb7 a53f 280c a63f
00000020: bb65 a03f 0826 943f 0c4f c63f 7c42 b43f
00000030: 1a55 ac3f e5a0 b13f 9070 c13f 1d2f a93f
00000040: 246f b43f e03d ab3f 974d b53f c233 a53f
00000050: f76b ab3f c6fa a83f 89d3 903f 42f4 a83f
00000060: a62e 973f 7729 bb3f 144a a23f fc75 973f
00000070: 2f30 b73f 33b4 bb3f fd4f ab3f a449 953f
00000080: 5700 a53f 60db ad3f 72d9 be3f 5756 d83f
00000090: 0fd8 a03f 6b84 bc3f 4320 bb3f 18e1 993f
000000a0: 766f a33f f056 aa3f 5df6 aa3f b169 be3f
000000b0: f66c b93f 1ccb c63f 5bd4 b03f 572a ac3f
000000c0: 3545 b63f 279e bd3f e778 8d3f 2ba8 a53f
000000d0: 1196 ae3f a74c 9f3f 4be7 a23f 62c7 b83f
000000e0: 6902 af3f fd6e cb3f ef0e b03f 522e a33f

bias f4 [60]
0.22670475 -0.16303095 -0.21328653 0.082024895 0.22840285 -0.0683637 0.07571376 -0.3387931
-0.04990179 0.085076354 -0.09842357 -0.016934436 0.1695933 -0.17035753 -0.46340322 -0.3075236
-0.14545111 -0.43412906 -0.10697079 0.46149707 -0.24276058 0.19165894 -0.32061476 -0.12339489
-0.33612448 -0.14861862 -0.2694279 0.14553633 -0.060384285 -0.11896662 -0.40292513 -0.38225672
-0.3702335 0.19675758 0.25303394 -0.12807319 -0.028238473 -0.16580379 -0.18532605 -0.52402097
-0.51674235 -0.34903336 0.16207065 -0.06097014 -0.27679494 0.23648821 -0.18189931 0.022018548
-0.25598398 -0.09376347 -0.3504882 -0.26238284 -0.21708554 0.10436894 -0.07843747 0.03642145
0.04646327 -0.32714772 -0.35649228 -0.023624117
00000000: 4a25 683e 96f1 26be c967 5abe abfc a73d
00000010: 70e2 693e 4402 8cbd d10f 9b3d 4a76 adbe
00000020: d265 4cbd 833c ae3d 4c92 c9bd 16ba 8abc
00000030: dea9 2d3e 3472 2ebe 3043 edbe bc73 9dbe
00000040: 23f1 14be 2a46 debe 8013 dbbd 5849 ec3e
00000050: 3b96 78be 3e42 443e 9e27 a4be 76b6 fcbd
00000060: 8218 acbe 7b2f 18be 74f2 89be 7a07 153e
00000070: 8355 77bd c5a4 f3bd 344c cebe 27b7 c3be
00000080: 3f8f bdbe d27a 493e aa8d 813e 9e25 03be
00000090: 5f54 e7bc 78c8 29be 1dc6 3dbe 3d26 06bf
000000a0: 3a49 04bf 80b4 b2be d9f5 253e d3bb 79bd
000000b0: 11b8 8dbe f729 723e d043 3abe 3e60 b43c
000000c0: 5510 83be 1007 c0bd 3073 b3be 0b57 86be
000000d0: ac4b 5ebe 62bf d53d d3a3 a0bd a92e 153d
000000e0: 4550 3e3d e87f a7be 2886 b6be 5d87 c1bc

running_mean f4 [60]
-0.06472254 -0.021583632 0.052625295 -0.038414408 0.019004399 0.026638478 0.05883992 0.02312137
-0.06993947 -0.00061141734 0.009379269 -0.095257804 -0.15969883 0.041622512 -0.015863616 -0.01425759
0.1663384 0.0046256627 -0.04997663 0.011928007 0.034046955 -0.082084455 0.073584035 0.13734725
-0.043389473 -0.08889593 -0.015021791 0.041740622 0.008588389 0.21601959 0.0832972 -0.0021399858
-0.006453872 -0.035514362 -0.03118656 0.027137663 0.097623155 0.13959849 -0.045474816 -0.035773043
-0.10806179 0.09170054 -0.12313065 -0.09324162 -0.08204893 0.24465276 0.23441212 0.13449518
0.025443992 0.0067606885 -0.030513082 0.016502347 -0.18132582 0.075803325 0.09805388 0.07245068
0.106784575 0.043813765 -0.22991066 -0.037748065
00000000: 408d 84bd 28d0 b0bc 9f8d 573d 6d58 1dbd
00000010: 1daf 9b3c f038 da3c 2102 713d 0769 bd3c
00000020: 6d3c 8fbd 8647 20ba 81ab 193c 8616 c3bd
00000030: 1788 23be 5e7c 2a3d 6af4 81bc ab98 69bc
00000040: 9d54 2a3e df92 973b 4bb4 4cbd b06d 433c
00000050: d274 0b3d e51b a8bd 3ab3 963d c2a4 0c3e
00000060: 29b9 31bd 120f b6bd f51d 76bc 37f8 2a3d
00000070: 50b6 0c3c 3d34 5d3e b997 aa3d 013f 0cbb
00000080: 017b d3bb 8277 11bd f57a ffbc ce4f de3c
00000090: a6ee c73d e8f2 0e3e cd43 3abd c186 12bd
000000a0: 804f ddbd 7ecd bb3d ec2b fcbd 76f5 bebd
000000b0: 4509 a8bd 4186 7a3e bb09 703e 1bb9 093e
000000c0: eb6f d03c c488 dd3b 92f6 f9bc ee2f 873c
000000d0: 7aad 39be c63e 9b3d 79d0 c83d 0661 943d
000000e0: dfb1 da3d 1076 333d b36d 6bbe b79d 1abd

running_var f4 [60]
0.39863044 0.2874177 0.21601635 0.32082555 0.28282115 0.24990949 0.20041712 0.21032877
0.3570392 0.2773591 0.29164502 0.2821271 0.29467806 0.23450758 0.43672585 0.33065844
0.29903343 0.25757116 0.41430017 0.31652153 0.26736552 0.27338392 0.22169605 0.23690759
0.3741415 0.310456 0.2418287 0.33264792 0.5095066 0.2725851 0.2529116 0.34055358
0.29468098 0.24305144 0.27400136 0.2718704 0.29594445 0.2936085 0.33939952 0.31713167
0.36598873 0.32379192 0.25422016 0.25782752 0.2405346 0.22057676 0.20206487 0.2502047
0.30331334 0.4106535 0.21744496 0.26356775 0.21162936 0.3011051 0.3063507 0.24981916
0.32032245 0.24800204 0.29728293 0.26555052
00000000: 4a19 cc3e 6a28 933e 6433 5d3e 3f43 a43e
00000010: efcd 903e 46e8 7f3e 253a 4d3e 6d60 573e
00000020: d8cd b63e 0302 8e3e 7f52 953e f772 903e
00000030: 0be0 963e c122 703e 889a df3e 104c a93e
00000040: e91a 993e 5ee0 833e 271f d43e 1c0f a23e
00000050: 22e4 883e faf8 8b3e 4a04 633e e797 723e
00000060: 7a8f bf3e 17f4 9e3e f1a1 773e d450 aa3e
00000070: 066f 023f 4690 8b3e a17d 813e 0a5d ae3e
00000080: 6de0 963e 7ae2 783e e849 8c3e 9932 8b3e
00000090: 0886 973e da53 963e c6c5 ad3e 155f a23e
000000a0: e062 bb3e 0ec8 a53e 2529 823e f801 843e
000000b0: b44e 763e e0de 613e 18ea 4e3e d51a 803e
000000c0: e34b 9b3e 2d41 d23e e4a9 5e3e 5af2 863e
000000d0: 5eb5 583e 732a 9a3e 00da 9c3e 98d0 7f3e
000000e0: 4e01 a43e 3ff4 7d3e 7835 983e 3df6 873e

weight f4 [60]
1.515522 1.461481 1.2137216 1.7099932 1.5544785 1.6519575 1.4367119 1.8329924
1.5138935 1.8622911 1.6283088 1.6289556 1.2364652 1.8022995 1.6688297 1.3718702
1.258122 1.7832551 1.3078434 1.6581751 1.14232 1.2069241 1.4214534 1.5968403
1.5035938 1.7223316 1.5475194 1.5337106 1.0794917 1.7353641 1.1923743 1.6987873
1.6333758 1.8583624 1.5743617 1.6160947 1.600708 1.4694183 1.6508118 1.8643696
1.649063 1.5760584 1.870751 1.284834 1.6480767 1.624495 1.946481 1.8184655
1.4422148 1.541981 1.6460569 1.5407656 1.3530943 1.9312831 1.0537459 1.1732053
1.7004164 1.6117986 1.664035 1.6994594
00000000: a0fc c13f cf11 bb3f 3b5b 9b3f 0fe1 da3f
00000010: 27f9 c63f 5873 d33f 2de6 b73f 7f9f ea3f
00000020: 43c7 c13f 8e5f ee3f 6c6c d03f 9e81 d03f
00000030: 7e44 9e3f c0b1 e63f 369c d53f 7199 af3f
00000040: 240a a13f b441 e43f 6a67 a73f 153f d43f
00000050: 8b37 923f 7d7c 9a3f 2ff2 b53f 4365 cc3f
00000060: c375 c03f 5d75 dc3f 1e15 c63f a150 c43f
00000070: c92c 8a3f 6920 de3f b99f 983f dd71 d93f
00000080: 7512 d13f d2de ed3f af84 c93f 31dc ce3f
00000090: 00e4 cc3f e615 bc3f cd4d d33f aaa3 ee3f
000000a0: 7f14 d33f 48bc c93f c574 ef3f 7175 a43f
000000b0: 2df4 d23f 74ef cf3f 4a26 f93f 7ac3 e83f
000000c0: 7f9a b83f a25f c53f feb1 d23f cf37 c53f
000000d0: 3232 ad3f 4934 f73f 25e1 863f 972b 963f
000000e0: 3fa7 d93f 6b4f ce3f 19ff d43f e387 d93f

bias f4 [60]
-0.21006225 -0.5183379 -0.39416617 -0.26665068 -0.40673476 -0.5072354 -0.22891702 -0.44093546
-0.35230458 -0.5066765 -0.5141453 0.007865579 -0.08152674 -0.1446475 -0.49664658 -0.45446867
-0.24349429 -0.5994563 -0.26450953 -0.17116322 -0.054009594 -0.34108785 -0.31932357 -0.16068812
-0.19958115 -0.23225302 -0.5392485 -0.33663306 -0.039937515 -0.3477422 -0.52736825 -0.31932595
-0.15941255 -0.43588462 -0.44732907 -0.045306522 -0.4492494 -0.31593037 -0.5854819 -0.25329185
-0.6046091 -0.25089702 -0.5732902 -0.4353262 -0.106372714 -0.46708983 -0.30291316 -0.27435046
-0.34834635 -0.34909356 -0.441074 -0.26162872 -0.18671778 -0.647695 -0.58246845 -0.36543432
-0.44997838 -0.30303943 -0.6310188 -0.18831311
00000000: 8f1a 57be cbb1 04bf 26d0 c9be 7086 88be
00000010: 8a3f d0be 2eda 01bf 3969 6abe 4bc2 e1be
00000020: 4461 b4be 8db5 01bf 079f 03bf a1de 003c
00000030: 7ef7 a6bd 791e 14be 7648 febe 1eb0 e8be
00000040: 9156 79be f875 19bf cb6d 87be 6945 2fbe
00000050: 2a39 5dbd 11a3 aebe 617e a3be 6d8b 24be
00000060: 005f 4cbe bcd3 6dbe 310c 0abf 2b5b acbe
00000070: 8595 23bd 440b b2be 9b01 07bf b17e a3be
00000080: 0b3d 23be 452c dfbe 5108 e5be 5593 39bd
00000090: 0404 e6be a0c1 a1be 24e2 15bf 78af 81be
000000a0: a9c7 1abf 9375 80be 26c3 12bf 13e3 debe
000000b0: f0d9 d9bd 6626 efbe 6f17 9bbe aa77 8cbe
000000c0: 745a b2be 64bc b2be 74d4 e1be 33f4 85be
000000d0: f232 3fbe 57cf 25bf a71c 15bf 351a bbbe
000000e0: 9163 e6be fc27 9bbe 738a 21bf 27d5 40be

running_mean f4 [60]
-0.2222735 -0.24149582 0.18735382 -0.81412804 -1.0282433 0.024882304 -0.16223295 -0.89871526
-0.3648034 -1.0390674 -0.2810784 -0.73512137 0.064387925 -0.5704774 -0.8349586 0.6339052
-0.44808555 -0.8594712 0.7936952 -0.18745117 0.20633584 0.8343617 -0.5608179 -0.21141869
0.10527962 -0.61125183 -0.35042575 0.19825168 0.48445284 -0.36336666 -0.64354694 -0.40722433
-0.1396627 -0.18165337 -0.62866485 -0.2905406 -0.5797635 -0.3464468 -0.725445 -0.27665845
-0.56654394 0.042409737 -0.95197713 0.023553979 -0.62906516 -0.5343541 -0.5613735 -0.28073043
-0.52972174 -0.2723255 -0.87056255 -0.31100634 -0.4928496 -0.7194414 1.388695 0.067796975
-0.5393505 -0.03492947 -0.30941278 -0.57224065
00000000: aa9b 63be ae4a 77be aed9 3f3e b26a 50bf
00000010: 7a9d 83bf f9d5 cb3c 6520 26be 3412 66bf
00000020: 83c7 babe 2900 85bf 82e9 8fbe ea30 3cbf
00000030: d1dd 833d cf0a 12bf d9bf 55bf 9c47 223f
00000040: 786b e5be 4e06 5cbf 9c2f 4b3f 33f3 3fbe
00000050: b449 533e ba98 553f c391 0fbf 247e 58be
00000060: d79c d73d 007b 1cbf 016b b3be 7d02 4b3e
00000070: 340a f83e 320b babe 7ebf 24bf b57f d0be
00000080: bd03 0fbe 5703 3abe 2ef0 20bf bdc1 94be
00000090: 616b 14bf 7a61 b1be c3b6 39bf 2da6 8dbe
000000a0: 0609 11bf d5b5 2d3d c6b4 73bf 46f4 c03c
000000b0: 6a0a 21bf 6ecb 08bf 2cb6 0fbf e6bb 8fbe
000000c0: d89b 07bf 3f6e 8bbe 30dd 5ebf 393c 9fbe
000000d0: c856 fcbe 502d 38bf c2c0 b13f 24d9 8a3d
000000e0: e012 0abf 3412 0fbd 5a6b 9ebe 5d7e 12bf

running_var f4 [60]
0.26972675 0.22281173 0.32376537 0.49652988 0.58339125 0.22445755 0.44548625 0.29681268
0.3119537 0.50988954 0.1876955 0.25178373 0.319895 0.31390762 0.35097036 0.37446272
0.31273514 0.32839003 0.38218766 0.3923582 0.325438 0.41543353 0.34077004 0.27357107
0.24346769 0.40329912 0.2625285 0.33614647 0.5326526 0.34280232 0.45534435 0.26208398
0.39962775 0.21383014 0.29002115 0.4920435 0.46794605 0.3209583 0.45560166 0.28125712
0.36704263 0.28808832 0.58869296 0.26661736 0.41153148 0.2931195 0.25776523 0.34944075
0.3290707 0.36402905 0.47487423 0.2753099 0.37591168 0.47707537 0.56029546 0.2435347
0.5259398 0.23991348 0.66021127 0.41392672
00000000: a019 8a3e c228 643e 93c4 a53e 2a39 fe3e
00000010: 2159 153f 33d8 653e c616 e43e d5f7 973e
00000020: 65b8 9f3e 1f88 023f 4033 403e cce9 803e
00000030: 47c9 a33e 80b8 a03e 63b2 b33e 94b9 bf3e
00000040: d21e a03e bd22 a83e 1aae c33e 2de3 c83e
00000050: cf9f a63e b4b3 d43e 6979 ae3e 8211 8c3e
00000060: 984f 793e 397d ce3e 236a 863e 641b ac3e
00000070: ec5b 083f c983 af3e e522 e93e df2f 863e
00000080: 029c cc3e 4af6 5a3e a77d 943e 20ed fb3e
00000090: a096 ef3e a554 a43e 9f44 e93e ef00 903e
000000a0: 03ed bb3e 5080 933e 95b4 163f 1282 883e
000000b0: 41b4 d23e c213 963e cef9 833e e6e9 b23e
000000c0: f47b a83e 0462 ba3e b722 f33e 6bf5 8c3e
000000d0: 7f77 c03e 3943 f43e 866f 0f3f 2961 793e
000000e0: fea3 063f e1ab 753e 9b03 293f 34ee d33e

weight f4 [60]
2.2818227 1.9763031 2.014129 1.7405157 2.2139938 1.9062666 1.8884652 1.8532737
2.3415232 2.5363226 1.66436 2.6375682 2.5827384 3.1715422 2.534402 2.5694704
1.8027855 2.1776023 2.7584507 1.7286605 2.9448445 1.9367315 2.2191072 2.1699824
3.0391045 2.851045 2.7110598 1.6999694 2.4796674 2.6487277 1.8050189 2.8559203
1.6931567 1.9764764 2.4550617 1.7502967 1.7608402 1.8954815 1.8158493 1.5594046
3.5001786 2.4484334 2.6678112 2.3432066 2.1403923 2.1540718 1.9528276 2.3807075
2.851086 1.987382 1.7706262 2.7437427 2.0566657 2.510196 2.4031744 2.4382925
1.797505 3.2304037 2.210382 2.3644226
00000000: 6209 1240 80f7 fc3f 7de7 0040 38c9 de3f
00000010: 13b2 0d40 8b00 f43f 3ab9 f13f 1338 ed3f
00000020: 84db 1540 1c53 2240 c009 d53f ebcd 2840
00000030: 964b 2540 8cfa 4a40 a433 2240 3472 2440
00000040: adc1 e63f d65d 0b40 758a 3040 bf44 dd3f
00000050: 5578 3c40 d1e6 f73f da05 0e40 fee0 0a40
00000060: b080 4240 8577 3640 0182 2d40 9998 d93f
00000070: dfb2 1e40 c184 2940 dc0a e73f 66c7 3640
00000080: 5cb9 d83f 2efd fc3f bb1f 1d40 b909 e03f
00000090: 3663 e13f 239f f23f c06d e83f 929a c73f
000000a0: ed02 6040 22b3 1c40 6bbd 2a40 19f7 1540
000000b0: 30fc 0840 50dc 0940 41f6 f93f 835d 1840
000000c0: 3178 3640 8962 fe3f e1a3 e23f 7b99 2f40
000000d0: 69a0 0340 0da7 2040 9ccd 1940 fc0c 1c40
000000e0: a514 e63f efbe 4e40 e676 0d40 b352 1740

bias f4 [60]
-1.099462 -1.5581738 -1.4462422 -1.2779754 -0.84982073 -1.2957597 -1.0414181 -1.3741647
-0.81303126 -1.197047 -1.2705557 -0.7985427 -0.8609164 -0.9905667 -0.94013816 -0.79878926
-1.1569982 -0.7975837 -1.1026665 -0.9782459 -0.8232657 -1.1565381 -0.53537697 -1.1293968
-1.1212797 -0.80714935 -1.432551 -0.99945265 -0.67749494 -0.7715169 -1.1889757 -0.62156415
-0.93860996 -1.3835875 -0.7064069 -1.0389149 -1.1252524 -1.1502799 -0.99197793 -0.6774058
-1.4180887 -1.7535987 -1.1336093 -0.7675774 -0.8216775 -1.4585019 -0.5021721 -1.1480051
-0.8399532 -1.3030868 -1.0476539 -1.1977711 -0.6829521 -0.8483131 -0.88802266 -1.1742055
-1.1537035 -0.7653353 -0.9678955 -1.712233
00000000: 2cbb 8cbf 3d72 c7bf 771e b9bf b394 a3bf
00000010: da8d 59bf 74db a5bf 304d 85bf a1e4 afbf
00000020: d122 50bf d638 99bf 92a1 a2bf 4b6d 4cbf
00000030: 0465 5cbf c795 7dbf e5ac 70bf 747d 4cbf
00000040: 8418 94bf 722e 4cbf 2d24 8dbf 536e 7abf
00000050: 8ac1 52bf 7109 94bf 770e 09bf 1390 90bf
00000060: 1886 8fbf 57a1 4ebf d55d b7bf 21dc 7fbf
00000070: 4f70 2dbf 2282 45bf 5b30 98bf d41e 1fbf
00000080: be48 70bf 6519 b1bf 15d7 34bf 2afb 84bf
00000090: 4508 90bf 5f3c 93bf 44f2 7dbf 776a 2dbf
000000a0: ee83 b5bf ec75 e0bf 1c1a 91bf f47f 44bf
000000b0: 7559 52bf 31b0 babf 5a8e 00bf d5f1 92bf
000000c0: 2c07 57bf 8ccb a6bf 8619 86bf 9050 99bf
000000d0: f3d5 2ebf 0c2b 59bf 7455 63bf 5e4c 96bf
000000e0: 8eac 93bf 04ed 43bf 00c8 77bf 732a dbbf

running_mean f4 [60]
0.18247613 -0.46965614 -0.70148 -0.2876338 0.25828075 -0.8707272 -0.114201345 -0.7664167
-0.13748343 0.12623072 -0.86633646 -0.15406622 0.09586724 -0.26241514 0.10820912 -0.16662101
0.077839434 -0.06766636 -0.051082555 -0.8832776 0.111938685 -0.09282715 -0.121941544 0.08626906
-0.3322677 -0.032335248 -0.19529203 -0.10049276 0.105238974 -0.002528404 -0.076268055 -0.23467311
-0.46642548 -0.71745473 -0.06415441 -0.07718487 -0.12066263 0.005495279 -0.21390226 0.18768267
0.18168318 -0.13523549 -0.5650385 -0.014899335 -0.12179236 -0.07489615 0.098552085 -0.41915572
-0.083901145 -0.8695336 -0.13540938 -0.15987909 0.12867402 0.10810698 -0.1832277 0.029533608
0.32318586 -0.11913545 -0.28402504 -0.49000326
00000000: 06db 3a3e c576 f0be 3194 33bf bd44 93be
00000010: 603d 843e fae7 5ebf 65e2 e9bd e333 44bf
00000020: 75c8 0cbe a042 013e 3ac8 5dbf 89c3 1dbe
00000030: 0b56 c43d 475b 86be be9c dd3d b39e 2abe
00000040: 486a 9f3d a994 8abd f13b 51bd 7b1e 62bf
00000050: 1c40 e53d 291c bebd 7dbc f9bd d5ad b03d
00000060: fe1e aabe f771 04bd a2fa 47be 26cf cdbd
00000070: 8887 d73d 94b3 25bb 6d32 9cbd 264e 70be
00000080: 52cf eebe 1dab 37bf 6363 83bd 1a13 9ebd
00000090: f81d f7bd be11 b43b 3209 5bbe e32f 403e
000000a0: 280b 3a3e 2c7b 0abe 5da6 10bf 571c 74bc
000000b0: 466e f9bd 2763 99bd add5 c93d 949b d6be
000000c0: 5dd4 abbd c199 5ebf c2a8 0abe 58b7 23be
000000d0: 1fc3 033e 3167 dd3d 0ba0 3bbe 77f0 f13c
000000e0: 9e78 a53e 49fd f3bd bb6b 91be b5e1 fabe

running_var f4 [60]
0.30981645 0.460711 0.4980086 0.3238517 0.29915562 0.42781594 0.22919552 0.4652062
0.312322 0.29365754 0.6203742 0.32526857 0.22586145 0.34981778 0.26385713 0.46546954
0.25802168 0.24647897 0.20972027 0.57239556 0.20997874 0.21085112 0.27132082 0.22799817
0.28347948 0.24202774 0.28040978 0.2263546 0.22868633 0.3355172 0.27609485 0.24230438
0.37940228 0.43040112 0.28476116 0.25738674 0.31270617 0.3526233 0.22360426 0.29739276
0.27363208 0.34130207 0.38732278 0.26747146 0.31063375 0.28079262 0.28054544 0.38598856
0.33573875 0.5153312 0.26898876 0.38674092 0.24916793 0.25094104 0.25436822 0.38153976
0.22104207 0.30279553 0.28940934 0.5012366
00000000: 43a0 9e3e 50e2 eb3e fcfa fe3e e4cf a53e
00000010: ed2a 993e b10a db3e 3bb2 6a3e 822f ee3e
00000020: abe8 9f3e 485a 963e d8d0 1e3f 9a89 a63e
00000030: 3948 673e 511b b33e 4818 873e 0652 ee3e
00000040: 6b1b 843e fc64 7c3e e9c0 563e 8488 123f
00000050: ab04 573e 5be9 573e 90ea 8a3e 5a78 693e
00000060: 3924 913e 1fd6 773e df91 8f3e 80c9 673e
00000070: c02c 6a3e e9c8 ab3e 4e5c 8d3e a41e 783e
00000080: 0441 c23e 895d dc3e 37cc 913e 32c8 833e
00000090: 061b a03e 0b8b b43e 84f8 643e dd43 983e
000000a0: 8119 8c3e 25bf ae3e 2c4f c63e 05f2 883e
000000b0: 630b 9f3e 0dc4 8f3e a7a3 8f3e 4ba0 c53e
000000c0: f3e5 ab3e bfec 033f e5b8 893e e802 c63e
000000d0: e125 7f3e 587b 803e 8d3c 823e 2e59 c33e
000000e0: da58 623e 0408 9b3e 762d 943e 0b51 003f

weight f4 [2, 60]
1.0570759 -1.2827332 -1.3630269 -0.74303514 0.66064847 -1.2711959 -1.1099997 -1.0941978
1.4298444 0.89240956 -1.0853258 1.1821734 0.9554465 1.2981335 0.9107249 0.7523715
-0.9465004 1.0482354 1.0851998 -1.3135133 1.130465 -1.0742326 0.84606946 0.6091727
1.3054572 0.911489 1.1479551 -1.0167968 1.0564798 1.0768038 -1.0907184 0.9828436
-0.98753923 -1.253465 0.958292 -1.0592382 -0.6987142 0.7792832 -1.0275351 0.3626052
1.3235716 -1.2691417 1.4689659 1.3609718 0.9590076 -0.8717647 1.1189269 1.5462085
1.2395222 -1.2257818 -1.0223875 1.0301557 0.8223706 1.1609223 1.1049191 1.0906712
-0.7559979 1.2697873 1.3777416 -1.5092885 -1.0326053 1.1893841 1.2607366 0.893586
-0.9182916 1.1880739 1.1652442 1.3735893 -1.0785507 -1.1322851 0.88816583 -0.93937045
-1.2437071 -1.0156993 -1.1697551 -1.0890177 1.2080432 -0.9938269 -1.1290938 0.89016587
-1.1023889 0.92879516 -1.1625217 -0.693595 -1.3891503 -1.2724099 -1.4349365 0.88519156
-0.55722934 -0.9714211 0.99107146 -0.9377688 0.8811431 1.2666509 -1.2387965 0.85526437
0.61412287 -1.0598739 0.905804 -0.8969439 -1.2998161 1.308325 -1.0752288 -1.0770631
-1.1019974 1.1543359 -1.0168146 -1.088628 -0.7403573 1.5184637 0.70027214 -1.1866151
-1.1643871 -0.8679384 -1.2990941 -0.7744572 0.8817276 -0.8809695 -1.1284918 1.0643984
00000000: 434e 873f 9a30 a4bf aa77 aebf 8d37 3ebf
00000010: 4220 293f 8cb6 a2bf 7814 8ebf ac0e 8cbf
00000020: 2405 b73f f474 643f f5eb 8abf 7551 973f
00000030: 2498 743f 3d29 a63f 4425 693f 6b9b 403f
00000040: da4d 72bf 942c 863f d4e7 8a3f 3421 a8bf
00000050: 14b3 903f 7480 89bf 0298 583f bef2 1b3f
00000060: 3919 a73f 5857 693f 31f0 923f 6626 82bf
00000070: bb3a 873f b5d4 893f a99c 8bbf a39b 7b3f
00000080: 5fcf 7cbf 8b71 a0bf a052 753f 1e95 87bf
00000090: efde 32bf 1b7f 473f 4586 83bf 64a7 b93e
000000a0: cb6a a93f 3c73 a2bf 1307 bc3f 5334 ae3f
000000b0: 8681 753f f92b 5fbf ff38 8f3f 29ea c53f
000000c0: aaa8 9e3f 6be6 9cbf 98dd 82bf 24dc 833f
000000d0: e186 523f 1a99 943f fd6d 8d3f 1d9b 8b3f
000000e0: 1489 41bf 6488 a23f d659 b03f 5e30 c1bf
000000f0: 692c 84bf bd3d 983f d15f a13f 0dc2 643f
00000100: 2915 6bbf ce12 983f b926 953f c6d1 af3f
00000110: f30d 8abf b8ee 90bf d65e 633f 957a 70bf
00000120: cb31 9fbf 6f02 82bf 89ba 95bf ef64 8bbf
00000130: 29a1 9a3f 716b 7ebf 2586 90bf e9e1 633f
00000140: 141b 8dbf 85c5 6d3f 83cd 94bf 718f 31bf
00000150: adcf b1bf 54de a2bf 00ac b7bf ea9b 623f
00000160: 95a6 0ebf 0eaf 78bf dcb6 7d3f 9e11 70bf
00000170: 9892 613f 9e21 a23f e290 9ebf 9bf2 5a3f
00000180: 2837 1d3f f3a9 87bf c5e2 673f 1e9e 65bf
00000190: 6060 a6bf 3277 a73f 19a1 89bf 34dd 89bf
000001a0: 400e 8dbf 47c1 933f fb26 82bf 2a58 8bbf
000001b0: 0e88 3dbf 055d c23f 0945 333f 01e3 97bf
000001c0: a30a 95bf 3631 5ebf b748 a6bf d442 46bf
000001d0: e6b8 613f 3887 61bf 6b72 90bf 353e 883f

bias f4 [2]
0.26675695 -0.43041992
00000000: 5e94 883e 0060 dcbe
