dataset/ppi3/0.003_1000/model.pth (torch, 58990 bytes, 20 tensors)

bias f4 [60]
00000000: 5ebb 0a3e 78d0 263e c5c4 26be 2f9b 963d
00000010: 16db a5bc 50de dcbd 8964 483e 5c40 5e3d
00000020: 50bb 1c3b 9399 a6bc 4e63 883d 1ea3 05bd
00000030: e12d 9a3d b27f 27bd cc9a e6bb 6227 743d
00000040: 82f0 373d dd8e 903d 3e8e 1a3d a6c4 6bbd
00000050: 8f22 153b 3b21 083e a8c3 323d c537 33be
00000060: c5f1 52bd a28c c23d a74a bc3d 8ecd d1bd
00000070: f2ad 653e 95d2 c9bd 85a7 cabe a73a 1c3d
00000080: 7da7 563d 16cb 833e 907f 2a3c bf36 863d
00000090: 48ca 833b 98bb cf3d 2970 11be fb5f bdbb
000000a0: 5d64 a53d cf3e 0dbe 71a3 a13c c9ac 31be
000000b0: d496 7d3d 15ad 5ebc 5b1f 44bd 652d edbc
000000c0: 3a45 173d b23f 063d 8204 2abd 7a79 993c
000000d0: c9a1 323d dd45 e8bc d210 0ebd 742c 9b3c
000000e0: 5e6c 5c3c 4b10 863c e767 02be 8393 76bd
0.13548037 0.16290462 -0.16285999 0.07353818 -0.02024607 -0.1078459 0.19569601 0.054260597
0.0023915358 -0.020336902 0.06659566 -0.032626264 0.07528282 -0.040893264 -0.007037496 0.05960787
0.0449071 0.07058499 0.03773331 -0.057560585 0.0022756194 0.13293926 0.043643624 -0.17501743
-0.0515001 0.0949948 0.09193926 -0.102442846 0.22429636 -0.098546185 -0.39580932 0.038141873
0.052405823 0.2574088 0.01040639 0.06553411 0.0040219165 0.101432025 -0.14202942 -0.005779264
0.080757834 -0.13793491 0.019731255 -0.17351069 0.06191142 -0.013591071 -0.047881465 -0.02895231
0.036931254 0.03277559 -0.041508205 0.018734682 0.04361132 -0.028353626 -0.03468401 0.018942095
0.013453571 0.016365191 -0.12734948 -0.060199272

weight f4 [60, 50]
00000000: ca72 3abf 071b 0c3f bc30 3b3e 3472 6e3e
00000010: 9f8f 213e 589a 3c3d 416f 293d 592c 7abf
00000020: f910 64be d5a3 03bf bc04 ebbb db1f ae3d
00000030: 0474 7dbd b3b5 5fbe fd7e 403f b034 a5be
00000040: 44e2 87be 99d6 d33d 55d4 553e 97cc b9bd
00000050: 85e9 87be 7716 0e3e e9c8 dbbe 5584 13bf
00000060: 87d3 f83e 5897 7abe 8d72 753e a057 fc3e
00000070: 9b9c 38bf a85c 95be 38a5 88be c6b1 973d
00000080: c606 0e3e 4340 35bc 155c b03e a9e7 953d
00000090: 1621 18bd 0299 88bb d592 46bf 12a5 4fbf
000000a0: 47cd 003c 76a2 ebbd a804 793e 284a 023e
000000b0: 9599 eebe b2ea c9be c35a 2a3e 3032 733c
000000c0: ab29 8d3d ec4d 8f3d 13bd 803d 0206 cabc
000000d0: 5fbf e63d 44b5 c63e 1a8e 38bf 78a2 8d3e
000000e0: 36a9 ecbe a6dd 843e 4aa9 bdbe 779b e7be
000000f0: e857 6c3e dc28 2bbe af6c 1fbf 0a7c 2bbe
00000100: 6f7c e8be 560b 6cbe c1a8 e0bd 13ed b3be
00000110: 50df bc3d 2fa9 533e 5bd0 d33d 8825 9abc
00000120: f4d7 703e ac73 373e e8c6 67bf 7de5 3cbe
00000130: 7b2d 9bbe 925c d2be f1b7 0ebf 3610 97bd
00000140: fd63 3f3c 2fd2 693e fa99 70ba 7741 10bf
00000150: 0df7 9bbe cef2 093f f246 663d 43f3 943e
00000160: e8a4 45be 3124 753e 9de0 83be 2368 a03e
00000170: 10f3 b13e fd50 493e fe5d d6bc 686f 833e
00000180: 3990 e8bd 468a 82be 9f37 1abf dbfa b03e
00000190: 7372 a93d 76b2 643e d589 84bd 9fc2 363d
000001a0: aeed 513e 5c6d 673e 8c86 913e 2ec5 ab3e
000001b0: 3ce0 24be 3717 a43d 4f86 c43d c6de 9a3e
000001c0: b5d7 69be 99ec cbbe 9dd5 d23d 5306 053d
000001d0: 0434 e2be d64d 813e 2f6f 04bf 39c0 533e
000001e0: 72e6 8fbd 2e42 313e 4872 e53e 7834 373e
000001f0: a9b1 ad3d 4f8c 943e 920a e03e 187f babd
00000200: f145 973d e9f0 2a3e c9cc 2b3e ceeb 913e
00000210: fad2 05bf a35d 863e 82dd e4be e1bc 67be
00000220: 8fb8 33bb f211 f73d 4574 3dbe 9b33 9c3e
00000230: a29e 68be 2baf de3e 4270 013f 14b7 06bf
00000240: 05e9 85be 3565 b73e e03d fd3e 0d85 00bf
00000250: 6a84 74bf b63a 57bd a9e0 b33d f0f3 07be
00000260: 14b8 b33e f5d7 7ebc 14c7 adbd d631 6abe
00000270: 2cf2 e53e e501 ca3d 5459 7b3d 04e3 56bf
00000280: 0b20 0cbe 93d8 0dbf d680 7fbb 45d1 33be
00000290: a6d1 a43d 396e 45bf 774b 75be fcf0 eabd
000002a0: ae54 193f ebc4 683e d194 7f3d c96d 2bbf
000002b0: f61d 12bf 9c08 823a a2ee 0e3d 10b5 0a3e
000002c0: 9d84 0fbf 2577 cbbe f80c e23c 25e3 04be
000002d0: 2a90 72be 5413 173e 55e2 c33e 5d14 723e
000002e0: 842c b1be 714a aa3e 054f f4bd 32b4 4abe
000002f0: 0369 8e3d ac56 343e 6020 803d 406f d7bd
00000300: e2f5 343e c272 0dbf b48c 043e 5851 b8be
00000310: b3ad 163e 2789 713e 1989 d2ba c6a0 1cbe
00000320: 1bd7 fcbe dfe5 1abf f5db 123e accb 343e
00000330: 1cf4 9f3e b4c5 c73d fb9e 2fbf a023 6f3e
00000340: c24e cdbe 4917 15be 032b dc3a 6777 88bc
00000350: 199f 69be 07e4 233e 3ea1 323e 26f9 433e
00000360: 07a7 27bf 3cdf 8c3e 07d9 0ebf 95d4 9c3e
00000370: d14d 573e da3d 85bf 1584 37be 0b8b 8a3d
00000380: 7542 c13d 9224 7b3e 6e72 073f 500b 3dbf
00000390: b4fb 4dbe fac4 303e f8f9 253f b449 873e
000003a0: e184 603e 5c0f f5bd 7fbd 453d 91bf 71be
000003b0: ae96 ca3d 505d 6f3d 3be3 a53d 6ccf 99bd
000003c0: ba79 f63d 585e cfbb fe2a 973d 195d 743e
000003d0: 2952 1c3f ed65 463e f328 dbbe 121d aebd
000003e0: de37 2bbb 6631 10bc c53d 823c c7bd b43e
000003f0: 8ea5 73be a0f0 5c3f 2f47 bf3e 2e4f bd3d
-0.72831404 0.5472874 0.1828031 0.23285753 0.15777443 0.04604563 0.041365866 -0.9772392
-0.222721 -0.5142186 -0.0071721952 0.0850217 -0.06187822 -0.21846657 0.7519377 -0.3226676
-0.26539814 0.10343666 0.2088178 -0.090722255 -0.2654535 0.13875757 -0.4292672 -0.576238
0.48598883 -0.24471796 0.23969479 0.49285603 -0.7211396 -0.29172254 -0.26688552 0.074069545
0.13869771 -0.0110626845 0.34445253 0.07319576 -0.03714093 -0.0041686306 -0.775678 -0.8111125
0.007861442 -0.11505596 0.24318182 0.12723601 -0.4660155 -0.3943687 0.16636185 0.014843509
0.06892713 0.06997284 0.06286063 -0.024661068 0.1126697 0.3881017 -0.7209183 0.27663016
-0.46222848 0.25950354 -0.3704322 -0.45235798 0.23080409 -0.16714805 -0.62275213 -0.16746536
-0.45407435 -0.230512 -0.10969687 -0.3514181 0.09222281 0.20670007 0.10342475 -0.018816724
0.2351988 0.17915219 -0.9053788 -0.18446918 -0.30308136 -0.4108625 -0.5574942 -0.07376139
0.011681554 0.22834085 -0.0009178218 -0.5634989 -0.30461922 0.53886116 0.056220002 0.29091844
-0.19301188 0.23939587 -0.25757304 0.3132945 0.34755754 0.19659801 -0.026167866 0.25670934
-0.11355633 -0.2549612 -0.6024112 0.34566388 0.082737826 0.22333702 -0.06471602 0.0446192
0.20500824 0.22600311 0.28422964 0.33548874 -0.16101164 0.080122404 0.0959593 0.30248088
-0.22836192 -0.39828947 0.1029465 0.032476734 -0.4418031 0.25254697 -0.5173215 0.20678796
-0.07026376 0.17310402 0.44813752 0.17891109 0.084811516 0.29013297 0.43758065 -0.091062725
0.07386387 0.16693462 0.16777338 0.28500217 -0.5227505 0.26243314 -0.44700247 -0.22630645
-0.0027423238 0.1206397 -0.18501385 0.30508122 -0.22716764 0.43493018 0.50561917 -0.52623105
-0.26154342 0.35819402 0.4946127 -0.5020302 -0.9551455 -0.052546225 0.08783085 -0.13276649
0.35101378 -0.015554418 -0.08485237 -0.22870573 0.44911325 0.098636426 0.061364487 -0.8394015
-0.13684098 -0.5540859 -0.0038986704 -0.17560299 0.080478 -0.7712131 -0.23954569 -0.11471745
0.59894836 0.22731368 0.06239778 -0.66964394 -0.57076967 0.0009920779 0.034895547 0.13545632
-0.56061727 -0.39739338 0.027594075 -0.12977274 -0.23687807 0.14753467 0.38258615 0.2364058
-0.34604275 0.3325992 -0.11929134 -0.19795302 0.06953623 0.17611188 0.06256175 -0.10519266
0.17671922 -0.5525323 0.12944299 -0.3599956 0.14714698 0.23587476 -0.0016062587 -0.15295705
-0.49382862 -0.60507005 0.1434172 0.1765582 0.31240928 0.09754506 -0.6860196 0.23353434
-0.4009915 -0.14559664 0.0016797486 -0.016658498 -0.22814597 0.16004954 0.17444322 0.19138011
-0.6548924 0.27514064 -0.5579991 0.30630937 0.21025778 -1.0409501 -0.17921479 0.067648016
0.09436504 0.24525669 0.5290898 -0.73845387 -0.20115548 0.1726264 0.6483455 0.2642342
0.2192569 -0.1196582 0.04827642 -0.23608233 0.09892021 0.0584386 0.080999814 -0.07510266
0.12034936 -0.0063283853 0.07381247 0.23863639 0.61062866 0.19374819 -0.4280468 -0.085016385
-0.0026125829 -0.00880084 0.015898595 0.3530104 -0.23793623 0.86304665 0.37358996 0.09243618

bias f4 [60]
00000000: 2b51 1e3c 8ba2 293d 1072 c1bd fd9b ac3e
00000010: 0001 793c 3c84 c9bd aa34 d4bc f3e3 2c3e
00000020: 51bf 4dbd ddec 7cbe e999 59bb 2a33 2cbd
00000030: 2ec5 83be 2ff9 1bbf 5e88 963d 558b a13e
00000040: bab1 603e a221 36be 8ac6 3d3c 7e92 4f3d
00000050: a02d 11be 8ffc cfbd 0c09 b23c 001e 68bd
00000060: 5acf f7be 27d0 9e3e 00ae 8e3e e746 56bd
00000070: 633e 48be 6b9d c03d 2e10 01bf feac 563d
00000080: 14b5 65be 732a c8bc 5a8e 7a3d f41a 5fbd
00000090: 0bbc 073e 0d0c 003e 29b8 5dbb 10ad 46bd
000000a0: 71bb 9e3d 4786 43bd 7820 9dbd 94b0 073e
000000b0: 39e0 183e 2c3e 0abe 5d58 1a3e 8755 d6bd
000000c0: 833b a1bc dbef 12bf 3ca7 0dbf c585 643d
000000d0: e981 90bc 835a b4bb 8c5c a23c 084c 1e3e
000000e0: b9da 92be f6ec f03d 8b84 f0bd eec5 273e
0.009662907 0.04141478 -0.09445584 0.3371276 0.015197992 -0.09839675 -0.025904018 0.1688383
-0.05023128 -0.24699731 -0.003320331 -0.04204098 -0.25736374 -0.609271 0.07350229 0.31551614
0.21942797 -0.17786267 0.01158298 0.050676815 -0.14177561 -0.101555936 0.02173283 -0.056669235
-0.48400384 0.31018183 0.27867126 -0.05231371 -0.19555049 0.09405025 -0.50415313 0.052411072
-0.22432357 -0.024434304 0.061170913 -0.054469064 0.13255326 0.12504597 -0.0033831692 -0.04850489
0.07750595 -0.04773548 -0.076722085 0.13250953 0.14929284 -0.13500279 0.1507277 -0.10465532
-0.019681698 -0.5739724 -0.55333304 0.055791635 -0.017640071 -0.005503954 0.01981952 0.15458691
-0.28682497 0.11763947 -0.117440306 0.16384098

weight f4 [60, 60]
00000000: 1310 48bd 5373 ff3d 4857 873e 3445 f93c
00000010: dca4 d2bd 50e7 65bd bbfd 3fbe 1125 df3b
00000020: ba82 8abe 5497 35bd aa1a 8bbd 1493 003b
00000030: f769 923d 35c5 bc3e 738a 2fbf 7747 643e
00000040: 2f02 883e 021e 4d3d c4bc 59bd 563a b3be
00000050: c630 603e ee95 d2be 3457 51bd 6118 50be
00000060: 5ca6 09bf fde3 323f 4773 47be a2ae 9c3e
00000070: 5929 73be ecd4 2b3d 2d02 b4be c16d dcbe
00000080: c461 a43d 2421 68bc b7fa b23d 2bfe 493e
00000090: 4de1 0cbf 35be 3e3e 3b9f 92bd 3f71 88bd
000000a0: a0e5 d0bd 99fd 01bf f34e 50be 7d49 5abd
000000b0: c566 cbbe 6e56 923e f1ea 85be 55cc 28be
000000c0: c722 fb3d 78d9 0f3e 994e 8d3e f065 30bf
000000d0: 74cf 473c fa76 b33d 8d64 533e 77b8 b83d
000000e0: 7c52 99be 2f65 53be 94f7 92bd 694c cbbd
000000f0: e750 9d3e 3293 9c3d 08f2 8c3d 0677 c8be
00000100: 6093 11be f2bb 32be 2430 d3bd 6636 06bd
00000110: 92cc 233e c9d2 c53d 4aba ec3d 14c6 54bd
00000120: e647 61bc 609e 873e 4bfc 3b3d 9c7b 9c3c
00000130: d141 a7be ee37 2ebe e649 53be 9e2a 0abe
00000140: 05b3 5f3d 1617 6e3e 4cfe a83e d512 12bc
00000150: 5978 69be b94c 553d 7c57 ccbe 728f f43e
00000160: a7ac 28bd d4f1 1e3e 1edb 963e 3706 92be
00000170: 7b0e a4be 376d 5fbf 54c1 3bbe d230 09bf
00000180: 7df1 ac3e 49b3 87bd c6ef 823e 272d 86be
00000190: 20ed e53e e5a8 8ebd 70b4 dbbe 1642 803e
000001a0: 5cac e03e 316f d0bd 4777 483d a9e9 eabe
000001b0: cc01 59be 38e0 a23e 95d6 01be b824 4dbe
000001c0: 9819 9a3e 9e65 98be 01ed 96be 90da b4be
000001d0: a1e1 2b3e 1847 05bf a8cd c0bc c233 4b3e
000001e0: c457 9fbd 5790 963e 65ea 0bbe 023c f4be
000001f0: ed7c 913d 2260 3b3e e70c 9e3e f046 d9be
00000200: e7e6 bd3e 76cf e83b 15d1 103f 57ad 09be
00000210: 6044 e2be f6d2 463e 6167 703e edd2 88be
00000220: da68 97bb 712f 883e a4fb cabe 9fa9 e8be
00000230: a76e afbd 6297 94be 2136 6dbf 3d9a 0bbf
00000240: 0b29 1a3e 29cb 34be cabe 1fbe dbdd 6a3d
00000250: 09eb 113e 11a1 ab3e 40a2 4e3c 4cab f33e
00000260: e8e2 803e 0123 c8be bf3c 863e b5aa 4ebe
00000270: e191 823e 6968 edbe 2407 2abe bfbd 20bf
00000280: b54c 4a3e 8b0f a7be ee71 15bf f2b7 82bd
00000290: 4f6c ae3e 6373 743d 9d57 b53e 7865 00bf
000002a0: 5e91 853c cff5 93be 88ee 3cbc 80ee bcbe
000002b0: d0dc 2abe b052 7d3e 6cf4 db3d 9321 a4bd
000002c0: 7afb 63bd f42c 283e baa4 b43e 1cd3 023f
000002d0: 0796 80be ef7a bbbd ef3c a8be 2409 8e3e
000002e0: 829c 70be 16a3 183e 82bf 433e d47e fb3d
000002f0: 45b2 f2bd b5e9 fa3d 04b1 f93e c25f 40be
00000300: 7526 c23d 200c da3e 11f3 55be 0c29 7b3d
00000310: 6f85 183e b70b 9c3d 5456 f03c 83c3 af3e
00000320: 7188 03bf 564f 803e 4b32 01be 8a40 cf3d
00000330: 675b bf3e a500 9f3e 04cc fdbd 2aa0 b43c
00000340: db4f 9bbd a697 5f3e 7039 84be be49 2a3e
00000350: e4d6 a23e a8c1 e1be 7a53 413e 39e9 f0be
00000360: 0421 d93d 8c0c 91be 2b22 b13d 6a03 a43d
00000370: ae59 6cbe a169 90bd 8c21 23be c934 b73d
00000380: ce84 56bd 2a11 a73e 176f f9be f9b9 67be
00000390: 8892 2fbe 120b 6fbe 145c 14be 407f 8dbe
000003a0: 92a7 e3be 81c9 9a3e fd26 d2be 5fb8 183e
000003b0: 1421 afbe 5991 b3be c526 21bd 4c22 c03c
000003c0: fa76 8c3e cd53 963e 2d01 883e 29a9 38be
000003d0: 7fdd 323c 7967 833e 6cd6 d1be 5ddc 053e
000003e0: 62cf 92b8 e134 693e 28a5 22be 722b 813e
000003f0: e9a1 f1be 7974 523e daa6 74bd 884c f73e
-0.048843455 0.12473168 0.26433778 0.030428506 -0.10285351 -0.0561288 -0.18749134 0.0068098386
-0.2705286 -0.04433377 -0.06792195 0.0019618915 0.071491174 0.36869207 -0.6857063 0.22292887
0.26564166 0.050077446 -0.053158537 -0.35005444 0.21893606 -0.41130012 -0.051108554 -0.203218
-0.5376947 0.6987913 -0.19477569 0.30601984 -0.23746242 0.041951105 -0.3515791 -0.43052486
0.0802646 -0.014168058 0.08739226 0.19725864 -0.5503128 0.18627246 -0.07159277 -0.06662225
-0.102000475 -0.50777584 -0.20342617 -0.05329274 -0.39726844 0.28581566 -0.2615581 -0.16484196
0.122624926 0.14047801 0.27599028 -0.68905544 0.012195457 0.08762927 0.20643826 0.09019559
-0.29945743 -0.20644067 -0.07176128 -0.099266835 0.30725786 0.07645263 0.06882101 -0.39153308
-0.14216375 -0.17454508 -0.103119165 -0.032766722 0.15996006 0.09659345 0.11558969 -0.051946715
-0.013750052 0.26488018 0.045894902 0.01910191 -0.326674 -0.17013523 -0.20633659 -0.1349282
0.054614086 0.23250994 0.33006513 -0.008915623 -0.22799815 0.05207512 -0.39910495 0.4776569
-0.04118028 0.15521938 0.29464048 -0.28520367 -0.32042298 -0.87276024 -0.18335468 -0.5359012
0.3377799 -0.06625993 0.25573558 -0.26206324 0.44907475 -0.06965808 -0.429111 0.2505042
0.438815 -0.10177458 0.048941877 -0.45881394 -0.21192092 0.3181169 -0.12679513 -0.20033538
0.3009765 -0.29765028 -0.29477695 -0.35323 0.1678529 -0.52061605 -0.023535565 0.19843963
-0.07780412 0.29406998 -0.13663633 -0.47702032 0.07103906 0.1829839 0.3086922 -0.42436934
0.37090227 0.0071048094 0.56569034 -0.1344503 -0.4419279 0.19416413 0.23476936 -0.26723424
-0.0046206536 0.26598695 -0.39645112 -0.4544191 -0.08566027 -0.29021746 -0.9266072 -0.54532224
0.15054719 -0.17655624 -0.15600124 0.057340484 0.14249815 0.3352132 0.012611926 0.47591627
0.25173116 -0.39089206 0.2621822 -0.20182307 0.25501922 -0.4636872 -0.16604286 -0.6278953
0.19755824 -0.32629046 -0.5837697 -0.06382741 0.34067008 0.059680354 0.35418406 -0.5015483
0.016304668 -0.28898475 -0.01153148 -0.3690071 -0.16685796 0.24738574 0.10739979 -0.08014216
-0.05565975 0.16423398 0.35281926 0.5110338 -0.25114462 -0.09154307 -0.3285899 0.2774135
-0.23497203 0.14905962 0.19116023 0.1228005 -0.118504085 0.12251607 0.48767865 -0.18786529
0.09479991 0.42587376 -0.20893504 0.061318442 0.14894651 0.07619422 0.02933804 0.3432885
-0.5138007 0.2506053 -0.12616841 0.10119732 0.37374422 0.3105518 -0.123924285 0.022049028
-0.075835906 0.21835193 -0.2582507 0.16629693 0.31804574 -0.4409306 0.188795 -0.47052935
0.10602 -0.28329885 0.08649095 0.08008464 -0.23081085 -0.07051397 -0.15930766 0.08945615
-0.052372746 0.32630283 -0.48717567 -0.22629537 -0.17145741 -0.23344067 -0.1448825 -0.27636147
-0.44463784 0.3023186 -0.4104537 0.14914082 -0.34204924 -0.3507183 -0.039343614 0.023453854
0.27434522 0.2936081 0.26563397 -0.1803328 0.010917067 0.2566488 -0.40983903 0.13072343
-7.0004506e-05 0.22774078 -0.15883315 0.2522846 -0.4719384 0.20552243 -0.059729435 0.48300576

bias f4 [60]
00000000: 337b a83a 28cb 553e 85e8 8c3c c20a 7abd
00000010: 4b73 5fbd 8bb2 913d a2e2 8bbd 987e e8bd
00000020: 19c5 afbe 3711 ac3d dbec c63d 3f8a 803d
00000030: 5a55 f83d d922 a13d 0b03 97be 7394 243d
00000040: ca7b 2f3e 5059 a63d abb2 a3bd d2d6 babd
00000050: d227 e63d d7db 073e 8908 bd3c 445d 133e
00000060: 2fa9 903d 0ed9 023e 1454 afbe f2b0 063d
00000070: 727a cfbd d407 2b3d c816 193d 6250 3f3e
00000080: 759c ba3d d34e 8abc 2519 843d fabd 8ebe
00000090: 3ef0 5cbd 481d 823d 12bf 393e e54d 0c3e
000000a0: a115 343c e34a c23d 8532 f93c 1944 debd
000000b0: 4f30 813d 6fe2 313c fbb6 c1bd 3f57 82be
000000c0: 05dd 263e 162f 213c 0f7d 4d3e 6ed1 c23d
000000d0: 0640 053e bd76 b5bc cce0 c2bc 1f68 983d
000000e0: 9586 c53c 37af 043e cc3c 5d3d 0b8e bdbd
0.0012854099 0.20878279 0.017200718 -0.061045416 -0.05455331 0.071141325 -0.06830336 -0.11352271
-0.3433006 0.08401721 0.09713145 0.06276368 0.121256545 0.07867975 -0.2949451 0.040180635
0.17137066 0.08122504 -0.079930626 -0.09123005 0.11238064 0.13267456 0.023075359 0.14391047
0.07063519 0.12778112 -0.34243834 0.032883592 -0.101307765 0.041755512 0.03737524 0.18683007
0.09111873 -0.01688329 0.064501084 -0.27879316 -0.05394005 0.06353241 0.18139294 0.1370159
0.010991485 0.0948694 0.030419597 -0.10852832 0.06308042 0.010857209 -0.09458729 -0.25457188
0.1629525 0.009837886 0.20067237 0.09512602 0.13012704 -0.022151345 -0.023788832 0.074417345
0.024112025 0.12957464 0.05401306 -0.09255608

weight f4 [60, 60]
00000000: 80f0 813e 4fda c73d 6b10 33be 0fb8 413e
00000010: 7af5 ac3e 19d2 cf3e 0b56 3d3e c5b4 2bbb
00000020: 4586 b23d a6fe 3cbe a20c 393e 742a c43e
00000030: ef48 a33d 13ae 083f 0953 2ebf 9001 a0bc
00000040: fa19 adbd 6ce9 603e 878e 93be f32a cdbe
00000050: 143f 98be 70fd 383e 423d 99bd c356 c3bd
00000060: 6067 823d 8ce8 2cbe c6d0 6e3e 32fc 9fbf
00000070: c869 28bf caa5 dcbc 0f0c 6ebe 7791 6ebd
00000080: fed8 7f3e 320b 7c3e 5648 203e 6e77 dd3d
00000090: 4451 82bd 5a34 42be 0141 6e3e 4e14 fabe
000000a0: 49c6 b1bd 37b8 b2be c5c2 763d eb54 8f3e
000000b0: 74fe 0ebf 83a5 0a3e 2eeb 0ebd db3b f1bd
000000c0: 0dc5 313d b45e 52bd cde1 c13e 6816 ec3e
000000d0: 90dc 77be 16fb 713e 76b2 97bd e4b5 0d3f
000000e0: f22a 5dbd cf1b dc3e 2ef1 46bd 8bd6 a63e
000000f0: 51e6 10bd 223b 033d 100b a5be 17cd 9fbe
00000100: 66f8 bebd 76e6 ac3e a462 ce3d 73d6 e2bd
00000110: bdba 35bd 09b9 293d 2a85 09be 779d 9fbe
00000120: b58b e43d c147 0d3f b3bf 58be 618d 26bf
00000130: 00f7 10bf 4bb6 203e 8fba 3b3e 1b42 d4bd
00000140: e737 543e 030c 473e 72b7 033f ca63 cdbc
00000150: f6b0 c7bc ea85 f4be ad60 2abf 3943 913d
00000160: 4a82 45be 2c79 5ebe 237d bc3e f1c4 fabd
00000170: 88e7 443e 4e2a e93d 6cf2 7ebc a59c 56be
00000180: 6af3 853a bde6 d4bd bdff 6abe fe02 853e
00000190: 47c7 0cbe 01b2 25be 25a1 0cbd e055 50be
000001a0: 8b2c 8e3d cdd5 52bd a503 9fbe 421a 1a3b
000001b0: 3b09 743e ffaf d03e bb8e 873e 6473 98be
000001c0: 0f02 b9be 7461 9f3d d586 11be 4dd2 103f
000001d0: c89e ec3e 2dfa b83e 7e86 483d bfe2 ebbd
000001e0: 66f8 7c3e 1939 a23e f75a b03d a50c e0be
000001f0: dd63 dabd fdad fdbc ed22 a8bd d0b9 fcbe
00000200: 19bf 943d 6d72 e9bd 7869 6ebe 3444 bbbd
00000210: 3381 19bd 7e7b 1bbf 8a17 c23e 8565 423e
00000220: fce6 a53b 8212 f5be 3602 df3d ac66 cc3e
00000230: 8a4a e83d dca1 8b3e 8c43 4c3e 30cc 23be
00000240: 7d2b bb3e 7d36 0a3e d058 66be bcf2 823e
00000250: 3a4f bc3d 3093 8dbe f8e8 88bd a23f 9fbe
00000260: 7fd0 ccbe 4207 4dbf 8668 95bd 2e20 1abe
00000270: fc1b 8c3c bc17 613e d4a7 fc3c b204 c73e
00000280: 62b6 e63e 0182 dd3e 8ee8 32bd ff8e 06bf
00000290: 5f1f 1bbd 754c 1abb 3376 3b3d ab38 8ebc
000002a0: 713d 9bbe b6bf d03e 185f be3e ccc7 0ebf
000002b0: 7600 e0bd bc22 9ebe 0f3e 15bd 59c9 10bf
000002c0: 3671 013f d87a 23bf 6857 9a3d 68e8 2e3e
000002d0: 5b1a e33e a267 933b 599c 8b3d 3be9 79be
000002e0: c9eb d13e 6a87 a13e 29f4 4ebe efc7 90bd
000002f0: 8158 b23d 567a f5bd 05f2 1e3e 1e10 023f
00000300: 23cb b63d 9f46 373e ad99 91be 47e2 263e
00000310: f017 e23d d43d a3be 6529 2bbe 5b20 90be
00000320: 6a4c b53e 43e0 62bd ee24 403e aaa9 5d3c
00000330: b6f2 66bd e108 03be b3c2 a03e d8c6 84bf
00000340: e5f8 b3be 0018 193e 51cf 0ebe 7b22 b6be
00000350: 5488 a03c 482a 043f 2cad d53e 75be ac3c
00000360: 4f8a 373e 9e91 f5be 3928 a0be 8749 a83c
00000370: d822 0cbf c73f 8fbe 5c80 cabd f2b2 8a3d
00000380: 2e3a 04bf fda9 2f3e e6f5 45be 23fa c0be
00000390: 0bff bebe bbfe 8dbd a92a a13e 4f96 833c
000003a0: bebd 843c 5ada 073e f0f3 64be b91c 543f
000003b0: 01d9 91be 3aba dd3e bc2c 83bc 5148 2dbf
000003c0: e89f 23bf c441 7cbe f3d4 8e3e 2a50 21bf
000003d0: 8f8b 253d ff98 e13d e200 67bf 4e16 b13c
000003e0: a7aa a5be 0882 903e 3b63 983e 99ce f73e
000003f0: 6e7d 37be e24f 0d3e 20cf 363d 13b0 6f3c
0.253788 0.09758436 -0.17486732 0.18917869 0.33781034 0.4058998 0.18489854 -0.0026200276
0.08717016 -0.18456516 0.18071225 0.3831364 0.07972895 0.53390616 -0.6809545 -0.019531995
-0.0845222 0.21964043 -0.28819677 -0.4007183 -0.29735625 0.18065429 -0.07482387 -0.09538033
0.063673735 -0.16885585 0.23321828 -1.2498839 -0.6578641 -0.026934523 -0.23246787 -0.058244195
0.2498512 0.24613646 0.15652594 0.10813795 -0.063631564 -0.18965283 0.23266985 -0.48843616
-0.08680398 -0.3490617 0.06024434 0.27994475 -0.55857015 0.135397 -0.034892254 -0.11778995
0.043400813 -0.051359847 0.37867585 0.46110845 -0.24205232 0.23630938 -0.074070856 0.5535567
-0.053996034 0.42989966 -0.04856985 0.32585558 -0.035375897 0.032038815 -0.32235003 -0.3121116
-0.09324722 0.33769578 0.10077408 -0.11076059 -0.04436754 0.04143623 -0.13429704 -0.31174824
0.111594595 0.5518761 -0.21166877 -0.6505948 -0.5662689 0.15694539 0.18332885 -0.10364171
0.2072445 0.19438176 0.5145179 -0.025071997 -0.024376374 -0.47758418 -0.66553766 0.070929
-0.19287983 -0.21725911 0.36814222 -0.12244595 0.19228947 0.11385022 -0.015560728 -0.20958193
0.0010219638 -0.10395572 -0.22949119 0.25978845 -0.13747893 -0.16181184 -0.034333367 -0.20345259
0.0694209 -0.051473428 -0.31057468 0.0023514186 0.23831646 0.40759274 0.26476082 -0.29775536
-0.36134383 0.077822596 -0.1421159 0.56570894 0.4621489 0.3612837 0.048956387 -0.11517858
0.24704131 0.31684187 0.086111 -0.43759647 -0.10663579 -0.030966753 -0.082097866 -0.49360514
0.072630115 -0.11398778 -0.2328242 -0.09143868 -0.03747673 -0.6073531 0.37908584 0.18984039
0.005062936 -0.47865683 0.108890936 0.39922082 0.11342342 0.27271926 0.19947642 -0.1599586
0.36556616 0.13497348 -0.22494817 0.25575817 0.09194799 -0.27651358 -0.0668506 -0.31103235
-0.4000282 -0.800892 -0.07295327 -0.15051338 0.017103188 0.2198171 0.030841745 0.3887077
0.45061022 0.43263248 -0.043678813 -0.52561945 -0.037871715 -0.0023544107 0.04576702 -0.017361006
-0.30320314 0.40771264 0.37181926 -0.55773616 -0.10937588 -0.30885875 -0.036436137 -0.5655723
0.5056337 -0.6385932 0.07536203 0.17080843 0.44356045 0.004498438 0.0681693 -0.24405377
0.41000202 0.31548625 -0.20210327 -0.07069384 0.08708287 -0.11986224 0.1552201 0.5080584
0.08925464 0.17898034 -0.28437558 0.16297255 0.11039722 -0.3188311 -0.1671501 -0.28149685
0.35409862 -0.055389654 0.18764088 0.013529221 -0.05638381 -0.12796356 0.31398544 -1.0373182
-0.3515083 0.14950562 -0.13946272 -0.35573182 0.019596256 0.51627016 0.41733682 0.02108691
0.17923854 -0.4796266 -0.31280687 0.020542873 -0.5474067 -0.27978346 -0.09887764 0.06772412
-0.51651275 0.17154689 -0.19332084 -0.3769084 -0.37303957 -0.069333516 0.3147786 0.016062884
0.016203757 0.13266888 -0.2235868 0.8285633 -0.28485873 0.43306142 -0.016012542 -0.6768847
-0.6391587 -0.24634463 0.27896842 -0.63012946 0.040416297 0.1101551 -0.9023572 0.021617081
-0.3235676 0.28224206 0.29763207 0.4839981 -0.17918941 0.13800004 0.044631124 0.014629382

weight f4 [60]
00000000: ff31 b33f 5d97 983f 00c1 c13f 0600 a33f
00000010: 00c9 b43f 5c7d a53f 36ba b23f 3cbd aa3f
00000020: 412e ab3f f5ec b33f 5a8f bc3f b268 a43f
00000030: ff2a c93f 5089 a63f 9a5c a93f cbc6 a23f
00000040: d168 b73f 66b3 9a3f 9349 933f 46c5 ba3f
00000050: a68a cc3f 9424 aa3f 81f1 ad3f ba8c b43f
00000060: db76 9b3f 847d b53f 0b25 b73f 6fd1 bc3f
00000070: b060 b13f 81cd bb3f b39a ac3f 6325 c83f
00000080: 9ac4 c03f 4182 ba3f 313c 9e3f da00 bc3f
00000090: 83b0 943f fcc0 a93f 89c9 ac3f f519 9d3f
000000a0: 42c7 9a3f a500 bd3f ea48 ac3f d21d a83f
000000b0: a702 9e3f 1fa7 973f 1dee a23f 9750 b43f
000000c0: 6f83 a13f 23fc d13f 68e6 9b3f 2704 b83f
000000d0: af14 c53f 5e2d ab3f 7569 b03f 8c4a aa3f
000000e0: 2276 bb3f 474c d83f f4a1 a53f ccb5 a43f
1.3999633 1.1921192 1.5137024 1.2734382 1.412384 1.2928882 1.3963077 1.3339
1.337349 1.4056689 1.4731247 1.284445 1.5716246 1.3010654 1.3231385 1.2716917
1.4328862 1.2085998 1.1506828 1.4591453 1.5979812 1.3292413 1.3589326 1.4105446
1.2145647 1.4178929 1.430818 1.4751414 1.3857632 1.467209 1.348471 1.563641
1.5059998 1.4571 1.2362119 1.468776 1.1616367 1.3262019 1.3499004 1.2273546
1.2092059 1.4765822 1.3459752 1.31341 1.234456 1.1847876 1.2728916 1.4087094
1.2618235 1.6405071 1.217969 1.4376267 1.5396937 1.337322 1.3782183 1.3304
1.4645426 1.6898278 1.2940049 1.286798

bias f4 [60]
00000000: 067a 193e 8cf6 803e e2cb 94bd 1632 73be
00000010: 2a97 a53e c039 0fbe e4d3 453b 0b8d 05be
00000020: 7e8e b33c be2a f2be 38ad 903e b416 54be
00000030: 8e6a 1ebf ebf7 d1bd 41d5 84be a9f3 703d
00000040: e7b6 583e 43a0 48be 4b36 87be 0d18 22be
00000050: cc86 aebe 8db9 b63a 6e99 b43d 11e0 82be
00000060: a0a9 bd3e 668e efbe de81 813c 0c60 2c3e
00000070: 3ffe ffbc d366 2cbe e588 6abe 0e34 9bbe
00000080: 3994 cb3c 5082 fbbd 696c 86be def2 92be
00000090: e8b8 53be 45fc b6be ffa9 553c 40a9 08bf
000000a0: 0c32 55be 24f7 703d 8f90 68be a8fc ae3e
000000b0: f7b0 613e b7bb f9be a4d6 2d3d 363f bcbe
000000c0: a5ce 65be deef 9ebc 29a4 34be ccd9 29be
000000d0: 8482 ab3e 8409 093d a64b bdbe 72fa 123d
000000e0: fb8d 6ebe c40e 5e3e 4a84 5fbc f3ca d1bb
0.14987954 0.251881 -0.0726545 -0.23749575 0.32341892 -0.13986874 0.003018611 -0.13042085
0.021918532 -0.47298235 0.28257155 -0.20711786 -0.6188134 -0.10252365 -0.2594395 0.058826122
0.21163522 -0.19592385 -0.2640861 -0.15829487 -0.34087217 0.0013940796 0.08818327 -0.25561574
0.37043476 -0.4678833 0.015808996 0.16833514 -0.031249164 -0.168361 -0.22903784 -0.30313152
0.024850952 -0.122807145 -0.26254585 -0.28700918 -0.20676005 -0.3573934 0.0130410185 -0.53383255
-0.20819873 0.05882944 -0.22711395 0.34177136 0.22040163 -0.48776028 0.042441025 -0.36766976
-0.2244211 -0.019401487 -0.17640747 -0.16586989 0.33498013 0.03345634 -0.36971778 0.035883375
-0.23296349 0.2168532 -0.01364238 -0.0064023673

running_mean f4 [60]
00000000: 5032 023e a76b 123e fa15 38be 5a92 b23d
00000010: 556d be3a 3867 c6bd bbc7 363e dd43 b43d
00000020: 0cb3 ac3c ae69 36bd b542 743d 9fae 8abd
00000030: 2210 c13d 9e19 33bd 1cf1 92bc 6f13 353d
00000040: 2572 993d 4b71 613d 77ee b23c e468 6fbd
00000050: 890a 11bb d857 fb3d fa80 4f3d 5faa 27be
00000060: 750c 33bd 8966 f63d 3889 d63d 5812 b8bd
00000070: b14f 563e 70c1 05be 4450 d6be 62ff 003d
00000080: 33dc 913d dbec 913e b445 9b3c df1a 423d
00000090: 8ad8 04bd cf4c a73d 532a 1ebe 415d 68bd
000000a0: cc77 db3d b52b 1abe 34e4 913c 439d 29be
000000b0: 6a06 8a3d a041 a2bc c823 83bd 5133 d4bb
000000c0: afa1 203d 35a6 2dbc 94db 1fbd 7a0e 983c
000000d0: 8b85 863d f71d 0ebc 7c0d c9bc 5f1c 9abc
000000e0: f4a9 823c dbdc cf3c 4bfc c2bd 223e 80bd
0.12714505 0.14298879 -0.17977133 0.087193206 0.0014528433 -0.09687656 0.17849629 0.088020064
0.02108147 -0.044534378 0.05963393 -0.067715876 0.09426905 -0.043725602 -0.017937236 0.044207986
0.074924745 0.055039685 0.021842225 -0.05844964 -0.0022131524 0.12272614 0.05066011 -0.16373585
-0.04371305 0.12031276 0.10475391 -0.08987874 0.20928837 -0.13062072 -0.41858113 0.031493552
0.07122078 0.2850102 0.018954135 0.047388908 -0.03243307 0.08168947 -0.15445833 -0.05672956
0.10716209 -0.15055735 0.017809011 -0.16563897 0.06739505 -0.019806683 -0.06403309 -0.006475844
0.039216693 -0.010598709 -0.039027765 0.01856159 0.0656844 -0.008674136 -0.024542563 -0.018812357
0.01595018 0.025373867 -0.09520777 -0.06261851

running_var f4 [60]
00000000: d4ed c83e 3b5a 953e b114 633e 425f 743e
00000010: c829 9e3e 6682 963e f105 823e 7ca4 6c3e
00000020: 6941 873e 1ebd 5f3e f5fc b43e 6d65 373e
00000030: 778b cb3e beda 803e 69a0 703e b5fe b03e
00000040: 92ce b63e b09c 693e 9f3e 833e 0d63 c33e
00000050: 6913 933e 9173 713e b99a ac3e 1ab7 7b3e
00000060: 5e06 893e 7716 5f3e 6c86 b13e dff9 9f3e
00000070: 3ccd 673e af9c d83e fb35 483e b24b ad3e
00000080: e471 aa3e 8674 923e c913 2e3e f439 a03e
00000090: a3a5 6e3e 9030 933e b0d0 8b3e c3f7 a23e
000000a0: 8071 3e3e 3222 913e e154 953e 8d72 683e
000000b0: 3a1f a43e e103 563e 57a6 a93e 4ccf 7c3e
000000c0: 17f6 253e dc0d 653e 1851 3d3e 12b7 873e
000000d0: 5443 a43e 6d47 a33e c204 d03e 9974 a63e
000000e0: 8e3c ad3e 4e2b a03e 31b1 453e 86c2 9b3e
0.39243948 0.29170403 0.22175862 0.23864463 0.30891252 0.2939636 0.25395158 0.23109621
0.2641709 0.21849486 0.3534924 0.17909785 0.3975484 0.25166887 0.23498692 0.34569326
0.35704476 0.22813678 0.25633714 0.38161507 0.28725746 0.23579241 0.33711794 0.24581566
0.2676267 0.21785913 0.34672868 0.31245324 0.22636884 0.4230704 0.19551842 0.33846813
0.33290017 0.28604525 0.16999735 0.31294215 0.23305373 0.28747988 0.27307653 0.31829652
0.18597984 0.283464 0.2916632 0.22699948 0.32055074 0.20899917 0.3313472 0.24688452
0.16207157 0.22368568 0.18487966 0.2650686 0.32082617 0.3189043 0.4062863 0.32510832
0.33835262 0.3128304 0.19305874 0.30421847

weight f4 [60]
00000000: a016 ca3f d895 d13f d377 bf3f 4060 ba3f
00000010: a145 b53f 4fc1 c33f d906 a53f 484e bf3f
00000020: 8345 ad3f d819 d43f fca8 c13f 6fe3 c23f
00000030: 9cd7 a23f 0f98 c33f 9296 a93f 6a2c cc3f
00000040: 3fbc cc3f 7e72 c93f c0f4 d33f c4e1 a33f
00000050: eb88 c23f 3eec c43f 8f8f ce3f f4d8 9a3f
00000060: 7a46 bd3f d8db c53f c81e be3f 7855 d63f
00000070: 4b3c b73f f801 e03f 15cc e13f 9619 c33f
00000080: af4c b83f b713 c23f ae49 ad3f 4b48 c23f
00000090: ec45 b43f 782b bc3f ef40 b03f 689d d93f
000000a0: 28b9 db3f 29a0 fd3f 666e d23f 6f16 ac3f
000000b0: 08b0 9e3f f7ec e23f 6fc2 ba3f 6b31 ac3f
000000c0: be32 933f e108 cb3f 235c c33f 21a2 c73f
000000d0: 623f a13f 73e1 a93f 7f37 993f 4d62 0140
000000e0: e0eb cc3f 30f0 d63f fcf6 a83f eb74 c33f
1.5788155 1.6373854 1.4958442 1.4560623 1.4161874 1.5293368 1.2892715 1.4945765
1.3536838 1.6570387 1.5129695 1.5225657 1.2722049 1.528078 1.3249075 1.5951054
1.5994948 1.5738065 1.6559067 1.2803273 1.5198034 1.5384595 1.6137561 1.2097459
1.4787133 1.5457716 1.4853144 1.6744833 1.4315275 1.7500601 1.7640406 1.5242183
1.4398402 1.5162266 1.353811 1.5178312 1.4083838 1.4700766 1.3769816 1.7001162
1.716588 1.9814502 1.6439941 1.3444346 1.239747 1.7728566 1.4590586 1.3452581
1.149986 1.5862085 1.5262493 1.5596353 1.2597468 1.3271927 1.1970061 2.0216248
1.6009483 1.679205 1.3200374 1.5270056

bias f4 [60]
00000000: d974 29bf 0dd6 24bf a79f 86be 1e3d 0dbf
00000010: 7e93 56be a30d b1be 8848 27bf 7e04 6abe
00000020: bbe5 63be d5a5 e8be 8e4c c4be f503 b6be
00000030: af4d abbd 287a e6be 57c9 a1be fe4c 96be
00000040: 23c5 13bf 2903 aabe 912a d8be 8a87 dbbe
00000050: a903 babe bf9f e9be 3a82 e1be 8d61 05bf
00000060: 3b73 febe ac4f b3be 9c31 e2be 5c18 28bf
00000070: ad6e adbe 50f3 21bf d23b 35bf 636e 29be
00000080: 96f0 e7be ddbb 0dbf 35b0 89be ac10 dfbe
00000090: 1324 b3be 2196 03bf 6ad1 8dbe a8d5 edbe
000000a0: 8d6c febe cfce b2be 2a93 86be 5c72 b2be
000000b0: 6430 92be a1c4 9ebe 49af 9dbe b9f0 bcbe
000000c0: ff28 dcbe a564 b3be 0355 a4be 91b7 2fbf
000000d0: 589e 2dbf 7733 c0bc 6885 f8bd 07d8 41bf
000000e0: e30a 0dbf f6b9 dabe 7cec b1be eebf e8be
-0.6619392 -0.64389116 -0.2629368 -0.5517138 -0.20954701 -0.34580716 -0.6534505 -0.22853276
-0.22255604 -0.4543902 -0.38339657 -0.35549894 -0.08364426 -0.45015073 -0.31598923 -0.29355615
-0.5772268 -0.33205536 -0.42219976 -0.42876846 -0.36330917 -0.4562969 -0.44044667 -0.52101976
-0.4969729 -0.35021722 -0.44178474 -0.6566217 -0.338735 -0.6326189 -0.70794404 -0.16546015
-0.4530074 -0.5536478 -0.26892248 -0.43567407 -0.3498846 -0.51400954 -0.27698833 -0.4645207
-0.49692193 -0.34923407 -0.26284152 -0.34852874 -0.28552544 -0.3100939 -0.30797794 -0.36902407
-0.43000028 -0.35037723 -0.3209611 -0.68639475 -0.6781974 -0.02346204 -0.1213482 -0.75720257
-0.55094737 -0.42720002 -0.34750736 -0.4545893

running_mean f4 [60]
00000000: 42da 92bf 73ed bfbe ecbd a9be 4ecd 34be
00000010: f75e acbe cf0b 0dbf ebed 6fbf 401c a9be
00000020: a022 a73e 9501 26bf 9563 19be 6aa3 89be
00000030: 60f0 84be 5e58 7cbf 185e 20bf 5d45 01bf
00000040: 0055 9cbe 8b46 c1be 5346 5dbf 3f43 213f
00000050: 5efc 27bf 27c7 a9bd deb6 f63d f00c 35be
00000060: f409 f1be fde2 cebd 1578 dcbe 04c5 61bf
00000070: f831 11bf 1255 edbd 090e 82bf 0a4e fbbe
00000080: e741 26bf e87c b8be dde4 2a3e 7285 5dbe
00000090: 48f2 fcbe 0e35 70bf 61de a63e b88b 89be
000000a0: eecd 17bf 907d 35bf 81ed c6be 1810 f2be
000000b0: 8cff e5be d4b0 37bf 7f62 bebe abe1 6e3e
000000c0: 31f6 2d3e de7b 33bf c575 5bbf f390 13bf
000000d0: 23cc cc3e a21e 3ebe 1d2b 243f 1ae9 8fbf
000000e0: 8e5e 8abf e25d 3fbf 8dc8 2cbf 714b acbe
-1.1472857 -0.37485847 -0.3315271 -0.17656443 -0.33666202 -0.55096143 -0.9372241 -0.33029366
0.32643604 -0.64846164 -0.14979394 -0.26882488 -0.25964642 -0.9857234 -0.62643576 -0.50496465
-0.305336 -0.37749133 -0.8643543 0.62993234 -0.65619457 -0.082899384 0.12046598 -0.17680717
-0.47077906 -0.10101888 -0.43060365 -0.88191247 -0.5671687 -0.115884915 -1.0160533 -0.49082977
-0.6494431 -0.36032796 0.16688867 -0.21632937 -0.49403596 -0.93830955 0.32591537 -0.2686441
-0.592986 -0.7089472 -0.38853076 -0.47277904 -0.4492153 -0.71754193 -0.37184522 0.23328273
0.16988446 -0.7011088 -0.8572658 -0.5764305 0.39999494 -0.18566373 0.64128286 -1.1243012
-1.0810106 -0.7475263 -0.67493516 -0.33651307

running_var f4 [60]
00000000: 447c 053f 5f4a 9c3e d61f c43e d625 8f3e
00000010: c79f ba3e 3d87 1a3f db00 313f 5b74 813e
00000020: 3fd2 753e e41a 923e 93b6 683e 1a90 903e
00000030: 150b 343e 9f8a 883e aad1 183f ea2c d43e
00000040: 1d56 aa3e 3f8b 6e3e 6549 133f add2 e93e
00000050: c93b 763e 0673 193f f6ad 9f3e 883a c43e
00000060: d29f 7a3e 7a23 873e 404c e43e 78a2 0c3f
00000070: 2c2b 963e 3949 ab3e 357f ac3e 32a7 bc3e
00000080: 3249 883e 17f8 c93e 47ea 9d3e 9e7e 993e
00000090: 6ffd db3e 7f7d 183f 010c c73e 798a 5e3e
000000a0: 2495 e73e 1efb bc3e b65d 9d3e d603 f53e
000000b0: dd26 d93e d858 913e df6e be3e 27ce 9e3e
000000c0: 888a 783e 1cfe 273e 9e5c 873e 27db b43e
000000d0: 3f77 a53e 0a12 993e bb02 163f 65e3 573f
000000e0: b508 e43e 496a c63e d3b8 0e3f 2508 a23e
0.5214274 0.3052549 0.3830554 0.27958554 0.36450025 0.6036261 0.6914193 0.25284085
0.24005984 0.2853614 0.22725897 0.2823494 0.17582352 0.2666826 0.5969492 0.41440517
0.33268824 0.23295306 0.57533866 0.45668545 0.24046244 0.59941137 0.3118741 0.38325906
0.24475029 0.26394254 0.44589424 0.5493541 0.29329813 0.33454302 0.336908 0.3684631
0.26618344 0.3944709 0.30842802 0.29979414 0.42966792 0.5956649 0.38876346 0.2173251
0.45230973 0.36910337 0.30735558 0.4785449 0.42412463 0.28388095 0.37193963 0.31016657
0.24271595 0.16405529 0.2643785 0.3532345 0.3231754 0.29896575 0.58597916 0.8433135
0.44537893 0.38752964 0.5575077 0.3164684

weight f4 [60]
00000000: ec1f e03f 5d0f 1a40 280b f13f 34e5 ee3f
00000010: 2802 ff3f c542 3440 57f0 da3f 2ec1 dd3f
00000020: e0e3 e23f 3106 4040 28bc 0a40 ba78 d83f
00000030: eca9 2140 dfc0 0440 52dd c73f 26d9 1340
00000040: 7e92 2540 48ae 4a40 a55d 2d40 c9db e33f
00000050: a49b 3040 f047 4040 cf0e 2f40 a62c 3040
00000060: a66d 1140 45ee 2940 c55e c23f 7141 4040
00000070: bf25 f23f 9aa3 0e40 c00d 0340 db38 3d40
00000080: db36 1a40 04d4 0d40 db56 1240 7f99 e13f
00000090: a35b 2b40 3971 d93f 18f7 3040 b001 1440
000000a0: 43e1 4740 1b2f 3a40 34d5 0840 7973 cb3f
000000b0: 0257 f83f a930 3b40 0dfd 0b40 d363 cc3f
000000c0: 972b 2e40 4d45 f03f 1d92 2540 d2b8 4840
000000d0: 9f42 d73f 1148 de3f 3e86 0040 296d f03f
000000e0: ce01 2a40 136b 0e40 9007 1740 cbeb 3f40
1.7509742 2.4071877 1.883153 1.8663697 1.9922533 2.8165753 1.7104596 1.7324579
1.7725792 3.000378 2.1677341 1.6911843 2.5259962 2.074272 1.5614417 2.3101287
2.5870662 3.1668873 2.7088406 1.7801448 2.7594995 3.0043907 2.7352788 2.7527251
2.2723174 2.6551678 1.5185171 3.0039942 1.8917769 2.2287354 2.0477142 2.9565952
2.409598 2.2160654 2.2865512 1.7624968 2.677468 1.6987678 2.7650814 2.312603
3.123124 2.909125 2.138013 1.5894614 1.9401553 2.924845 2.18732 1.5967964
2.7214105 1.8771149 2.587043 3.1362805 1.6817206 1.7365743 2.0081935 1.8783313
2.6563601 2.2252853 2.3598366 2.9987667

bias f4 [60]
00000000: 1502 60bf fa92 39bf c482 96bf 5a27 8fbf
00000010: 78e5 9abf 7e9f 57bf f347 80bf 785f 85bf
00000020: 6eaf 8ebf d6f0 16bf d0d5 28bf 0656 a5bf
00000030: 25eb 66bf f473 26bf 75b3 6dbf 77f4 e7be
00000040: 4afc 80bf 8ef0 a5bf 4da4 8dbf 634f a5bf
00000050: 350f 71bf 20b7 7ebf b2be 81bf 3682 c0bf
00000060: 7d36 71bf 7a39 7cbf 82b2 50bf ceae 7abf
00000070: f566 8ebf 73cc 90bf 74ea 8dbf 3901 f2be
00000080: 635a 69bf 610d 8fbf f65e d1bf b8eb 99bf
00000090: 0418 dcbf d0a3 7fbf 51f4 19bf 8004 22bf
000000a0: b1bf 41bf beef 8dbf aea7 19bf c962 4fbf
000000b0: d40a 96bf 4bc3 6bbf 9483 5dbf 854d 57bf
000000c0: 4017 68bf 0321 96bf 7a64 25bf 71de 94bf
000000d0: eaa4 99bf 472a 7fbf c7bd e0bf 0262 a7bf
000000e0: 8ab4 74bf 5f4d 14bf a983 1dbf 2012 d7bf
-0.87503177 -0.72489893 -1.1758657 -1.1183884 -1.2101278 -0.8422774 -1.0021957 -1.041976
-1.1147287 -0.58961236 -0.6595125 -1.2916877 -0.9020255 -0.6502068 -0.92851955 -0.453037
-1.0076993 -1.2964036 -1.1065766 -1.2914852 -0.9416383 -0.99498177 -1.013632 -1.5039737
-0.9422377 -0.985252 -0.8152238 -0.9792298 -1.112517 -1.1312393 -1.1087174 -0.47266558
-0.91153544 -1.1175958 -1.6357105 -1.2025061 -1.7194829 -0.99859333 -0.6013842 -0.63288116
-0.7568312 -1.1088789 -0.60021484 -0.8101011 -1.1722054 -0.9209487 -0.865289 -0.8410266
-0.90660477 -1.1728824 -0.6460644 -1.1630384 -1.2003453 -0.99673885 -1.7557915 -1.3076785
-0.9558798 -0.5793056 -0.6152902 -1.6802406

running_mean f4 [60]
00000000: c118 b1bc 83c0 133d fe82 203c 1153 78be
00000010: 3787 f6be 0820 26be 27c3 67be a977 5ebe
00000020: bcd9 09bf 5fa4 b73d a456 a23c db6f ad3e
00000030: 3a51 403c eeef ebbc cfe9 41bf 6804 d9bd
00000040: d2a6 83bd 7506 92bd 1d69 e6be 6752 c6be
00000050: 9a52 533c 76fa 3dbe 3222 99bd 544e 80be
00000060: 19c6 91bc 6ca4 693c 0749 2fbf e0d4 74be
00000070: 5edc afbe 54ee 04be 23d6 193e 2c25 4c3d
00000080: 8250 6cbd 1430 65bd d95b 70be 2376 05bf
00000090: 2274 5b3d fda7 c73d 26a7 693c 8fd4 1cbe
000000a0: 12e4 d3bd 4b1f 87be b000 26be a9bc b3be
000000b0: f81e dd3d 88b1 b5bd 18f3 0dbe 4457 c4be
000000c0: 1a53 2dbe 02a2 91bd 7c1b db3d 0f22 80bd
000000d0: 3678 e23e 2297 9abe 3206 6cbd 4837 9b3e
000000e0: b994 eabd bbbf acbd 9932 18be c781 15be
-0.021618249 0.036072265 0.009796856 -0.24250437 -0.48150036 -0.16223156 -0.22633038 -0.21725334
-0.5384786 0.08966898 0.019816704 0.338744 0.011738116 -0.02880093 -0.7574739 -0.105965436
-0.06428303 -0.07130138 -0.4500207 -0.38734743 0.012898112 -0.18552575 -0.07477225 -0.2505976
-0.017794656 0.014260393 -0.68470806 -0.2390933 -0.34347814 -0.1298154 0.15023093 0.049840137
-0.057693966 -0.055954054 -0.23472537 -0.5213339 0.05357755 0.09748838 0.014261043 -0.1531546
-0.10346235 -0.26391062 -0.162112 -0.35104874 0.107969224 -0.08871752 -0.13862264 -0.38347828
-0.16926232 -0.07110979 0.106986016 -0.06256496 0.4423234 -0.3019343 -0.057623096 0.30315614
-0.11454148 -0.08435007 -0.14863051 -0.14600287

running_var f4 [60]
00000000: ab6d 493e 420a 033e b857 4f3e aed9 883e
00000010: 5cf2 4f3e bbd4 313e 8c48 963e 8a26 8b3e
00000020: 49f5 833e 0291 593e 45a9 443e 9829 453e
00000030: ef5b 393e 5b11 323e 1fbc 7a3e 4daa 5e3e
00000040: d6c2 1f3e 988c 483e 540e 2c3e aa8e 8c3e
00000050: 9488 523e 9a23 823e 38a2 5a3e 35d2 343e
00000060: 6a88 2f3e 1118 683e 6f85 623e 40a5 773e
00000070: 7d13 6a3e 0d49 573e e541 273e aa29 8f3e
00000080: b8d7 393e d908 763e 97d7 483e 17b5 813e
00000090: dc9b 543e 79ea 173e b4d0 5d3e f61c 2f3e
000000a0: 2582 333e 02b8 533e 076d 423e 1651 863e
000000b0: 7ad6 633e f91d 383e b038 1c3e 58a5 873e
000000c0: 521a 513e 664c 333e 1c9f 3c3e 010f 2d3e
000000d0: 0065 4a3e 3215 5c3e ce1d 743e e20a 373e
000000e0: 03c9 283e f687 3a3e 0046 583e c5ed 773e
0.19670741 0.12796882 0.20248306 0.26728576 0.20307297 0.17366306 0.29352224 0.2717784
0.25773075 0.21246722 0.19205196 0.19254148 0.18101476 0.17389433 0.24485825 0.21744652
0.15601668 0.19584882 0.16802341 0.27452594 0.20559913 0.25417787 0.21350944 0.17658313
0.17141882 0.2266543 0.22121213 0.24184132 0.22858997 0.2102396 0.1633373 0.27961475
0.18148696 0.24026813 0.19613491 0.25333473 0.2076258 0.14835538 0.21661645 0.17100891
0.17530115 0.20675662 0.18986903 0.2623374 0.22249785 0.17980184 0.15256 0.26493335
0.20420197 0.17509612 0.1842007 0.16900255 0.19765091 0.2149246 0.23839495 0.17875245
0.1648293 0.18215927 0.21120453 0.24211796

weight f4 [2, 60]
00000000: 0bd0 0ebf 65dd ac3f 5516 7cbf ce54 4bbf
00000010: 9ea7 35bf 8306 a83f b0e0 68bf fb5e 8dbf
00000020: 8ccc 8fbf e5f9 9d3f a380 663f 2d02 6dbf
00000030: f2c4 883f 0e63 593f 61f6 94bf 5366 973f
00000040: 9629 923f 4849 953f ad12 cb3f 4093 83bf
00000050: 4f9c 9c3f 9c78 ae3f a339 823f c222 e03f
00000060: b0cf a13f 0953 973f 0b9c 84bf d2f4 983f
00000070: afaf 74bf c437 c33f 2d4d 7cbf a0ed 8b3f
00000080: e7b9 b43f 528a 9a3f b863 98bf c772 8fbf
00000090: 0ddf c93f bc14 61bf b9a6 a23f 20c3 9d3f
000000a0: 280c 903f 2876 b73f 1ecd a33f f8c5 54bf
000000b0: 828c 3abf 76cf 8f3f eae2 8d3f f7e3 35bf
000000c0: 5ee2 863f eeb7 84bf 65f3 8e3f 08bd da3f
000000d0: 1c92 3fbf a507 88bf 58fa aabf 36b4 89bf
000000e0: 7df1 9c3f 0502 783f 9508 a33f 864a b63f
000000f0: 1b8d 473f 94aa b5bf 63df 8a3f a4ef 643f
00000100: e745 7c3f 2d14 b4bf 3be0 8e3f 1422 683f
00000110: bc3b 713f 3034 7bbf f9c2 aabf 969b 4e3f
00000120: 5f6d a2bf 4869 b4bf 0265 623f 3243 7bbf
00000130: e903 aebf 4278 cabf 3d77 a7bf 90df 933f
00000140: 19c2 8cbf 2804 c0bf 9505 9bbf 541f c1bf
00000150: 334c a4bf 40e5 9dbf b226 773f 3c54 b6bf
00000160: ec9a 753f 0ec6 83bf 0069 383f 253f 85bf
00000170: 4cf2 8dbf c778 b0bf aab8 7f3f 0ce1 9b3f
00000180: 1c4b 9fbf 603a 753f bbe8 83bf 0002 9fbf
00000190: ed51 98bf 8203 89bf ae5d aebf 4e68 3f3f
000001a0: dfd1 693f e62f bcbf 8b3e a3bf 147c 8c3f
000001b0: 4d05 c4bf 03ba 4e3f 9aa5 7fbf dfc3 aebf
000001c0: bc92 553f f197 533f 1a5c 8e3f 2bf5 293f
000001d0: e93d 9bbf 1e01 84bf 8e1d 59bf 3142 c3bf
-0.557862 1.3505064 -0.98471576 -0.79426277 -0.7095889 1.3126987 -0.90967846 -1.1044611
-1.1234298 1.2341887 0.90040034 -0.92581445 1.0685103 0.8491677 -1.1637689 1.1828102
1.1418941 1.1662989 1.5865074 -1.0279312 1.2235202 1.3630557 1.0173839 1.7510607
1.2641506 1.1822215 -1.036012 1.1949713 -0.9558057 1.5251393 -0.9855526 1.0931892
1.4119233 1.2073462 -1.1905432 -1.1206902 1.5771195 -0.87922263 1.270713 1.2325172
1.125371 1.4332933 1.2796972 -0.83114576 -0.7287065 1.1235187 1.1084874 -0.7105097
1.0537832 -1.0368631 1.1168028 1.7088938 -0.7483232 -1.0627333 -1.3357649 -1.0758121
1.2261196 0.9687808 1.2736994 1.4241493 0.77949685 -1.4192681 1.0849422 0.8942816
0.9854416 -1.4068657 1.116218 0.90677 0.9423177 -0.98126507 -1.3340751 0.80706155
-1.2689627 -1.4094629 0.88435376 -0.98149407 -1.3594943 -1.581795 -1.3083264 1.1552601
-1.0996734 -1.5001268 -1.2111079 -1.5087686 -1.2835754 -1.2335587 0.9654342 -1.4244456
0.9593952 -1.0294816 0.7203522 -1.0409895 -1.1089568 -1.3786858 0.9989115 1.2178054
-1.2444797 0.957922 -1.0305399 -1.2422485 -1.1900002 -1.0704195 -1.3622339 0.7476853
0.9133586 -1.4702117 -1.2753462 1.0975366 -1.5314118 0.8075258 -0.9986206 -1.3653525
0.83427024 0.8265372 1.1121857 0.6638972 -1.2128268 -1.0312841 -0.8481072 -1.5254575

bias f4 [2]
00000000: 21ef 133f d746 f5be
0.57786757 -0.4790561
