dataset/ppi5/0.003_1000/model.pth (torch, 58990 bytes, 20 tensors)

bias f4 [60]
00000000: 260b 373d 4d8a 2f3d d203 0c3d abf4 5b3d
00000010: 7a5d ddbd db2b 353c 0c51 a93c b007 203d
00000020: b16f 57bd b72c 4d3e 33cb 093d a36a 1b3e
00000030: 676b bd3a 754e 46be 1d5f 233d 8874 babb
00000040: 0eb8 8cbc ab8b 173d eda2 8f3c 03bf 9e3d
00000050: 19cd 0b3d 3d70 883c 8a1d 56bc 2c3f 90bc
00000060: 3f59 cdbd 9881 2ebd d7a3 e2bd 4c28 383d
00000070: c4e9 f4bc 74a4 ac3d ff02 edbd f1b0 afbd
00000080: 44c0 58bc bf7f e73d c1f9 653e b789 abbd
00000090: 8f89 063d ee4f ac3c 28fb d83c 9786 10bd
000000a0: 17ee 2dbd 01d8 7f3d f3be 4fbd b395 773c
000000b0: e2db ac3d 67b6 40bc bd54 6cbd 2b55 013e
000000c0: c15e dabd 926d 4abc 7a15 2c3c 1842 473d
000000d0: a8e2 b9bc fe1f 9b3d d1aa 87ba f9fb 4ebe
000000e0: 1f76 b93d e842 ecbc 7e84 cd3d 3835 79bc
0.044688366 0.042856503 0.03418333 0.05370013 -0.10808845 0.011057819 0.020668529 0.03906983
-0.05259675 0.20036589 0.03364105 0.15177397 0.0014451564 -0.19365866 0.03988563 -0.005690161
-0.017177608 0.036998432 0.017533744 0.07751276 0.034131143 0.016655082 -0.013068566 -0.017608248
-0.10026788 -0.04260406 -0.11066406 0.044960305 -0.029896624 0.084298044 -0.11572837 -0.08578671
-0.013229433 0.113036625 0.22458555 -0.083758764 0.03284603 0.021034207 0.026486948 -0.035284605
-0.04246339 0.062461857 -0.050719213 0.015111375 0.08440377 -0.011762238 -0.057698 0.12630145
-0.10662604 -0.012355225 0.010503167 0.048647016 -0.022691086 0.075744614 -0.001035059 -0.20213307
0.09055733 -0.028840497 0.100350365 -0.015210442

weight f4 [60, 50]
00000000: 2bb5 30bd 2137 683e b8c7 61bf c358 9ebe
00000010: 1f7e c0be fbd1 8a3e aa85 ca3c 783f 1f3e
00000020: ab25 4b3e 0689 0d3d db08 8f39 8cbc d9bd
00000030: e38f 2cbe 0eea 3ebf 4d6b d83e 9871 233e
00000040: 1772 9d3d 88c6 a0be e685 ae3e 51f9 2fbe
00000050: 9152 80bf db97 37bd 2482 073e 22f9 0d3e
00000060: a256 64bf 24ba 2fbf 62ef a93e ec4d dfbe
00000070: d5ec ed3e e322 b8be 75b5 e8be 5b3d 29bf
00000080: a6e1 bb3d 988f 90bd 77bd 553d 31a0 4f3d
00000090: aafc 633e 9e2c 20be 25a3 8f3e b9e4 773e
000000a0: 627e 723d 04d1 b83c 56a6 d03e 6a2e 1a3d
000000b0: 14f2 93be 75e4 ec3e d433 44be 794f a83e
000000c0: 7518 5dbe 2833 513c d9e0 693e 1f6f fdbe
000000d0: f35f 9b3e 9399 34bd 8a8f 403f 7801 433e
000000e0: c282 22bf 732e 383c f54b 853d 1b46 1bbc
000000f0: 838d 363e 93cd c8be 841e 543d e3c1 c93b
00000100: aaa6 fcbd 61e2 a23e 0f72 15be 32b8 453e
00000110: 553a febe 8332 763d 88dd 71bd b394 c9bd
00000120: 0a72 58bf 5484 fdbe 7bde 01bf 8c3e edbe
00000130: 10c0 fa3d e80b 2d3e c76c 0abf f31c 6e3c
00000140: bf16 a23e 8eab a53e 5944 0fbf b846 df3d
00000150: 382d 1bbe 4331 0e3e 2093 30be 8303 133d
00000160: 2a9b 01be 1ff0 2fbe a9e5 d23d e49f dcbe
00000170: 517f 233e a01e b0bd 9526 afbd d955 dc3e
00000180: f0cf df3e 3c91 66be 96dd 8dbd 144b 5cbe
00000190: e77f 46bd cd4c 9e3e c466 47bf 7113 783e
000001a0: f7f4 08bf ea36 3dbf d6d6 38bf 9f09 18bd
000001b0: d839 9bbc 567f 5f3e bee4 e03c 0f6f e2be
000001c0: 3fcf 173e a611 2f3b 1ef7 053f 7af2 d43d
000001d0: 9373 ad3d d6cd 4e3e 8ec2 e43c 352e c43e
000001e0: e550 d1be 27f7 583d 4794 54be 1b92 663b
000001f0: 0340 aabc 83d2 82bd 11e6 bc3e 01b8 39bf
00000200: a054 05be f3e9 1fbf 445f 5e3e 3603 13be
00000210: fb0f 10be bf2d 54bf c851 513e f12e 053e
00000220: 3ed2 ec3e 7748 4bbd 4101 033f 6c37 1e3f
00000230: ee6a 4e3d c49e 3bbe e72b 3c3d 5531 96be
00000240: 82d2 193e 1313 acbe 2c0a 8dbd 527e b03d
00000250: 2216 243e d002 4c3e 5ba8 a03d 3486 38bf
00000260: 2fc9 873e a926 15bc 7387 573e 5e06 9ebd
00000270: 2268 2fbe 86aa 533e eff0 50bb 088a c5bd
00000280: c2f3 2fbe 01e4 873e 9a9b 29be 07f8 e33e
00000290: 1401 13bf 228e 13be 6c3d 2b3d 91a8 c23e
000002a0: b17f 973d e183 99bd 685e 35be 5ce1 88bd
000002b0: 7d54 ab3e 1fc1 c33e b1c5 a83e 1488 613e
000002c0: 2511 09be c16e 8f3e 2a54 f53d b2ea 05bf
000002d0: 407d 06be ad53 c2be 3183 813e 5c4f 733e
000002e0: 5910 903e 97a2 b2be f443 46be 50d5 5fbe
000002f0: c47d 8c3d 6ac0 3dbe 7700 80be 23d6 ebba
00000300: 09ca 363e 4d30 433e 9561 9cbe 9025 cc3e
00000310: 7a95 44be 5bdf 593e b1c4 2d3f 64e1 4f3e
00000320: de23 a7be b0da d5bd bdf5 553e 8b9b c4be
00000330: e58a bebe 9ec7 9cbe 5d54 88be 0844 e33e
00000340: 0ee5 903b 4956 c73e a415 8c3d 17e4 e3be
00000350: 3495 7dbc cc8b 2abe 4912 db3e 9181 653e
00000360: 04f3 463e d863 0c3e 5e12 37bf 04fb 8f3d
00000370: ec87 873e cc1b f23d 9489 c0be 2c41 c5be
00000380: 0afe f6be 78f4 e23d 63f9 403e 9c84 cabd
00000390: 9e54 7bbe 712a 91bf 196c a9bb 7dbb f0bd
000003a0: 4a3b 21bd 6379 e93e 1bda 66be 6942 043e
000003b0: 9d21 713e 7fc9 223e c6bf 28bf 25e7 5ebe
000003c0: 02d8 38bd 8f99 9e3c 8a1e 1fbe accd 1dbe
000003d0: 2879 113f bf28 2a3e 9186 a6be 003c ecbd
000003e0: c872 9abe 7fc1 86be 00b9 023e 7d9f bfbd
000003f0: 5fb6 8a3d d17d e03e 796b 8f3d 87ee 72bd
-0.043141525 0.2267728 -0.8819537 -0.30927095 -0.37596223 0.27113327 0.02472194 0.15551555
0.19838588 0.034554504 0.00027281683 -0.106316656 -0.16851763 -0.7457589 0.42269364 0.15961301
0.076877765 -0.31401467 0.3408653 -0.1718495 -1.0025197 -0.044822555 0.13233238 0.13864568
-0.8919469 -0.68643403 0.33190447 -0.43614137 0.4646975 -0.35964116 -0.4545094 -0.66109246
0.091738984 -0.07058638 0.05218264 0.05068988 0.22264352 -0.1564202 0.28054157 0.24208345
0.05920256 0.022560604 0.40751904 0.03764192 -0.28895628 0.4626805 -0.19160396 0.32873133
-0.21591361 0.012768544 0.22839679 -0.4949884 0.3034664 -0.044091772 0.75219023 0.19043529
-0.6348077 0.011241543 0.06508628 -0.009477164 0.1782742 -0.3921934 0.051786914 0.0061571463
-0.12336476 0.31813338 -0.14594291 0.19308546 -0.4965388 0.060106765 -0.05904916 -0.09842815
-0.8454901 -0.4951502 -0.50730103 -0.46336782 0.12243664 0.16899073 -0.5407223 0.014533269
0.3165798 0.32357448 -0.55963665 0.109021604 -0.15153968 0.1388598 -0.17243624 0.03589202
-0.12656847 -0.17181443 0.102977104 -0.43090737 0.15966536 -0.08599591 -0.08552281 0.43034247
0.4371333 -0.2251634 -0.0692703 -0.21513015 -0.04846182 0.3091797 -0.7789118 0.24226166
-0.53498787 -0.7391192 -0.72202814 -0.03711855 -0.01894848 0.21825919 0.027452823 -0.44225356
0.14825152 0.00267134 0.52330196 0.10397811 0.0846931 0.20195708 0.027924802 0.38316503
-0.4088203 0.052970078 -0.20759688 0.00351823 -0.020782476 -0.06387808 0.36894277 -0.7254639
-0.13020563 -0.62466353 0.21716028 -0.14356694 -0.14068596 -0.82882303 0.20441353 0.13006188
0.46254152 -0.049629655 0.5117379 0.6180332 0.050394945 -0.18322283 0.045940306 -0.29334512
0.15021709 -0.33608302 -0.06886706 0.08617844 0.16024068 0.19922948 0.07844611 -0.7207978
0.26520678 -0.009103456 0.21047764 -0.07716058 -0.17129567 0.20670518 -0.003188189 -0.09645468
-0.1718283 0.2654114 -0.16563264 0.44525167 -0.5742352 -0.14409688 0.041806623 0.3801923
0.07397402 -0.07495857 -0.17711794 -0.06683609 0.33462897 0.38233277 0.32963327 0.22024566
-0.13385446 0.28014186 0.11978944 -0.5231124 -0.13133717 -0.37954465 0.25295404 0.23760742
0.28137472 -0.3488967 -0.1936186 -0.21858716 0.068599254 -0.18530431 -0.25000355 -0.0017992895
0.17850508 0.19061394 -0.305432 0.39872408 -0.19197646 0.2127661 0.6787825 0.20300823
-0.32644552 -0.10442102 0.20894523 -0.3839992 -0.37215343 -0.30621046 -0.26626864 0.4438784
0.0044218367 0.38933018 0.06840065 -0.44509956 -0.015477467 -0.16654891 0.42787388 0.22412707
0.1942864 0.13709962 -0.715124 0.07030299 0.26470888 0.11821708 -0.37604964 -0.38526285
-0.4824069 0.11081785 0.18845133 -0.098885745 -0.24543998 -1.1341077 -0.005170357 -0.117545106
-0.039363183 0.45600423 -0.22544138 0.12915958 0.23547979 0.15897177 -0.65917623 -0.21767862
-0.045127876 0.019360332 -0.15538993 -0.15410489 0.56825495 0.16617106 -0.3252454 -0.115348816
-0.30165696 -0.263195 0.12765884 -0.09356592 0.06773066 0.4384599 0.07002921 -0.05930951

bias f4 [60]
00000000: 5606 133e b9f5 053d 2f4b 983d b9e3 58be
00000010: edec fdbc 32f3 7e3e 54c9 c93d 2512 a5bc
00000020: 0ace 003d 34b7 a43c a84c 5a3d 82c0 243d
00000030: deb5 b4bc 7e70 ddbd bf66 93be f911 b63d
00000040: 444a 95bd fc3e d5bc 45b2 87be 7bed 64bd
00000050: a8de cebd 6b24 e1bc a3b0 eabd c790 b93d
00000060: 6279 02bb 1f6e 233d 0710 213e 65f5 5abe
00000070: 5582 c03c 6bd0 1e3c d398 29be f16b be3e
00000080: 0cd4 613c ed3e d7bd f57e edbd e7c1 2e3d
00000090: a0ee 0b3d c969 c93c 1c4b 4f3d f57b 52bd
000000a0: c3de 923d 4c6b 7ebe 6130 de3d b418 a73c
000000b0: 60f8 8cbd 5c17 a93d 1f23 043e bdb5 acbd
000000c0: 3041 733c ae77 a7bc bef5 1b3d ad67 9bbd
000000d0: abd9 413b dbc6 bf3d 49df eebc ec20 533c
000000e0: c655 55be d6e1 14be 4498 9fbe ea7e c93c
0.14357886 0.032705043 0.07436215 -0.2118062 -0.030996764 0.24897459 0.098528534 -0.020150254
0.031446494 0.02010689 0.05329576 0.040222652 -0.022059377 -0.10812472 -0.28789327 0.08890147
-0.07289556 -0.02603101 -0.26503196 -0.05589054 -0.10101062 -0.027483186 -0.11459472 0.09060817
-0.0019908776 0.03989994 0.1572877 -0.21382673 0.023499647 0.009693245 -0.16562204 0.37191728
0.013783466 -0.10510049 -0.11596481 0.04266539 0.034163117 0.024586575 0.05060874 -0.051387746
0.07171395 -0.24845618 0.10849071 0.020397522 -0.06883311 0.082564086 0.12904023 -0.08433101
0.014847085 -0.02044281 0.038076155 -0.07588134 0.0029579203 0.093641005 -0.029159205 0.012886267
-0.20833501 -0.14539275 -0.31170857 0.02459665

weight f4 [60, 60]
00000000: a405 86be b895 89be ca69 05be 0f9d 893e
00000010: 361c 923e ff4a 003e 17cf b8bc 0b36 fb3c
00000020: 084f 553e 874c 2abe 4358 41bd 9a9d 583e
00000030: ee42 4b3e 3f0b 97be 9d22 f3be 9a7b 11bf
00000040: e2e5 4ebe 751a 95be 3e6d 893e 8c56 e8bc
00000050: 5453 b43d a343 f1bd fcfd 1a3f 10b1 743e
00000060: 97ab 3bbe b447 4e3d c0b4 bf3e db68 1e3f
00000070: 655c 28bf 28ec 06be ba9c 37bf 2127 1dbf
00000080: 16f7 d0be 4319 9e3e 361d e43d 9ae7 433e
00000090: 973d 9dbe 03e9 a3be e788 55be 5257 4cbe
000000a0: db09 b0be 639f 44be 7a59 b9bb 0bf4 3abe
000000b0: 4ffd 93be bd61 913e e532 cabd e3e2 cabd
000000c0: b7e4 dd3e c1d2 22be 12df 503d d475 e03e
000000d0: 0099 b73d 360e 973d 73cc 163e c379 33be
000000e0: 80ff 7abe 18e6 553e d0f2 babe aa34 abbe
000000f0: ca9e a0bd 26a7 15bf 62e6 37bd 2a90 ffbd
00000100: ce71 bcbe 868a a73e b1d9 753e ac5b d1bd
00000110: e197 07bf 061c 0c3e 97b1 033e 8195 80be
00000120: 352b 9dbd cde6 fb3e 06ee f5bd a857 5b3e
00000130: 7aa9 b3be 0436 973e b6b2 f3bc 7a21 6ebd
00000140: 9539 8bbd 2459 b4bd aeae f7be c1b8 8abd
00000150: 37ef 4b3e ecb2 723e 2d25 593e b608 133e
00000160: cd8c e8be 3fdb 933d b4bb 133f e58f 23bf
00000170: b345 71be 67e1 79be 8df0 1bbd 7319 023f
00000180: 9ab1 f1bd 46f1 103e 2c15 17bf af74 e5be
00000190: 9d4b 1c3f c8fe a4be a010 433c 67bd 633c
000001a0: e3c3 21bf f362 1f3e b4e7 313e e222 09be
000001b0: 38f7 833e 1363 7fbe b9f0 113e d461 f23c
000001c0: 69bf 873e 1a57 a13e 4091 0fbd b2ee c53e
000001d0: 22a8 2a3e 8f52 94bc 0a20 e9be 4e30 3c3e
000001e0: 9f82 afbd b0cb 37bd f900 03bd 3af1 7e3e
000001f0: 756a a1be c19c 0c3e 34ef 9ebe 35e1 cabe
00000200: 059f bcbe 73bf f63e d5d4 ff3e d89d 7bbe
00000210: 5dd0 283e d5c1 f03e e59d 0c3e c3e8 313e
00000220: 4105 6b3d c797 c73d bf6e a5be be47 3c3e
00000230: b0d4 8a3d 2e1d 37bf f300 fcbd 8631 e2bd
00000240: a52b 023f d451 dabe dd98 b73d 1d93 f73e
00000250: 8960 ab3d ee44 92bd 4291 a8bd 2151 babe
00000260: 362a 0dbf 225a cabd 57c4 bbbd 55de abbd
00000270: 002d 29be 29f7 09bf 4311 afbe eb8f a5be
00000280: a915 d43e 21a6 3d3e 76a6 cf3c 9bdb 00be
00000290: 22bb 0e3f 9617 4fbe 02e8 653d 92c8 33be
000002a0: 7c9f a2bc 9c23 a63e af0c 1a3e aa8f 3d3e
000002b0: c022 0fbe 27e7 803e 1384 11be 3123 a13e
000002c0: 0a1d fdbd 91c6 ddbe 6c1b ca3e 8bab 12be
000002d0: 8fd2 4cbe bdb9 e3be a0a8 d03e d305 b93d
000002e0: 1599 213d cbe2 6ebc 3a74 063f c244 fcbe
000002f0: 1040 80bd 8e84 1e3e 5aa4 a4bd 943f 133e
00000300: 287f c43e 2ea2 733d d254 93bc 7a7d c43d
00000310: 6162 13be 7bc1 89bb 55a0 22bf f6e2 2fbe
00000320: bd21 a43e 9e71 98be eba1 893e b72f a1be
00000330: 49aa e1bd a868 de3e 1e57 f83e 47de 0bbe
00000340: a518 21be 21ec 4f3e 566c 863d fd3e 1bbe
00000350: f08d 36bf 3334 483c a7a8 8abe ec81 c6be
00000360: 2cd5 843c b6ef 663e 8f0c b8be 13a6 5c3d
00000370: a1c8 e33d d047 46be e237 adbd f6e0 92be
00000380: 3345 d3bd 70da 1b3b 27a0 2b3e 1fde 1c3e
00000390: f10b 363e b992 493e 00ca 9e3e 303c 2b3e
000003a0: 74cd b1be e67b fabe ffe1 d1bd a95b e2bd
000003b0: 84d5 7bbe ef09 36be a3d8 8ebe 4d25 d13e
000003c0: 2672 24be 33ef 09bd 5ff9 8abd 026c d3bd
000003d0: 0e7c 873d 316d c33e dc15 1cbe 674d 913e
000003e0: b819 f83d a8f3 69bd b786 c2bd a849 5abe
000003f0: 3bc2 fb3e 2135 9b3e 0d67 143d 014d c33d
-0.26176178 -0.2687204 -0.13028637 0.2687764 0.28537148 0.12528609 -0.022559686 0.030665418
0.2083093 -0.16630755 -0.047203314 0.2115387 0.1984975 -0.29500768 -0.47487345 -0.56829226
-0.20204881 -0.29121748 0.26841158 -0.028361581 0.08804956 -0.11780479 0.605438 0.23895669
-0.18327175 0.05036135 0.3744259 0.61878747 -0.6576598 -0.13176024 -0.7172352 -0.6138783
-0.40813512 0.30878648 0.11138384 0.19131318 -0.30711052 -0.3201371 -0.20853005 -0.19955185
-0.3438252 -0.19201426 -0.0056564184 -0.18257158 -0.28904197 0.2839488 -0.098729886 -0.099065565
0.43338558 -0.15900709 0.050993986 0.43839896 0.08964729 0.073757574 0.14726429 -0.17526917
-0.24511528 0.20888555 -0.36513376 -0.33438617 -0.078427866 -0.58458173 -0.044897445 -0.12478669
-0.36805576 0.32722872 0.24008824 -0.10222563 -0.52966124 0.13682565 0.12860714 -0.25114062
-0.07674257 0.49199525 -0.1200829 0.21420157 -0.35090238 0.29533398 -0.029748302 -0.058137394
-0.06798092 -0.08806065 -0.48375458 -0.0677352 0.19915472 0.23701066 0.21205588 0.14358792
-0.45419922 0.07219552 0.5770829 -0.6389144 -0.23561744 -0.2440239 -0.038071204 0.5082008
-0.11801453 0.14154539 -0.5901668 -0.44815585 0.61052877 -0.32225633 0.011905819 0.0139001375
-0.63189524 0.1556509 0.17373544 -0.13392213 0.2577455 -0.24940138 0.14251985 0.029587664
0.26513222 0.31511766 -0.03505063 0.38658673 0.166657 -0.018105773 -0.45532256 0.18377802
-0.08569836 -0.044871986 -0.03198335 0.24896708 -0.31526533 0.13731672 -0.31041873 -0.39624944
-0.36840072 0.4819294 0.49967065 -0.24571931 0.16485734 0.47022882 0.13732107 0.17373948
0.057378057 0.09745746 -0.32311055 0.18386742 0.06778848 -0.715289 -0.123048685 -0.11044602
0.50847846 -0.42640555 0.08964703 0.48354426 0.08368022 -0.071420535 -0.08230831 -0.3639002
-0.55142534 -0.09880473 -0.09168308 -0.08392016 -0.16521072 -0.5389276 -0.34192857 -0.32336363
0.41422775 0.18520404 0.02534793 -0.12583773 0.5575429 -0.20223841 0.056129463 -0.1755698
-0.019851439 0.32449043 0.15043901 0.18511835 -0.139781 0.25176355 -0.14210539 0.3147216
-0.123590544 -0.43315557 0.39474046 -0.14323251 -0.20002197 -0.44477645 0.4075365 0.09034314
0.03945263 -0.014580439 0.525211 -0.49271208 -0.06262219 0.15480253 -0.0803916 0.14379722
0.38378263 0.05948084 -0.017984781 0.09594245 -0.14392997 -0.004203973 -0.635259 -0.17176422
0.3205699 -0.29774183 0.26881346 -0.31481716 -0.110188074 0.4343922 0.48503965 -0.13659011
-0.15732057 0.2030492 0.06563632 -0.15160747 -0.7131033 0.0122194765 -0.27081797 -0.38770998
0.01621493 0.2255238 -0.3594708 0.05386932 0.11122251 -0.19363332 -0.084579244 -0.28687257
-0.10315933 0.0023781322 0.16760312 0.15319107 0.17777993 0.19684877 0.3101349 0.16722178
-0.3472706 -0.48922652 -0.102481835 -0.11052639 -0.24593168 -0.17777227 -0.27899656 0.4084877
-0.16059169 -0.033675384 -0.06785845 -0.10323335 0.066154584 0.38169244 -0.15242714 0.28379366
0.121142805 -0.057117134 -0.09498351 -0.2131716 0.49171624 0.30313972 0.03623109 0.09536172

bias f4 [60]
00000000: 803f 16be 7d5b 683d 44b1 edbd 706a ed3d
00000010: 2249 d43d 75d1 633c 1800 de3d a9c5 253e
00000020: c798 183d 7eaa 843b 6d03 4e3d 875e 07bd
00000030: 40be 39bd 7fdb 963d f985 e13a 9b7e 93bd
00000040: d2c7 f73d 461e 163e 8ba8 c33d b748 053e
00000050: 0e8d 703d 20bf 973d 5ef7 483c 1d1b 9b3d
00000060: bf5f b4bd 8251 1cbe f7b0 17be 2912 cebc
00000070: bc48 273e 18f2 cdbc 7b99 d8bd 31e9 f83c
00000080: f45a d53d 2974 003c d6e5 1a3e e621 463d
00000090: d711 26bb 4581 dcbb 2b1c 0ebe 3043 fd3d
000000a0: 42db b8bb 6789 dd3c c31d 0f3e 0446 81bd
000000b0: 038c 513d 9e05 ae3d 5f74 8d3d 9865 a83d
000000c0: 3f44 913d 503a a33c d596 563a 1c49 483d
000000d0: ab14 903d 0456 c23d fc91 803d fcd6 ed3b
000000e0: aa90 18bd cb9a b93c d04a c73d 5f86 b9bc
-0.14672661 0.056727875 -0.11606076 0.11592567 0.103655115 0.013904919 0.10839862 0.16188683
0.037255075 0.0040486446 0.050296236 -0.033049133 -0.045347452 0.07366084 0.0017206065 -0.072018825
0.120986596 0.14659986 0.095536314 0.1301602 0.05872827 0.07409501 0.012266008 0.07573531
-0.088073246 -0.15265468 -0.148136 -0.025155144 0.1633634 -0.025139853 -0.10576149 0.030384632
0.104177386 0.007840195 0.15126738 0.04837217 -0.0025340223 -0.0067292773 -0.13877933 0.123663306
-0.005641372 0.027043058 0.13976197 -0.063121825 0.051158916 0.08497165 0.06906962 0.082225025
0.07093095 0.019925267 0.0008185928 0.048897848 0.07035192 0.094890624 0.06277844 0.007258294
-0.037247337 0.022656819 0.09731066 -0.022647081

weight f4 [60, 60]
00000000: a5ff b23e 4cef b93e be40 d83e 2568 173f
00000010: 3530 423e e63e 1d3c 528d ffbe a722 75bd
00000020: af4b 8fbd 31ac 04be 91da 58bd a5a1 fd3c
00000030: 0653 153b ccab 883e d9df a0bd a006 a83e
00000040: 79d0 e8bc ce8c 46be e4dc 83be c2f0 0abf
00000050: c745 09bf fe0b ad3d 5db5 4cbd a6c9 4ebd
00000060: 314a 4abd cd7c abbd c017 d6be be9d bfbd
00000070: 5bfd 383e 6d41 e3bc 5b24 cf3e 9228 9abe
00000080: 8a82 eabd 580d 11bf 460e b2bb 8d7c f1bd
00000090: 6b8b 9f3d 9306 713d 6dbb 6f3e c4a7 b7be
000000a0: 07f5 0e3f 4c06 c43e 3907 3dbe 804a 88bf
000000b0: e502 9cbd 93ff b03e be29 5d3d 3b01 b63d
000000c0: bf22 153e eb54 e53e d5a4 123e dba4 d7bd
000000d0: 1383 e6ba 4d37 cb3d c55f bfbe 8f8c 173d
000000e0: 3fbc ba3e 10cc eebd fecc 6fbf 0eab c5be
000000f0: 55b7 a83e a90c 94bd 7005 64be aed4 a53d
00000100: 56f3 9bbe 4ba8 513e 986d 64be b163 fdbd
00000110: 2012 24bb df50 d0be 1d01 a0be c81d 7fbe
00000120: 84a9 babd 578b ab3e 302a 5bbe 01fa 763e
00000130: ccb5 0ebd e96d 4fbd 9707 9e3d a6ee 683e
00000140: 7849 c7bd e3e6 a9be 5805 26be 5684 d63e
00000150: 8ca3 6a3e b0b6 b53e ee49 57be fab3 a13d
00000160: 1e39 873d a239 0fbf 520f 0abe 69da 483f
00000170: 2fd4 9cba 9f2b bf3c a799 f2bc 6cce 063e
00000180: 8cde 7bbe aa0f 31bf 64c7 87be a2e4 5bbe
00000190: 524e 543e 7b29 9e3e dbe0 cd3e 5a23 823e
000001a0: 5087 9abe 886c 3b3e 09f1 e6be 49e9 9d3e
000001b0: 6ebd f93e e522 2ebe 6180 e0bd 81d0 67be
000001c0: 196c 97be c9bb 123e 1e4d c03e a684 abbe
000001d0: 2ee0 f53d 4d1d 01be 52d2 95bd 9418 5abd
000001e0: 15aa c83e 3d6a 17be ac89 e13d ef31 b6bb
000001f0: 017a 3abf e1c9 dabe aac5 37be ed2e 4f3c
00000200: bb01 a1bd ef60 da3d 6db8 e2be 130a cf3c
00000210: b592 4e3e c776 923e 1e4b 0e3e c1fc ad3e
00000220: b4f7 a73d 3a99 30be d933 bbbe 25b5 afbd
00000230: 2657 f43d 830c 32be 0f24 853d 7ee2 a2be
00000240: 06dc cbbd dd65 0f3f 65ea 0fbd c141 e1be
00000250: f808 e1bd c967 a53d 2d60 6a3e 55f1 c83d
00000260: e98f e1be 2e21 2dbf e7da 78be 1b56 cdbd
00000270: c7ca 22be 27bb 723c 4815 a93e 84ad 77bd
00000280: d794 a33e 5f76 693d 20ba f83e 938a acbf
00000290: 51af 6c3e 2e0b 173d 8c23 37be 50b8 fe3e
000002a0: f63a b93d fcab cc3d 2c35 adbe 37c0 9a3e
000002b0: dcdc 543d be95 8b3e cd0c 1abe 6612 55be
000002c0: 2573 873e b67d d4be d6c7 8f3d 711a 50be
000002d0: b062 a43e 8047 6b3e 4056 c33e b8ee 493e
000002e0: 0360 c1bc a9ae 74be 8186 b9bd 4785 acbc
000002f0: 1b3f 24bf 38df 473e a5b5 c1bd 2681 8bbd
00000300: 4944 4cbe c789 733d 29e5 7b3d 8b99 c5bd
00000310: e9e3 11bf 9ffe dcbd 170d 1f3e 14fa b13e
00000320: 9979 8dbe ffbc 693e 4b07 98bc 49d5 7f3e
00000330: a4ce a2be 08be 043f 8b0f 65be 8962 743d
00000340: c5f2 713e e39c a83d b5c7 803e 69ef debc
00000350: e7ca a5be 13b1 5f3e 362d 4c3e ac03 1a3f
00000360: cac5 adbe 3049 323d b685 3e3e fa87 1a3e
00000370: d30a 39bf 31c0 393d dc5b 533e 27be 95bd
00000380: 751b bbbe d9f4 53be 686e 79be fefa 6abe
00000390: bf77 cd3d 6c09 9dbe 33a2 0f3e 9ba9 2cbd
000003a0: 9853 b2be 5cd7 6e3e 36a3 5a3c 5c24 4f3e
000003b0: cda9 6f3e 45a4 323e 9a43 423d 2d53 b5be
000003c0: 56df 033f 2c51 6e3e 4e17 373e c5ed 9f3d
000003d0: f30a a43d 516e 19bf 79c9 87bd 3772 953e
000003e0: 12b7 8dbf 84da 323e 5405 34be 69ea 42bd
000003f0: f1df 35be f369 4f3e c71b 1d3e f16e 76be
0.34960666 0.36315382 0.42236894 0.59143287 0.18963702 0.009597516 -0.49912506 -0.0598475
-0.069968574 -0.12956311 -0.052942816 0.030960867 0.0022785082 0.2669357 -0.078551956 0.32817554
-0.02841972 -0.1938965 -0.25754464 -0.5427362 -0.53622097 0.08449553 -0.04997765 -0.050485276
-0.04938716 -0.08373413 -0.41814995 -0.09356259 0.18065397 -0.027741158 0.40457425 -0.30109078
-0.114506796 -0.56660986 -0.0054338304 -0.11791334 0.07790264 0.05884416 0.23411341 -0.35870183
0.5584263 0.38286054 -0.18459786 -1.0647736 -0.076177396 0.34569988 0.053994887 0.088869534
0.14564036 0.4479135 0.14320691 -0.105294906 -0.0017586671 0.09922657 -0.37377754 0.03699928
0.36471745 -0.116600156 -0.9367217 -0.38607067 0.3295237 -0.07228977 -0.22267699 0.08097206
-0.30459088 0.20474355 -0.22307432 -0.1237253 -0.0025035217 -0.406867 -0.3125085 -0.24913704
-0.09114364 0.33504745 -0.21402812 0.24118806 -0.034841344 -0.050641928 0.077162914 0.22747287
-0.0973081 -0.33183965 -0.16212976 0.4189784 0.2291395 0.35490942 -0.21024296 0.07895656
0.06602691 -0.55947316 -0.13482407 0.7845827 -0.0011965091 0.02333623 -0.029614283 0.13164681
-0.24596614 -0.69164526 -0.2651931 -0.21473935 0.20733002 0.30891022 0.40210614 0.25417596
-0.3018136 0.1830312 -0.4510577 0.30842045 0.48777336 -0.17005499 -0.10961986 -0.22638132
-0.2957466 0.14329447 0.37558836 -0.3349964 0.120056495 -0.12608834 -0.07315506 -0.053246096
0.39192262 -0.1478662 0.11012587 -0.0055601518 -0.72842413 -0.42732146 -0.17946497 0.012645465
-0.07861658 0.1066302 -0.4428133 0.025273358 0.20173152 0.28606245 0.13895842 0.33981898
0.082015425 -0.17245951 -0.36562994 -0.085794725 0.11930685 -0.17387585 0.06501018 -0.31813425
-0.099540755 0.56014806 -0.035135645 -0.4399548 -0.10988039 0.08076436 0.2288825 0.098116554
-0.44055107 -0.67628753 -0.24302255 -0.10026189 -0.15897666 0.014815128 0.3302405 -0.06046821
0.31949493 0.056997653 0.48579502 -1.347979 0.23113753 0.036875896 -0.17884654 0.49749994
0.09044449 0.09993741 -0.3382963 0.30224773 0.05196844 0.27262682 -0.15043946 -0.208078
0.26455036 -0.4150216 0.070205376 -0.20322587 0.32106543 0.22976494 0.3815174 0.1971997
-0.023605352 -0.23894753 -0.09058858 -0.021059645 -0.6415879 0.19518745 -0.09458474 -0.068117425
-0.19947924 0.059457567 0.06149784 -0.096484266 -0.5698839 -0.107907526 0.15532337 0.34761107
-0.27631834 0.22826003 -0.018558165 0.24983706 -0.3179828 0.51852465 -0.2236921 0.059664283
0.23627765 0.08233049 0.25152364 -0.027213769 -0.32381365 0.21844892 0.19939122 0.6016185
-0.33939964 0.04352683 0.18605694 0.15090933 -0.7228214 0.045349304 0.2064051 -0.07311659
-0.36544386 -0.2069887 -0.24358523 -0.22947308 0.100326054 -0.3067125 0.14026718 -0.042153936
-0.34829402 0.2332434 0.013344577 0.20228714 0.23404618 0.17445476 0.04742775 -0.3541502
0.5151266 0.23273152 0.17879984 0.07809023 0.08009901 -0.59933954 -0.06630225 0.29188702
-1.1071494 0.1746617 -0.17580158 -0.047586832 -0.17761208 0.2025526 0.15342627 -0.24065758

weight f4 [60]
00000000: 0141 a43f b851 ad3f 51b5 b03f 7196 a43f
00000010: bd42 9b3f 3f6f 953f dbd4 a13f f424 b23f
00000020: 79b6 a73f 3d18 d73f 4b5c ae3f b684 bc3f
00000030: 5c02 a23f 7a5f a83f 3d45 943f 5829 b83f
00000040: b2b5 a03f f54a b63f 0bda b33f 1e32 a73f
00000050: 2ff2 9f3f 4bb8 a33f 6176 cf3f e408 a43f
00000060: e9f9 b33f 0196 ba3f 6781 b53f 68ae ae3f
00000070: 3a4e 993f 07c0 ad3f 2067 b13f ded0 a03f
00000080: e61f 993f 42e2 9d3f 9f2d 9a3f 0e4f c63f
00000090: d5bb ad3f 3502 a63f 42b3 a23f 4917 b83f
000000a0: 8d6f be3f 64aa 9e3f f724 b53f 5e78 a83f
000000b0: 9f8d cb3f e509 aa3f bfdc c43f b377 d63f
000000c0: a260 9c3f 1967 a93f c0de ab3f 4d6f ad3f
000000d0: 86fe 953f 2f6c a33f 9bbb a93f e75e b93f
000000e0: 9430 b83f ed22 a43f 25c6 a33f 19e9 ba3f
1.2832338 1.3540564 1.3805333 1.2858411 1.2129742 1.1674575 1.2643083 1.3917527
1.3102561 1.6804272 1.3621916 1.4728 1.265697 1.3154137 1.158363 1.4387617
1.2555449 1.4241625 1.4050916 1.306217 1.2495784 1.2790617 1.6208001 1.2815213
1.4060642 1.4577028 1.4180115 1.3646975 1.1976998 1.3574227 1.3859596 1.2563741
1.196286 1.2334673 1.2045172 1.5492876 1.3572947 1.2969424 1.2710955 1.4382106
1.4877793 1.2395749 1.4151906 1.3161733 1.5902594 1.328427 1.5379866 1.6755279
1.221699 1.3234588 1.3427353 1.3549591 1.1718299 1.276739 1.3260378 1.4482087
1.4389825 1.2823159 1.2794844 1.4602386

bias f4 [60]
00000000: aaf7 9abe ec16 b5bd b397 ecbd 13e0 31be
00000010: e1b9 10bf 4914 533e f7f8 e93c 304a 85be
00000020: 50c5 99be 3463 37be e7aa 1dbd 2a1e 6dbe
00000030: f14c c1be 38eb b03c 66c5 43be 824d 41be
00000040: 62f1 d9bc 5d05 26bd b89e b1be 65f8 86be
00000050: a75c 963e 5e98 9ebe 2f0b 1bbe cb97 b9be
00000060: 5d97 44bc 7c53 bdbe a3ba 95be 9c6c b93e
00000070: dbbb 2fbe 8368 353d efc8 c1bd fbad 8fbe
00000080: 020b 80be 8725 3ebe b2f9 053d 2d61 febd
00000090: 8dd6 4cbe 6c6f 8ebe 18ae 43be 9334 f9bd
000000a0: 16b2 853e 8603 1a3d 0546 03bf 078d 48be
000000b0: ad98 ecbc 2d14 f3be edab 1f3e 87b9 0dbf
000000c0: 2502 cb3d a42b 783e 8d3a 3fbe 7764 7c3d
000000d0: c235 debe 2725 9bbe f43a a9be ca99 f13d
000000e0: 27cb 12bf 696f 03be 7c48 d5be 8333 06bf
-0.30267078 -0.088422626 -0.11552372 -0.17370634 -0.5653363 0.20613207 0.028561099 -0.26033163
-0.3003335 -0.17908937 -0.038493063 -0.23156038 -0.37754014 0.021596536 -0.1911827 -0.18877223
-0.026604358 -0.04053246 -0.34691405 -0.26361385 0.29367563 -0.30975622 -0.15140985 -0.3624862
-0.011998978 -0.36977756 -0.29243955 0.36215675 -0.17161505 0.044289123 -0.09462153 -0.28062424
-0.25008398 -0.18569003 0.03270883 -0.124208786 -0.2000372 -0.27819383 -0.1910938 -0.12168231
0.2611243 0.037601016 -0.51278716 -0.19585048 -0.028881395 -0.4747633 0.15592928 -0.5536122
0.099125184 0.24235398 -0.18674679 0.06161925 -0.4340039 -0.30301782 -0.3305279 0.11796911
-0.57341236 -0.12835468 -0.41656864 -0.5242235

running_mean f4 [60]
00000000: 88d8 0c3d 0f7f 57bc d7ea c23c 64cc b13d
00000010: 085c 1bbe 734f cbba 185d db3c 19ec acbc
00000020: e00d afbd c85d 373e 3981 cbbc d9aa 253e
00000030: 465b b73b f004 34be d4de 663d 2e2e a8bb
00000040: a0be 45bd 7572 2c3d dc71 34bb c522 413d
00000050: 11c6 003d 2b78 adbd fec3 55bc 6b14 1abc
00000060: 568c f9bd 5ab1 a1bd 8b2f 0dbe bb0c 8d3d
00000070: 425a ecbc 8269 9f3d 46d8 10be 0270 9ebd
00000080: 8aa1 8fbd ed31 083e 114e 4e3e 264d e0bd
00000090: 065c 6b3d d794 bc3c fe7f 703d 1094 12bd
000000a0: 0f8e bebc af37 8e3d f3d6 7abd fbca 36bb
000000b0: 893c ba3d 6505 a6ba 28b0 d8bd e7fd ce3d
000000c0: 729e f3bd c837 32bc 1939 103d b05c ac3d
000000d0: 9ed0 80bd 9e19 e83d 0c80 4c3c a479 6dbe
000000e0: b9fe 8c3d 77ed 4abd 4356 913d ee01 0dbd
0.034386188 -0.013152852 0.023793621 0.086815625 -0.15171826 -0.0015511349 0.026777789 -0.021108674
-0.08547568 0.17906868 -0.024841892 0.16178454 0.0055955974 -0.17580009 0.05636485 -0.005132458
-0.048277497 0.042101342 -0.0027533686 0.0471523 0.03143889 -0.08470186 -0.013047216 -0.009404282
-0.1218497 -0.07895155 -0.13787667 0.06887194 -0.028851632 0.07783796 -0.14145002 -0.077362075
-0.07013233 0.13300295 0.20146967 -0.10952215 0.057460807 0.023020191 0.058715813 -0.035785735
-0.023261098 0.069442146 -0.061240148 -0.0027891982 0.090935774 -0.0012666403 -0.10580474 0.10107022
-0.118954554 -0.010877557 0.035210703 0.08416116 -0.062897906 0.11333011 0.012481701 -0.23190933
0.06884522 -0.04954287 0.07096531 -0.03442567

running_var f4 [60]
00000000: 1d5d c93e 7c5b a43e 343e bb3e bfab 623e
00000010: ddfc a83e be17 943e d665 af3e 57ed c93e
00000020: 97f3 a53e 20a0 e83e 0e3f af3e 3fcc 893e
00000030: f926 af3e cc2d a93e 7383 843e d328 d23e
00000040: 390c 973e 9292 a63e ab7d a93e 3915 bf3e
00000050: 6b32 c63e 6834 c93e 19cc 9f3e c5e3 873e
00000060: e70c 9f3e 6b8e b43e 19ba 743e d707 a23e
00000070: cefc 9f3e fd99 ce3e 90bf a73e 878b 8e3e
00000080: 9579 af3e 5c55 723e fb97 8c3e fbc5 963e
00000090: a7dd af3e 5581 b43e 1422 993e 848e f03e
000000a0: ba5d d53e 4721 af3e d70c ab3e b621 8d3e
000000b0: 5db1 d83e d156 dc3e 11f4 ba3e b051 bb3e
000000c0: 338c 7a3e 4122 b33e 6dfb 893e 8d80 883e
000000d0: bc6b af3e f0b4 7d3e b34d 973e 55b1 ba3e
000000e0: ab3b bd3e 7a25 bb3e 3fff 863e f8ef 0e3f
0.39328852 0.32101047 0.36570895 0.22135828 0.3300542 0.28924364 0.34257382 0.39438888
0.32412407 0.45434666 0.34227794 0.2691364 0.3420942 0.33042753 0.25881538 0.4104677
0.29501513 0.325337 0.3310369 0.3732088 0.3871034 0.39297795 0.31210402 0.26540962
0.3106453 0.35264906 0.23899116 0.31646606 0.31247562 0.4035186 0.32763338 0.27840826
0.34272447 0.23665375 0.27459702 0.29447922 0.34348795 0.35254923 0.29908812 0.4698373
0.4167307 0.34205076 0.33408234 0.27564782 0.42322817 0.43034986 0.36514333 0.3658576
0.24467544 0.3498707 0.26949635 0.26660576 0.34261882 0.24776053 0.29551467 0.3646342
0.36959586 0.3655203 0.26366612 0.55834913

weight f4 [60]
00000000: 4d9f af3f eff4 c43f a7dc a13f edb6 b63f
00000010: 0803 e53f 52da 9d3f 2225 833f 0046 a63f
00000020: d763 d13f 9880 d13f 467d b53f 60eb ac3f
00000030: c616 ac3f b54d b83f 5829 993f 8379 b83f
00000040: 3fe7 cd3f 6030 9c3f 6c20 c43f e15c d13f
00000050: 483d b53f 7c41 d33f 3d57 cb3f 8d76 af3f
00000060: e30d 903f b073 b23f 89c7 a73f 07ab ad3f
00000070: 4792 b93f 243a d43f 4e8e f33f 1da6 cc3f
00000080: f6c0 e33f 1dd9 bd3f 4b1d eb3f 72e9 bc3f
00000090: 5b45 bb3f 8525 cd3f a314 b83f e740 9e3f
000000a0: 7963 b43f d9f2 b73f 2189 bc3f e8f5 c53f
000000b0: 08bf cb3f 79c2 bb3f 1944 b23f 9d89 df3f
000000c0: 41fa bb3f bdf4 a23f 5db6 983f e9c1 b33f
000000d0: 8d04 973f 1c1d a53f aa2e a13f ab4f ca3f
000000e0: 0264 c23f b1d7 b73f 6557 c63f c9f2 9c3f
1.372049 1.5387248 1.2645463 1.4274575 1.789155 1.2332251 1.0245707 1.2990112
1.6358594 1.6367369 1.4178855 1.3509331 1.344445 1.4398714 1.1965742 1.4412082
1.6086196 1.2202263 1.5322394 1.6356469 1.4159327 1.6504359 1.5885998 1.3708054
1.1254238 1.3941555 1.3107768 1.3567818 1.4497765 1.6580243 1.9027803 1.5988194
1.7793262 1.4831883 1.8368315 1.4758742 1.4630541 1.6027075 1.4381298 1.2363557
1.4092857 1.4370986 1.4729348 1.546567 1.5917673 1.4668723 1.3927032 1.7463871
1.4685746 1.2730938 1.1930653 1.4043552 1.1798264 1.2899508 1.2592366 1.5805563
1.518677 1.4362699 1.5495421 1.2261592

bias f4 [60]
00000000: f8f2 d4be 313b f8be b2ac f5be 48e4 b2bd
00000010: 665c 89be 61af d7be d99b 7dbe 386e 70bd
00000020: 63b9 fbbe 9f04 e8be 771e d0be 7ba6 8ebe
00000030: 545c f5be e883 0dbf 58d2 87be 0fd8 16bf
00000040: 9aea f9be 117b 873d 5418 c9be 133c 9bbe
00000050: b3a7 8abe 5d2a c2be 493d 3ebe c0b5 1bbf
00000060: 090a a4be 549a 9dbe a7e2 27be 2bb9 7ebe
00000070: 4cc6 e1be cb40 27bf c4cb 15bf 79dc 8fbe
00000080: 947f 93be 49ae 96be 3204 21bf ec81 f5be
00000090: e925 a9be b2b6 93be b7fd 09bf 809c b7be
000000a0: 3232 9fbe 6ded fbbe da08 c1be 5ef9 f0be
000000b0: ba33 f4be b7ef 98be a89c 25be 7db0 aabe
000000c0: 9c66 bbbe 0748 b2be a960 8bbe ef29 d0be
000000d0: d9ca 6dbe a9fb bebe 0574 21bf 81a5 bfbe
000000e0: 53f4 fabe b303 8dbe 0c83 95be f7f6 febe
-0.4159162 -0.4848266 -0.4798332 -0.087349474 -0.26828307 -0.4212599 -0.24766482 -0.058698863
-0.49164876 -0.45316026 -0.40648243 -0.2786139 -0.47922003 -0.552794 -0.26527667 -0.5892343
-0.488118 0.0661527 -0.39276373 -0.3031927 -0.2708107 -0.37922946 -0.18578066 -0.60824203
-0.32038906 -0.30781806 -0.16395055 -0.24875323 -0.440966 -0.6533324 -0.58514047 -0.28097895
-0.28808272 -0.29429844 -0.62897027 -0.47950685 -0.33036736 -0.28850323 -0.53902763 -0.35861588
-0.31092983 -0.4920458 -0.37702066 -0.47065252 -0.47695714 -0.29870388 -0.16173041 -0.33337775
-0.36601722 -0.34820578 -0.27222183 -0.40656993 -0.23221911 -0.37301376 -0.63067657 -0.37430957
-0.4901453 -0.27541885 -0.29201543 -0.49797794

running_mean f4 [60]
00000000: 6022 02bf 2be6 ff3d e8b5 313f 5dc1 96be
00000010: 0a63 a3be f1a7 babe 44a1 0fbf 90f4 60be
00000020: cb5e 38bf 0cf7 36bf 7a22 82be e478 2dbe
00000030: 2df3 883e 2d18 08be 85e5 f9be f6d2 f13e
00000040: 1a28 55bf 1faa b1be fad1 1ebf ccfb 95be
00000050: d877 31bf 77d9 9dbf a4a3 adbe eef1 273e
00000060: f88d ad3e 15c2 b8be 5d77 04bd 219e 6ebe
00000070: 8fa9 09bf 4f3e 29bf 24d3 b0bf a004 46bf
00000080: 2bed 06bf ae01 08bf 1d49 80bf ec7c 45bf
00000090: 3cfb 4fbf eb36 c3be cbf1 81bf 0e66 83bd
000000a0: b8c1 e9be 226e 42bf 5a06 83bf b14a 5abf
000000b0: 9ca7 dbbc 6bd6 16bf f412 83be 69e6 bcbe
000000c0: b6a3 10bf 68b8 38bf 6eb7 0d3e 9a33 c2be
000000d0: 600d 093e fe33 e9be 4786 6bbe 420d 3cbf
000000e0: a83e 65bf 7279 a0bf 450d c5be 8def 57bf
-0.508337 0.12495073 0.6941819 -0.294444 -0.31911498 -0.36456254 -0.56105447 -0.21968293
-0.7201964 -0.71470714 -0.2541693 -0.16940647 0.26748028 -0.13290472 -0.48807922 0.47231263
-0.83264315 -0.34700105 -0.6203915 -0.29293668 -0.6932349 -1.233199 -0.3391391 0.16400883
0.33897376 -0.36085573 -0.032340396 -0.23302509 -0.5377435 -0.661107 -1.3814435 -0.7735081
-0.5270564 -0.53127563 -1.0022312 -0.7714374 -0.8124273 -0.38127837 -1.0151914 -0.0641595
-0.45655608 -0.759493 -1.0236313 -0.8527022 -0.02681332 -0.58920926 -0.25600398 -0.3689454
-0.56499803 -0.7215638 0.13839504 -0.37929994 0.13384008 -0.4554748 -0.23000441 -0.7345773
-0.8954873 -1.2537062 -0.38486686 -0.843499

running_var f4 [60]
00000000: a051 0b3f b693 cc3e 436c cb3e b3e1 693e
00000010: a4e8 743e c21f b23e ae3f 083f 7318 183f
00000020: 7379 0e3f 9afe 0d3f 9d41 c23e 0a35 c43e
00000030: 947e f03e 790f 8e3e b5ca 943e b6f1 033f
00000040: 5acd bf3e bb2d 0d3f 29c4 a33e f3ab 7e3e
00000050: 7f33 bd3e 577f 383f 9e08 b63e ff44 d93e
00000060: 674a 8e3e c6d4 c53e e32c f23e 9f5e 633e
00000070: 85ae e43e d675 cd3e cf02 413f 167c 0b3f
00000080: 7265 8f3e e213 ce3e 2ebf 0c3f e795 163f
00000090: 4409 223f 55f6 cb3e e675 293f 0606 e03e
000000a0: 74ed 053f 859d e53e 15f7 1d3f 90be 683f
000000b0: d884 813e 37c2 0c3f 9c82 903e 0ab2 d23e
000000c0: 4d40 cb3e 85b0 073f 90fd c83e bb56 ba3e
000000d0: 83e9 c23e a73b 1b3f 67b0 d03e 95cc 0e3f
000000e0: c15a a63e ba47 5f3f 4177 a03e fdb9 423f
0.54421425 0.39956445 0.39731035 0.22840004 0.2391687 0.34789854 0.5322217 0.59412307
0.55654067 0.55466616 0.37940684 0.38321716 0.4697157 0.2774618 0.29060903 0.51540697
0.37461358 0.55147904 0.31985596 0.24870281 0.3695335 0.72069305 0.3555345 0.42435452
0.2779114 0.38638896 0.4729987 0.22204064 0.44664398 0.40128964 0.7539491 0.54486215
0.28007084 0.40249544 0.5497922 0.5882248 0.6329539 0.39836374 0.66195524 0.43754596
0.5231545 0.4484674 0.6170514 0.90915775 0.25296664 0.5498385 0.28224647 0.41151458
0.39697495 0.5300372 0.39255953 0.36394295 0.3806878 0.606379 0.40759584 0.5578092
0.32491115 0.8721882 0.31340984 0.76065046

weight f4 [60]
00000000: 2f4c ec3f ab88 3240 1193 ea3f 203a f63f
00000010: a15d 1140 7135 1d40 378a 0a40 35ef 2640
00000020: 5540 0240 8738 1240 5cd2 6340 6b1b 0740
00000030: 2948 e43f a117 3640 aa40 d33f 58d8 eb3f
00000040: e4d3 0140 d636 4040 7dc4 0b40 3f97 2c40
00000050: 9f97 2140 2a3b 3140 0d45 2740 5120 2e40
00000060: 99fe e93f 8515 4e40 6e50 c03f 2c1a 4d40
00000070: cd43 4b40 4fa4 0340 7d1b ee3f ec7c fc3f
00000080: a70d 3240 4dc1 2840 bf5d 1f40 5343 e03f
00000090: d3ba 0b40 0046 5340 602e f83f 2759 e63f
000000a0: 9937 f53f 3bdc 3f40 23b5 3440 2495 4140
000000b0: 9e8f 2c40 82d1 1940 3ace dc3f 0164 fc3f
000000c0: a652 f93f 888a 3e40 d268 4840 bd9c 2040
000000d0: ff51 fa3f 049b 3140 4dd3 e73f 329c 4040
000000e0: d713 2e40 d181 0240 035f 1b40 a391 2740
1.8460749 2.7895916 1.8326131 1.9236488 2.2713397 2.4563868 2.164686 2.60835
2.0351765 2.2847002 3.5597143 2.1110485 1.7834522 2.8451922 1.6504109 1.8425398
2.0285578 3.003347 2.1838677 2.6967313 2.5248792 2.769236 2.6135895 2.7207224
1.8280822 3.2200634 1.5024545 3.2047224 3.1760132 2.0569036 1.8602139 1.9725623
2.7820833 2.6367981 2.4900968 1.7520546 2.1832778 3.3011475 1.9389153 1.7995957
1.9157592 2.9978168 2.8235557 3.0247278 2.6962657 2.4034123 1.7250435 1.9718019
1.9478347 2.9772053 3.1313977 2.5095665 1.9556273 2.7750864 1.8111359 3.0095334
2.719961 2.0391734 2.427674 2.618264

bias f4 [60]
00000000: 6df8 96bf 1f84 26bf fa5c 78bf c94a 00bf
00000010: 409a 07bf a4a6 07bf c908 33bf 6b4f 2fbf
00000020: 67fa 57bf 849d 3dbf f28f 3ebf 23c0 3abf
00000030: 5d4c 8cbf 3f83 05bf 8a8e 8dbf 18b0 90bf
00000040: 7c4f 26bf 389f 15bf 6127 12bf c318 3abf
00000050: e851 42bf 6069 09bf f6f7 a4bf 053e 48bf
00000060: 2dde 8dbf 142f 34bf b946 59bf 3d59 bbbf
00000070: 0b09 ebbe ac59 7ebf 106d 76bf aff7 83bf
00000080: d235 d7be 8030 87bf a7e1 f8be bb84 84bf
00000090: 0864 98bf 7ce0 21bf 4d7e 8bbf 8ccc 03bf
000000a0: 9708 c6be c196 fdbe b766 23bf a408 61bf
000000b0: 5a08 0ebf 9a42 18bf ec49 84bf 523d 81bf
000000c0: 34f4 51bf fee2 5fbf 23fc 22bf e934 4ebf
000000d0: db61 aebe e575 05bf 5b95 86bf 73af 87bf
000000e0: 8255 63bf 8887 5ebf a976 18bf 8ea2 06bf
-1.1794564 -0.6504535 -0.9701687 -0.50114113 -0.5296974 -0.5298865 -0.6993528 -0.6848056
-0.8436646 -0.74068475 -0.74438393 -0.7294943 -1.0960804 -0.5215339 -1.1059124 -1.130374
-0.64965034 -0.58446074 -0.5709134 -0.72694033 -0.7590623 -0.53676414 -1.2888172 -0.78219634
-1.1083428 -0.70384336 -0.8487354 -1.4636608 -0.45905337 -0.9935558 -0.96260166 -1.0309962
-0.4203325 -1.0561676 -0.4860966 -1.0353006 -1.1905527 -0.6323316 -1.0897919 -0.5148399
-0.3867843 -0.4952908 -0.63828605 -0.8790381 -0.55481493 -0.59476626 -1.0335059 -1.0096838
-0.8201325 -0.8745574 -0.6366598 -0.80549484 -0.34059033 -0.5213302 -1.051433 -1.0600418
-0.8880235 -0.86925554 -0.5955606 -0.5259179

running_mean f4 [60]
00000000: e64e 92be 6796 8cbe 927b eabe bbb5 d93c
00000010: ebd4 303c 8766 18bb 0a57 54bd c729 a4bc
00000020: 0f5f f4bd dca0 a6be 4b1b 56be e25f 57be
00000030: 2ee1 debc 76b6 053b 6df9 943d 0f63 66be
00000040: 65c4 373d 8725 2fbd 904c 87be 4d9b 00bd
00000050: 7807 a8be aed7 08be 73d9 c53c 77a2 abbd
00000060: c050 4bbf 54d5 c8be 85d9 26bf 2cc6 16bf
00000070: 6c0d 8a3d f80c 2dbe 940a 22bf 478e debd
00000080: 6c0d 753d c377 efbd 90ae 06be 4e04 c23e
00000090: 49ba 5e3d 6e92 b5be 4e91 fcbe ca19 213c
000000a0: e6b2 03be 3198 adbc ea3b 323d 3d52 7cbe
000000b0: cd00 7bbe 0b2e 1fbe e4ec c73e c624 883d
000000c0: ec28 cc3e 2b51 9bbe dfee adbe 4d86 9dbd
000000d0: 728a 8b3c 2e0d ccbd b2aa e83e ca27 b1be
000000e0: dd36 f5bc 5dc1 02bd 8303 43be 5a02 dabe
-0.2857582 -0.27458498 -0.45797402 0.026575914 0.010792951 -0.002325447 -0.05184082 -0.020039452
-0.119321935 -0.325446 -0.20908849 -0.2103267 -0.027206983 0.0020402945 0.07274137 -0.22498725
0.04486503 -0.0427604 -0.264256 -0.031398106 -0.32818198 -0.13363525 0.02415154 -0.08380597
-0.7942009 -0.39225256 -0.6517566 -0.58896136 0.06740841 -0.16899478 -0.6329739 -0.10866981
0.059827253 -0.116927646 -0.13152528 0.3789391 0.054376874 -0.3546328 -0.4932961 0.009832809
-0.12861213 -0.021190735 0.04351417 -0.24640746 -0.24512024 -0.15544908 0.3904792 0.06647639
0.3987497 -0.30335364 -0.33971307 -0.076916315 0.01703379 -0.09963451 0.4544273 -0.3460067
-0.029933387 -0.031922687 -0.19044308 -0.4257992

running_var f4 [60]
00000000: f444 913e 9dbc 6a3e 2557 b03e 8ef3 483e
00000010: 7905 5c3e 66a4 853e cb32 773e 5bf1 913e
00000020: 210b 533e 70b5 843e 3a4f b03e 399c 633e
00000030: 0d4b 9c3e 5421 383e 2d7d 153e 4ca9 673e
00000040: 042b 313e c4cc 9c3e 57ff 7d3e bc9d 763e
00000050: fcde a03e b84c 973e dd8c 873e 19a7 833e
00000060: d229 1d3f 02c6 953e 655a 953e 748f bc3e
00000070: 57e3 813e e426 a53e fc84 e23e 0681 583e
00000080: 0241 2a3e 3395 793e 21dc 773e 9b71 493e
00000090: 40f5 9b3e 2070 923e a7e0 c43e 5479 3e3e
000000a0: e7a2 a43e c835 403e f87a 873e e316 6a3e
000000b0: 1242 8a3e 00ba 583e de44 823e cf6f 7c3e
000000c0: f3d0 563e 8ec2 853e 9fd8 713e 9aac 723e
000000d0: 3b16 803e 8bd2 903e 43f7 603e 959a 5d3e
000000e0: a78f 7d3e 4595 573e e9b6 983e 7bcb 8f3e
0.2837292 0.22923513 0.34441486 0.19624159 0.21486463 0.2610199 0.2414047 0.28504452
0.20609714 0.25919676 0.34435445 0.22227563 0.3052601 0.17981464 0.14598532 0.22623175
0.17301565 0.30624974 0.24804436 0.24083608 0.31420124 0.2955072 0.26474658 0.25713423
0.6139194 0.2925263 0.29170528 0.36828196 0.2536876 0.32256234 0.44242084 0.21142969
0.16626361 0.24373321 0.24205066 0.19672243 0.30460548 0.2860117 0.38452646 0.1860097
0.32155535 0.18770516 0.26461005 0.22860293 0.27003533 0.21164703 0.25443166 0.24652027
0.20978145 0.26124996 0.2361779 0.23698655 0.2501696 0.28285632 0.21969323 0.21641
0.2476183 0.21053036 0.2982705 0.2808493

weight f4 [2, 60]
00000000: ea4d 98bf ff4a 843f c824 aabf 3ccb 833f
00000010: d8b7 773f c233 f63e d32a a33f d254 8f3f
00000020: c472 903f 7cfc 9b3f 6958 983f 59ed 8c3f
00000030: d8e5 71bf 605e 9a3f eadf 98bf 0466 8fbf
00000040: ccc1 3c3f 65bb af3f b0fa 9a3f 6da7 853f
00000050: b93a cc3f 1379 513f e145 783f d8af af3f
00000060: 402e 87bf 4c0b a53f cbce 89bf 595f 983f
00000070: b034 8c3f 125a 58bf b812 9ebf 4ff8 83bf
00000080: 1c5e 743f b486 863f 0f0d 9a3f 53df 6bbf
00000090: 19d1 223f 6059 9e3f e9b0 abbf 6ac2 6d3f
000000a0: 726a 803f fe1e 6e3f 5ccf 943f 1de0 993f
000000b0: 05fc 743f ed0e 9d3f fcbd 63bf 5a52 87bf
000000c0: ffa0 21bf 0040 a63f ac30 b33f aa78 5b3f
000000d0: 9103 763f ad0d 933f ba25 56bf 9cb1 813f
000000e0: 0ff7 af3f 31f6 253f 4e25 763f a7f8 af3f
000000f0: 8690 8c3f da1c acbf 7e34 a13f 92fe 83bf
00000100: 39cd 73bf d8d0 4ebf 18a6 81bf 82e3 9bbf
00000110: acb6 8bbf 440c 3cbf c7cc c1bf b750 b5bf
00000120: 5f32 713f 876f a2bf 3d53 843f b447 a33f
00000130: b799 91bf 036d aebf d815 9fbf 5967 afbf
00000140: fcfd a5bf 6562 8fbf 45a9 5dbf 0941 bebf
00000150: a35e 463f b5d4 a4bf 6a71 883f 94f7 dcbf
00000160: 26c4 93bf c2db 673f 7611 a43f 241d 8c3f
00000170: 8252 adbf cef1 03bf 4aff a2bf 15ef 543f
00000180: 0ffd 77bf a64b 82bf 057f 933f 291c 82bf
00000190: 6c43 14bf a06a 86bf 16c2 8bbf 9aa8 a8bf
000001a0: ba83 9dbf 6696 aebf 9d65 663f 0b32 723f
000001b0: 290b 7d3f 524e a1bf f96e 90bf c855 94bf
000001c0: 2a96 4abf 505b 94bf 9947 803f 5b3d afbf
000001d0: a864 63bf 5cf7 92bf 6620 81bf 18b6 b7bf
-1.1898777 1.0335387 -1.3292475 1.0296397 0.967649 0.48086363 1.2747444 1.119776
1.1285024 1.2186427 1.1901981 1.1009933 -0.9449134 1.2060051 -1.1943333 -1.1203008
0.7373321 1.3729063 1.2107754 1.0441719 1.5955421 0.8182537 0.96981627 1.3725538
-1.0560989 1.2894073 -1.0766233 1.1904098 1.0953579 -0.84512436 -1.2349463 -1.0310153
0.954561 1.0509858 1.2035235 -0.9213764 0.6360031 1.2371025 -1.3413364 0.9287478
1.0032485 0.9301604 1.1625781 1.2021519 0.9569705 1.227018 -0.8896177 -1.0572007
-0.63136286 1.2988281 1.3999228 0.85730994 0.9609919 1.1488549 -0.83651316 1.0132327
1.3747271 0.64828783 0.9615067 1.3747758 1.0981605 -1.3446305 1.2594144 -1.0312064
-0.9523502 -0.8078742 -1.0128813 -1.2178805 -1.0915122 -0.73456216 -1.5140618 -1.4165257
0.94217485 -1.2690285 1.0337902 1.2756257 -1.1375035 -1.3627018 -1.2428541 -1.3703414
-1.2968135 -1.1201903 -0.8658641 -1.4863597 0.77488154 -1.2877413 1.0659611 -1.7263055
-1.1544235 0.905697 1.2817829 1.0946393 -1.3540804 -0.5154084 -1.2734158 0.8317731
-0.9687051 -1.0179336 1.1523138 -1.0164844 -0.5791538 -1.0501289 -1.0918605 -1.3176453
-1.2305825 -1.3639648 0.899988 0.9460761 0.98845154 -1.2602026 -1.1283866 -1.1588678
-0.7913538 -1.1590366 1.002185 -1.3690599 -0.88825464 -1.1481738 -1.0088012 -1.4352446

bias f4 [2]
00000000: c1e0 fa3e df0f c1be
0.489996 -0.3770742
