dataset/tree_grid/0.005_2000/model.pth (torch, 22107 bytes, 20 tensors)

bias f4 [20]
00000000: 76b9 a6bc 32bd 8cbb c9a7 44b9 dd37 9ebb
00000010: a6f5 1dbc d8a1 8abb 5167 e63b 65ea a23c
00000020: 2fd7 30bc 08ce 57bb 4279 44ba 097c 263c
00000030: 00ce b7bb ce47 d9bb d2f0 7f39 90d8 493d
00000040: 527a 6bbc e45b df3b 8c35 14bc 0e4e 013d
-0.020352107 -0.004295015 -0.00018754521 -0.0048284368 -0.009641087 -0.004230719 0.0070313592 0.019887159
-0.010793491 -0.00329292 -0.00074948755 0.010161408 -0.005609274 -0.0066308742 0.00024408408 0.049278796
-0.014372425 0.006816374 -0.00904597 0.03156858

weight f4 [20, 10]
00000000: e6c7 a5bd a9ef 0cbe 9811 e7bd ad1c 0b3e
00000010: a946 d13e f26c 4abc d0c9 3ebe dbfa b7be
00000020: 62fa 2d3e cced d7bd 17d4 443e c84a 413e
00000030: 29e3 7b3e c6fc efbb d3c8 cebd ed35 f43d
00000040: 534f 7a3d 5f49 253e 98d6 113e 48f1 913d
00000050: 50ce 0f3e 9260 853e e6a6 9a3e dc74 f7bd
00000060: e45a a13e f10d 853d b602 1cbe f1c9 0ebe
00000070: 5937 aebd 9518 6a3e ad15 76be ccf0 533e
00000080: 7822 cc3d 368b bebe 357b 793e 791b 883e
00000090: e49e 34be bf4a 343e eba0 1b3e 105c b0bc
000000a0: 9f27 d03e dc4c 2fbe 6967 0abe d1f8 933d
000000b0: c73e 86be f517 8abe aa16 b6be 04fe 253e
000000c0: 1fb0 2f3c 98cc 8a3e 63b8 0bbe f2cc 2fbe
000000d0: 0cdd bbbd 64ae 34be 91f8 eebd 28de 0bbe
000000e0: 2460 00be 3bb6 31be 4cda 2ebe 5460 1dbe
000000f0: dab5 d63d 6769 9dbe facd 80be 10b7 96be
00000100: a3ba 323e 0189 843d cde0 8cbe 08de 583e
00000110: 8db3 6abd 7b5f 5abe c9b4 fb3c ab07 ccbe
00000120: c0ec a63e e373 57be c120 6a3e b41f 9c3e
00000130: 180a c3be 67d2 15bd b1cc eabe 6ff3 8d3e
00000140: 0958 90be 6ded 22bd b4d7 ebbe e7ef 873c
00000150: bc21 8e3d d892 e0bb cbe8 173e 2181 66be
00000160: a9aa 233d 23a1 d13d 41c2 2f3e 5fb8 81be
00000170: 5bab 8bbe 128b 75be 926b 9dbe c02c 503e
00000180: 0dbc a1be beb1 b33d 6d54 fcbc 606b bb3d
00000190: 06c0 78be 2c2c e43d 9eaf 533e 075d 58be
000001a0: 39f9 d33c 78f2 9abd 132d 0ebe 1c69 dcbe
000001b0: 439a 9abe cfb5 82bc f09b debd 7d10 6abe
000001c0: 8b02 1abe cf3b fdbc 6e62 9bbd 2e21 8c3c
000001d0: 5501 6ebe 81bf 43be f47f e3bd 0ae7 d93d
000001e0: c223 3f3e 76cb 0cbc aa36 763e c815 a13d
000001f0: 1940 013e ed79 c03c 8e39 803e 4a1e 443e
00000200: 12b5 333e a8c7 5a3e e2ca d9be 3521 e23e
00000210: 4dea 0a3e b29f 8a3e fe76 a6be f396 8bbe
00000220: 5ec5 c63e a698 99be b435 89bd ad1a ac3e
00000230: ae07 073e ebd3 80be 7110 d2bb 4e20 52be
00000240: fc8d 83bc e397 813d 13b1 16be 4aca b2bd
00000250: 8cfa 89be 0285 b0bc 7063 babd 9e83 013d
00000260: b3d6 b53e 3940 b2be c80e d2be 3fb8 793d
00000270: 78f6 d1bd 3fd1 c23e 12d1 c4bc cc24 15be
00000280: 6d10 4bbe b42f 0fbe 81a7 41be 772d 2ebd
00000290: 4a75 29be 81c4 be3d 5867 3dbe ee03 68be
000002a0: dc71 bb3c dbc3 8abc 691b a6be ac64 59bd
000002b0: b043 85be 319d 9dbe 3b3f 5d3e e866 60bd
000002c0: 93a0 24be 3a71 e1be 4e03 173e b757 593e
000002d0: 7a0a 9c3d 597a 463e c725 933b 7ed0 863d
000002e0: 6e7c b23d 3a92 083e 7755 433e 83b7 973d
000002f0: fdf3 a33d b21d 0b3e dfef 7abe 0939 b8be
00000300: b4d6 78be e54e 89be 5e75 813e a29c b0be
00000310: b35c 5cbb 6eaa 513d 8550 983e 19c1 ba3e
-0.08094768 -0.13763298 -0.112826526 0.13585158 0.40874222 -0.012355076 -0.18631673 -0.35933575
0.16990045 -0.10543403 0.19221531 0.18876183 0.24598373 -0.007323834 -0.10096898 0.11924348
0.061110806 0.1614127 0.14242017 0.07126099 0.14043546 0.2605024 0.30205458 -0.12082836
0.31514657 0.064968 -0.15235409 -0.13944222 -0.085066505 0.2286094 -0.24031706 0.20697325
0.09967512 -0.37215585 0.24363406 0.2658346 -0.17638737 0.17606638 0.15198104 -0.021528274
0.40655228 -0.17119163 -0.1351601 0.07225192 -0.2621977 -0.26971403 -0.35564166 0.1621018
0.010723143 0.27109218 -0.13644557 -0.17168024 -0.09173021 -0.1764465 -0.11668504 -0.13658965
-0.12536675 -0.17354672 -0.17075461 -0.15368778 0.10483904 -0.30744478 -0.25157148 -0.2943654
0.17454009 0.06471444 -0.2751526 0.21178448 -0.05730014 -0.21325485 0.030725854 -0.398496
0.326025 -0.21040301 0.22864057 0.30492938 -0.38093638 -0.03657761 -0.45859292 0.27724788
-0.28192165 -0.039777208 -0.46063006 0.016593887 0.06940028 -0.0068534426 0.14834897 -0.22510196
0.039957676 0.102358125 0.17163946 -0.25335976 -0.2727917 -0.23978832 -0.30746132 0.20329571
-0.31588784 0.08774136 -0.030801976 0.091513395 -0.24292001 0.111412376 0.20672461 -0.21129237
0.025875675 -0.075657785 -0.13884382 -0.43048942 -0.30195817 -0.015955834 -0.108695865 -0.22857852
-0.15040033 -0.030912308 -0.07587133 0.017105665 -0.23242696 -0.19116022 -0.111083895 0.1063977
0.18665984 -0.008593431 0.2404429 0.078654826 0.12622108 0.023495639 0.2504391 0.1915218
0.17549542 0.21365225 -0.425376 0.4416596 0.13565941 0.27074963 -0.3251266 -0.27263603
0.38822454 -0.29999274 -0.06699696 0.33614102 0.13186523 -0.2516168 -0.0064106514 -0.20520136
-0.016058914 0.06327798 -0.14715986 -0.0872999 -0.26948965 -0.021547798 -0.091009974 0.03161966
0.35515365 -0.34814623 -0.41026902 0.060966726 -0.10252088 0.38050267 -0.024025474 -0.14564818
-0.19830485 -0.13983041 -0.18911554 -0.042523827 -0.16548648 0.09314824 -0.18496454 -0.22657749
0.02288144 -0.016939094 -0.32442787 -0.053074524 -0.26028204 -0.3078399 0.21606152 -0.05478564
-0.16076879 -0.44031698 0.14747354 0.21224867 0.07619186 0.1938261 0.0044905874 0.065827355
0.08715139 0.13337031 0.19075571 0.07408049 0.080055214 0.13585547 -0.24505566 -0.35981014
-0.24300653 -0.26818004 0.25284857 -0.344945 -0.003362459 0.051187925 0.29748932 0.36475447

bias f4 [20]
00000000: 09d6 433b 90a5 1dba e34e cdba 6410 b5bb
00000010: 316e 3239 4623 9d3a 2bd1 6e38 e59b 963a
00000020: 4699 82ba 5339 af38 7478 ffb9 f409 27ba
00000030: 5ff2 35bc d1aa 21ba 2911 6abb d79c 4439
00000040: 9fd8 c5bb d9b1 9f3a 198e 833a 94af 903a
0.0029882214 -0.00060137454 -0.0015663769 -0.0055256356 0.00017016452 0.0011988662 5.6938425e-05 0.0011490552
-0.0009963892 8.355328e-05 -0.00048727135 -0.00063720276 -0.011105149 -0.0006167116 -0.0035715795 0.00018750444
-0.006037786 0.001218374 0.0010036855 0.0011038654

weight f4 [20, 20]
00000000: 533b bb3e 0dbd 463e 6604 273e c250 a7be
00000010: 7c3c 35be f40f a5bd 947e d03e aec9 4fbe
00000020: 4b69 b03e 3d0d 643e 0273 823e dc07 72be
00000030: 733e 7ebe a6b5 aebe 4424 593e 86f6 cf3e
00000040: 3057 833e d7e5 89be 9b98 5b3c 3423 1ebe
00000050: dc6c 2ebf 17f2 763d 9f39 393e c798 a6bd
00000060: 36a6 3f3e 5e29 07be bcde 373e ef63 25be
00000070: 07e5 dd3d 23d6 71bd 7421 1cbe 7e01 e13e
00000080: e94c f3be b847 193e ebae 123e b104 73be
00000090: 9015 ba3e e406 dfbd 7338 843b 3867 9b3c
000000a0: dfd1 fe3e 361d e13e 2764 f1bd 10b6 563d
000000b0: 3e4e 67be 0641 a5be 9c83 b2be 63a8 993d
000000c0: fa59 97be 99ff 13be a070 99be d7db ddbd
000000d0: c31d 05be 6b0e b0bd db9e 843e 82f8 743d
000000e0: fcc9 93be 656e f43d 1e02 303e 9c92 143e
000000f0: e93d fb3d af92 b0be f1ec 16be 017f a03e
00000100: f4fc 473e dc3a 9fbe 5144 c6be 604b 78be
00000110: 9b38 7e3d 4eec c2be 715d c4be df01 9c3e
00000120: 0ee2 e23e eaf8 cb3c 7db5 b5be 1e2d bebb
00000130: 37b4 0d3e cf21 90bd a207 17be ec6c da3e
00000140: 74aa 5bbe 743e 95be 2a17 f0be 322f f0bd
00000150: 1e5e bb3e 4a38 423e d8ac f2bc aa68 b33e
00000160: f76b aebd 081b 79be fae6 c93c 868a 13bd
00000170: 1d8d c7be 7558 bcbe f809 ecbb 4cc8 893e
00000180: 1ddf 87be 686f 803e 7449 663e bd8e 04be
00000190: aaec 533e b770 04be 0fc7 aa3e 064a ce3d
000001a0: c086 903c 3384 ebbe 5ecb a53e fa9f 4c3e
000001b0: 8af9 6a3e bed0 a73e c4d9 85be 1d06 9fbe
000001c0: 7695 983c 814f bc3e c944 c7be 1627 ae3d
000001d0: 7fbe 26bd 8239 cfbe 6b17 5ebe 5d7f 10bd
000001e0: af79 06bf c638 16bc 33dc f13e 5e46 93be
000001f0: 02ec 55be d44a 20bd 73b4 44be 3ce2 ac3e
00000200: ae07 763e 5687 54be fc48 813e 4fd0 7a3c
00000210: 42ab a23d d3bd 8ebe c605 53bd 60ac 2a3e
00000220: ac87 863e eff2 9fbd 5a85 233f c1ff 7abe
00000230: 8409 1bbd 6374 6bbe 14eb 0a3e 7b2d 1bbe
00000240: c18a 853e 3833 cc3e 9aa2 863b b3e0 79bd
00000250: 2281 f93d 47cd ef3e c65c 043f 80aa cdbd
00000260: 0604 0f3c 8dfa a23d 71ab 87be 41ab 8cbd
00000270: b12f 89be 7d0b 353e d43b b83d ecb6 c83e
00000280: 23dc 7cbd f692 09bd 889b 1d3e 6333 033f
00000290: a623 a43e 64ec 3cbe a528 9fbe 207c 7b3e
000002a0: f902 92be 5c56 8a3d ae04 943d 25a2 7e3e
000002b0: 361f 8f3e cdca 243f e39e 8c3e 5442 9ebd
000002c0: 74b6 98be eb0f de3b 4c52 103f 4cae 833e
000002d0: 0922 353e 6730 b9be 062b afbd a15b c23e
000002e0: d568 8abe 049d c1be 4026 893d bd93 863e
000002f0: c9fa 273e e877 983e d5d8 c33e 00cc 0bbd
00000300: 4f80 2b3e 61e9 b5be 7fb2 feba 7cff 19be
00000310: 3b65 88be 572c 1e3e f5a0 2a3e 1fe4 283e
00000320: 44d0 19bb 4edd a73e 9977 f13e 744f 903d
00000330: 6509 35be dd09 103c 665a efbd 9b54 7bbe
00000340: 37a6 69bd 44c2 dc3d fdec 913e 8e40 7c3e
00000350: 1bdd 46be 5e03 d73d b734 703e cbf6 c33e
00000360: 3e6f acbe c9e0 bbbe a9f8 c93e 737e 49be
00000370: bd33 37be 830e c5be b4cd 603d db83 87be
00000380: b612 093e fae5 5c3e 2c8b babe 99be be3e
00000390: b325 17bd bd72 e43e 077c 1c3f 8047 96be
000003a0: 0d10 723e 2637 be3d b59c 44be d269 f1bd
000003b0: 955b ecbe efc3 a43e 9338 28be 2897 74ba
000003c0: 5f2f ecbd ea41 c9be 3331 61be 8e53 8bbc
000003d0: cabb 033e 93ed 253d 4f89 32be 0f0a 603e
000003e0: 3913 aabe e7cb 963e 7a6d b8be e83a 27be
000003f0: 2287 003f 5cc0 2dbd 68f2 653d 62bf d0be
0.36568698 0.19408055 0.16310272 -0.326788 -0.17698854 -0.080596834 0.4072157 -0.20291778
0.34455332 0.22270675 0.2547837 -0.2363581 -0.2482851 -0.34122962 0.2120524 0.4061777
0.25652456 -0.26933166 0.013403083 -0.15443116 -0.68134856 0.06028947 0.18088387 -0.08134609
0.18715748 -0.13199374 0.1795606 -0.16151403 0.10834699 -0.059042107 -0.15247136 0.4394645
-0.47519615 0.14968765 0.14324538 -0.23732258 0.36344576 -0.10889986 0.0040350496 0.018970117
0.49769494 0.439676 -0.11786681 0.052419722 -0.22588441 -0.3227617 -0.34866035 0.0750282
-0.29560834 -0.14452972 -0.2996874 -0.10832947 -0.12999634 -0.085965 0.25902447 0.059807308
-0.2886504 0.119351186 0.17188308 0.14509052 0.12267668 -0.3448691 -0.14738823 0.31346896
0.19530088 -0.31099594 -0.38723996 -0.24247503 0.062065702 -0.3807091 -0.3835254 0.30470178
0.4431309 0.024898965 -0.35490027 -0.005803718 0.13838278 -0.070376985 -0.14749005 0.42661226
-0.21451741 -0.2914921 -0.46892673 -0.11727752 0.36595243 0.18966785 -0.029623434 0.3504079
-0.085166864 -0.24326718 0.024646271 -0.036020778 -0.38974848 -0.36786237 -0.007203337 0.26910627
-0.2653741 0.25084996 0.22488958 -0.12945075 0.20695749 -0.12933622 0.33354995 0.100727126
0.017642379 -0.45999297 0.3238172 0.19982901 0.22946754 0.32776445 -0.26142704 -0.31059352
0.018625956 0.36779407 -0.38919666 0.08503549 -0.040709015 -0.40473562 -0.21688621 -0.035277713
-0.52529424 -0.009168809 0.4723831 -0.28764623 -0.20890811 -0.03913386 -0.19209461 0.33766353
0.24026367 -0.20754752 0.25250995 0.015308454 0.07942821 -0.278792 -0.051519178 0.16667318
0.26275384 -0.07810008 0.63875353 -0.24511625 -0.03785087 -0.22993617 0.13566238 -0.15154068
0.26082423 0.39882827 0.004108739 -0.061005305 0.12182833 0.46836302 0.5170406 -0.10042286
0.008728987 0.07957945 -0.26497987 -0.068686016 -0.26794198 0.17680164 0.08995786 0.39202058
-0.061733376 -0.03358742 0.15391362 0.51250285 0.32058448 -0.18449551 -0.31085697 0.24559069
-0.28517893 0.06754753 0.07227455 0.2486654 0.279535 0.6437195 0.2746497 -0.07727495
-0.298267 0.0067768 0.56375575 0.25718915 0.17688765 -0.3616974 -0.08553128 0.37960532
-0.27033105 -0.37815106 0.06696749 0.2628459 0.1640426 0.2977898 0.38251367 -0.034130096
0.16748165 -0.35529616 -0.0019431858 -0.15038866 -0.26639733 0.15446602 0.16662963 0.16493271
-0.0023470083 0.3278603 0.47161558 0.070464045 -0.17679365 0.008791414 -0.11687164 -0.24543993
-0.05704328 0.10779241 0.2850112 0.24634 -0.19420283 0.10498689 0.23457609 0.38274226
-0.3367862 -0.36694935 0.39447525 -0.19677143 -0.1789083 -0.38487634 0.054883674 -0.26467785
0.13386044 0.21572104 -0.36434305 0.3725479 -0.036901187 0.44618788 0.6112675 -0.29351425
0.23638935 0.092878625 -0.19200404 -0.11787762 -0.46163622 0.32180735 -0.16427831 -0.00093303854
-0.11532473 -0.393081 -0.21991424 -0.017007615 0.12864605 0.04050977 -0.17435192 0.21878837
-0.3321779 0.2945244 -0.36021024 -0.16331065 0.50206196 -0.042419776 0.05613938 -0.40771013

bias f4 [20]
00000000: 38e4 41ba 24ae 0d39 0820 bc36 5000 383b
00000010: d016 8fb9 8c0f a43a 85b3 613a 4416 9839
00000020: 6fdd 2aba cc6c df3a e40f a139 83fc 4fba
00000030: d427 a738 4503 a838 0900 ffba 3eff de3a
00000040: fbd7 043a e6ee 033a 3447 553a 5ebc b4b9
-0.0007396373 0.0001351168 5.6065655e-06 0.0028076358 -0.00027292082 0.001251684 0.00086098193 0.00029008288
-0.00065179815 0.0017045974 0.00030720152 -0.00079340505 7.970599e-05 8.011473e-05 -0.0019454967 0.0017013324
0.0005067584 0.0005032852 0.0008135915 -0.0003447262

weight f4 [20, 20]
00000000: 8538 85bd 64ac 2e3f 943c 9fbe 1b0a bd3d
00000010: 218f 35be 7cba 92bd 4ac3 d83d 8a4c a7be
00000020: 70af 373e 3501 193e 2be9 f0bd e922 133f
00000030: c747 b93e 51b2 1abe 63b1 c3bd 6d96 2dbe
00000040: b245 953e 723f 5d3e 1d76 83be 00b5 78bd
00000050: 225b 793e c99b 9bbe d4ae 233e f807 1dbf
00000060: 1819 99be 4750 213d bda4 8b3e 4454 0c3d
00000070: 5389 753e 7d9f a9be 3482 3fbe 953e 59bc
00000080: 61cc a9be cdc8 e03e a1d2 b83e 230e a53d
00000090: be8b 323d 7536 d5be 763b 013e 20cf c7be
000000a0: fdbb b8bd 4104 1fbe b178 e2bd 1c46 243f
000000b0: 64d8 c6be a760 ec3e 7ba2 8e3e 7f89 cbbe
000000c0: 8339 573e 23e9 873e ed0f a1be 6417 f53d
000000d0: c5f1 6b3f 7aba 9abe 02d7 8a3e c386 34bd
000000e0: 0f17 c93d c085 62bc a945 853e 77b6 0cbd
000000f0: afdb b73e 36d2 68be 75e2 343e 5eed 61be
00000100: dd89 d0be 8a2d cabd 602d 2a3e 48e3 d73e
00000110: 5d98 57be ebbf db3d 6a9e c33d c2d8 45be
00000120: 9a0e b63e f477 5e3e acd1 b0be 6b64 883d
00000130: a1a5 43be 70eb e3be 5159 513e 5ec7 c0be
00000140: bb17 223e 8e7d cabe 91ea db3e b880 34bf
00000150: f098 25be 4636 1fbe d330 4f3f a62f 0c3e
00000160: 50b8 08be 036d d2bc 312e b5be b92e 433e
00000170: 4de4 a33c 3249 e8be be1d 56bc c128 43be
00000180: b5e3 93be 5c57 aabe e266 4b3e f05e e23c
00000190: 94cc a73e 3248 12bf 33cc fe3e 97ff 06bf
000001a0: d3de cebe 0d53 7b3e bed2 e4bc e16b 423e
000001b0: d709 34be c818 a13e 5aa6 88bd 99df d1be
000001c0: 01a6 303e 6e0b d23e 6c2a 0b3d dadf b53e
000001d0: 42c2 37be 3016 3dbf 9103 20be 3fab e3ba
000001e0: a41a 08be be2a 8e3e c3d1 8abe 51dc edbe
000001f0: bc4c 54be 8901 5e3e 7390 013e 305e c63b
00000200: 6766 553e 6ccb 99bc b988 d2bd fb39 1a3f
00000210: 279f 49be 499d 283e 3998 03be 9355 84be
00000220: 10ff 79be 2ca4 a33e a3a0 8f3d 2f4a bbbe
00000230: 1b3d 003f 6852 41be 19f2 843d 1e25 90bd
00000240: d99d 7dbe 84d9 d5bb eb89 493e 2f4c a7be
00000250: 1d75 95be 34a5 4abe f9d1 4dbd 7cfc 8b3e
00000260: d227 f23e dd7d 913e c75c 1bbf 637e d33e
00000270: 2cf1 bbbd 086b 0bbf 9f0b 483e 8006 2abd
00000280: 1979 45bd 3dae b13e 87f4 21be cf73 373f
00000290: 45b3 ad3d 7e89 783e cdd4 8dbe d633 cc3d
000002a0: b74f 803e 5d3a 73bd 69da 9cbe 1f7f 5abf
000002b0: 0907 a03e 64dc e53d f83a fa3d 6543 023e
000002c0: 9b83 ee3e 754f 353e ee5e f5bd ca53 d43e
000002d0: b4c7 63be e7e5 94be e2db a93e b1ff 06bf
000002e0: 3449 29be 4741 64be 5a71 1b3e f405 b43e
000002f0: 789a 65be 87e4 bd3e 14f4 a93e 3a82 c83c
00000300: 5be4 9ebe 2348 983d 5ace 653e 67a8 95be
00000310: c02d 9abe f770 3e3d d606 6fbe e8a8 cd3d
00000320: 05d7 90be 9725 2f3f 01f2 c4be 2bf2 b03d
00000330: f4a2 0ebc 512e 223e 8f78 773e 0d46 ffbd
00000340: 70a8 373e 4856 bb3d 41cf 83be b763 0f3e
00000350: e5db 3cbe 1b63 183f b656 a43e 8cfa 5d3d
00000360: 6815 193f c64a 15bd 4097 9dbe 6653 8cbd
00000370: 6cad 193e 776b 8cbe 5be3 80be 50b2 313f
00000380: c004 65be 6fc8 003f b84d 8fbe caea 85bd
00000390: 70d5 8d3e 8ae1 adbc bed2 b1bb 9d6e b23e
000003a0: 35eb 693f ce97 1abc 91ad 11be 248f e43c
000003b0: fed4 863e 2397 f1bd 60a3 bbbd 06e5 79be
000003c0: 0866 593e 1c7c c2be 9abc 983d a3d0 4cbe
000003d0: 6ae4 f6be 7530 d93e 415f ba3e ce44 bc3e
000003e0: 7449 b4be 2085 9d3d 0e12 ac3e 3651 6ebd
000003f0: 963c 5d3d edc8 d6bd e5d0 333d 11eb 88be
-0.06504921 0.682318 -0.31100905 0.09230443 -0.1773038 -0.07164475 0.105841234 -0.32675582
0.17938018 0.14941867 -0.11763223 0.57475144 0.36187574 -0.15107085 -0.09555318 -0.16951914
0.29154736 0.21606234 -0.2567605 -0.06071949 0.2435117 -0.30392292 0.1598466 -0.61340284
-0.29901958 0.0393832 0.27274123 0.03426005 0.23978166 -0.33129492 -0.18702012 -0.01325955
-0.3316374 0.439032 0.36098197 0.08059337 0.0435903 -0.4164311 0.12620339 -0.3902521
-0.09020231 -0.15528966 -0.11058176 0.6416948 -0.38836968 0.4616749 0.27858338 -0.3975334
0.21018033 0.26545057 -0.31457463 0.11967352 0.92165786 -0.30220395 0.27117163 -0.04407383
0.09818851 -0.013825834 0.2602971 -0.0343537 0.35909793 -0.22736439 0.17664512 -0.22063205
-0.4073018 -0.09871967 0.16618872 0.4216559 -0.21054216 0.10729965 0.095516995 -0.19320968
0.35558015 0.21725446 -0.34534967 0.06659778 -0.19106151 -0.44515562 0.20444228 -0.37652105
0.15829365 -0.39548916 0.42952397 -0.7050891 -0.16171622 -0.15548047 0.80933875 0.13690051
-0.1335156 -0.025686746 -0.35386804 0.19060792 0.020006323 -0.45368344 -0.0130686145 -0.19058515
-0.28884664 -0.33269775 0.19863465 0.02763316 0.32773268 -0.5714141 0.49765167 -0.5273375
-0.40404376 0.245434 -0.027932521 0.18986465 -0.17581879 0.3146422 -0.06672354 -0.40990904
0.17250825 0.41024345 0.033976004 0.35522348 -0.17945197 -0.7386198 -0.1562636 -0.0017369761
-0.13291413 0.27766985 -0.2711316 -0.4645715 -0.20732397 0.21680273 0.12652759 0.0060537085
0.20839845 -0.018773757 -0.10279984 0.6024472 -0.19689618 0.1646625 -0.12851037 -0.25846538
-0.24413705 0.3196119 0.07013061 -0.36580035 0.5009324 -0.18879092 0.06491489 -0.070383295
-0.24767245 -0.006526174 0.19681518 -0.3267531 -0.29190913 -0.19789582 -0.050249074 0.27341068
0.47296005 0.2841634 -0.6068844 0.41307363 -0.09176859 -0.5446019 0.19535683 -0.041510105
-0.04821119 0.34703246 -0.15815936 0.71661085 0.084814586 0.24271199 -0.27701417 0.099708244
0.25060818 -0.05938183 -0.30635384 -0.8535022 0.31255367 0.11223677 0.12218279 0.12721021
0.46584782 0.17706092 -0.11980997 0.41470176 -0.2224415 -0.29081652 0.3317557 -0.52733904
-0.16531831 -0.22290526 0.15179959 0.35160792 -0.22422206 0.37088415 0.3319403 0.02447616
-0.31033596 0.07435634 0.22441998 -0.29230043 -0.3011303 0.04649445 -0.23342451 0.10041982
-0.28289047 0.6841673 -0.38465884 0.0863994 -0.008705843 0.15837981 0.24167083 -0.12464533
0.17935348 0.09147316 -0.2574406 0.14002882 -0.18443258 0.5952622 0.32097405 0.05419402
0.5979829 -0.036448263 -0.30779457 -0.068518445 0.15007561 -0.2742574 -0.25173458 0.6941271
-0.22365093 0.5030584 -0.27988982 -0.06538923 0.27701902 -0.02122571 -0.0054267338 0.34850016
0.9137452 -0.009435607 -0.14226367 0.027900286 0.26334375 -0.11796405 -0.09162021 -0.24403772
0.21230328 -0.37985313 0.07457848 -0.20001464 -0.4822114 0.42419782 0.36400798 0.36771244
-0.3521229 0.07691407 0.33607525 -0.058182918 0.054012857 -0.10487542 0.04390039 -0.2674184

weight f4 [20]
00000000: 7d6e 483f 6f7c 773f 5a01 603f b0b8 563f
00000010: 0193 833f ab30 ae3f d74a 763f 2265 873f
00000020: c94a 813f b184 773f 9302 9c3f 0c3a 723f
00000030: 5623 923f 3211 5a3f 01ad 6b3f 6191 6c3f
00000040: 64ac 6f3f 67d0 a03f c546 8d3f f496 4a3f
0.7829359 0.96674246 0.8750206 0.8387556 1.0279237 1.3608602 0.96207947 1.0577738
1.0100948 0.96686846 1.2188286 0.9461982 1.1417034 0.8518249 0.9206086 0.9240933
0.9362242 1.2563599 1.1037222 0.79136586

bias f4 [20]
00000000: 07d7 303f fb02 8a3f 2b69 343f 47d3 35bf
00000010: 70dd 79bc a1cf 1a3e d665 9dbe 7735 64bc
00000020: c1d5 963e 86bb d73d 8624 183f aa33 cebd
00000030: 84b8 19bf 76da c1bb 8947 06be 8f80 913e
00000040: 4f50 abbe 9e75 4cbe 4ba6 e83d 8b78 7cbe
0.69078106 1.078216 0.70472974 -0.7102551 -0.015250549 0.15118267 -0.30741757 -0.013928763
0.29459956 0.10533814 0.5943073 -0.10068448 -0.60047174 -0.005915935 -0.13113226 0.28418395
-0.33459708 -0.19966742 0.11359843 -0.24655358

running_mean f4 [20]
00000000: af57 98be 2360 873f 2db0 4d3f ece8 a53e
00000010: f786 8dbe cf46 b8bf b608 53bf f4dd 95be
00000020: 8046 24bf 886d 5bbf ccce 87bf fc60 7cbf
00000030: 244b b93f c923 323e 67f1 4bbf 1597 76be
00000040: eebc 85bf fdb5 80bf 9682 823f 550d ebbe
-0.29754397 1.0576214 0.8034695 0.32404268 -0.27642033 -1.4396609 -0.82435167 -0.292709
-0.64170074 -0.85714006 -1.0609984 -0.98585486 1.4476056 0.17396463 -0.79665226 -0.2408107
-1.0448282 -1.0055538 1.0196102 -0.4590861

running_var f4 [20]
00000000: 9fed 723a f95f 603c 8562 003c 83bc ac3a
00000010: 1f4d 643a 4360 cd3c 42bd 093c 0656 9c3a
00000020: ad97 9e3b b1e2 103c ed29 603c 189b 453c
00000030: 4443 d23c 60c8 ce39 e24a fc3b c529 863a
00000040: 3885 533c 7931 4c3c 3c75 533c 19b8 3e3b
0.00092669757 0.013694757 0.007835989 0.001317874 0.00087090017 0.025070315 0.008406939 0.0011927492
0.0048398585 0.00884311 0.013681871 0.012060903 0.02566684 0.00039440673 0.0076993564 0.0010235837
0.01291018 0.012462967 0.012906369 0.002910143

weight f4 [20]
00000000: c072 e93f 5d96 783f 0f20 db3f 3ce0 673f
00000010: 5104 a53f c891 963f 1f7e 903f 3dc6 843f
00000020: 7784 7f3f 736e 833f bf3d 683f c8e2 8d3f
00000030: 2440 e93f 8d70 873f 3916 613f 853d 893f
00000040: bbf1 b63f a292 803f 9638 ab3f 0247 603f
1.8238144 0.97104436 1.7119159 0.9057653 1.2891942 1.1763239 1.1288489 1.0372998
0.998115 1.0268081 0.9071922 1.1084833 1.8222699 1.0581223 0.87924534 1.0721899
1.429252 1.0044749 1.3376644 0.8760835

bias f4 [20]
00000000: 89df 55bc c639 3bbf fca6 483f 1abf b33e
00000010: 08e7 46be 0ec4 cfbe 4914 86bf 03da 593e
00000020: b1c8 ecbc 7363 bc3e d971 0c3d 19e1 19bf
00000030: 1996 68bf 2e25 bebe 64b8 453f a108 3d3f
00000040: 21dd 15bf ab44 67bf 9885 c0be 91b3 c83e
-0.013053783 -0.7313503 0.783798 0.35106736 -0.19424069 -0.40579265 -1.047494 0.21274571
-0.02890429 0.36794624 0.03428826 -0.60109097 -0.9085403 -0.3713774 0.7723448 0.7384129
-0.5854054 -0.90339154 -0.37601924 0.39199498

running_mean f4 [20]
00000000: 10d2 483f 0dd7 aebe fcbe 523e eb62 6bbf
00000010: dbf5 10bf 7e9d 80bd bac6 023f 61e6 193f
00000020: 3350 0e3f 89ef 0fbe d258 883f 6f62 f63d
00000030: c23c 78bf 92b8 adbe a2a4 e3bc c79b d53f
00000040: 7675 2c3f 9721 8b3f 65b1 5b3d fb5a 1b3f
0.7844553 -0.34148446 0.20580667 -0.9194781 -0.56625146 -0.06280039 0.5108448 0.60117155
0.55591124 -0.14056219 1.0652106 0.120304935 -0.9696771 -0.33929878 -0.027788464 1.6688164
0.6736673 1.0869626 0.053635973 0.606857

running_var f4 [20]
00000000: ea3c a43d 27fe 253d 59c3 103e 47ed 6c3d
00000010: c2d3 ff3d 589f 4c3d f312 4a3d 777f 9b3e
00000020: c38f 633e 2495 9b3d ba22 913d a5dd 1d3e
00000030: 1d5a 2b3c d9d8 903d 85b4 133e d3ca be3e
00000040: 0b20 3a3c 0e51 de3c 6d9e f83d 3871 f23e
0.08019431 0.04052558 0.14137019 0.057843473 0.124915615 0.04995665 0.049334478 0.30370685
0.2222281 0.07596806 0.07086702 0.15416582 0.010458496 0.070726104 0.14424331 0.37264118
0.011360179 0.02713826 0.12139592 0.47352004

weight f4 [20]
00000000: 5cdd 3840 bac8 5740 d182 5740 2c9a 1b40
00000010: 483b 3640 7c96 1840 846d 1640 1fb5 c93f
00000020: 95ef 1040 a7a9 f23f c478 8e3f e39e 2040
00000030: e896 3d40 8649 7240 1361 f23f 3e5f cc3f
00000040: 7cfb 2840 020d bf3f 7cdc 0f40 1f01 5c40
2.8885107 3.3716264 3.3673594 2.431285 2.8473682 2.3841848 2.3504343 1.5758399
2.264623 1.8958024 1.1130605 2.5096977 2.9623356 3.7857375 1.8935875 1.5966566
2.6403494 1.4925845 2.2478323 3.4375684

bias f4 [20]
00000000: 7498 de3e a688 15bf 64bd 783e 8155 9abd
00000010: 77b3 52bf 6890 89bd 9965 a73e c6ce b9be
00000020: 0932 233e e15b 9ebf 7a2d 98be a74e 8c3e
00000030: bd71 54bf 3ef3 293f dca6 debf 5df1 3dbf
00000040: 2c74 36bf 149d d33e 494c 8abf c812 313e
0.43475688 -0.58411634 0.24290997 -0.0753584 -0.8230509 -0.067169964 0.326947 -0.36290568
0.15937056 -1.2371789 -0.29722196 0.27403757 -0.8298605 0.66386783 -1.7394671 -0.74196416
-0.71271014 0.4133078 -1.080453 0.1729232

running_mean f4 [20]
00000000: 33e1 0dbf e746 983c cbe5 e23e dab3 be3d
00000010: fae7 b6bb daaf 4d3f 5335 77bf 6033 0dbd
00000020: 031c 0b3f db4f e33d c42f 82be 8b59 3e3e
00000030: cd23 213e f215 5bbf 1998 25bf 7cc2 f4be
00000040: dbfd f73e 6c8d a3be 5e1b e93e af32 6cbe
-0.5542175 0.018588496 0.44315943 0.09311648 -0.005581853 0.80346453 -0.9656574 -0.034472823
0.5433962 0.110992156 -0.25427067 0.18588845 0.15736313 -0.8558036 -0.6468521 -0.4780463
0.48435864 -0.31943834 0.45528692 -0.2306621

running_var f4 [20]
00000000: b300 cb3c 7727 953c 0f15 833d 84f1 3f3b
00000010: 6031 f23c 2a69 b53c 7f57 8c3c 83ae d73b
00000020: ad0e c63c 3740 db3b d42c 193d cae5 1b3d
00000030: d38f 3b3d 55a8 ed3c 7252 123d f373 4d3c
00000040: 43e5 c73c f527 fd3c f74b cf3c da4b 7c3d
0.024780607 0.018207295 0.06400501 0.0029288242 0.02956456 0.022144873 0.017131565 0.0065820827
0.02417692 0.0066910046 0.037396267 0.03806094 0.04579146 0.029010931 0.035723157 0.0125398515
0.024401313 0.030902842 0.025304778 0.061595775

weight f4 [4, 20]
00000000: 9237 913e d340 2c3f 30e2 5d3f b3ab 843f
00000010: 8cab b53f 8a0c 593f e34e 633f 28a6 6f3f
00000020: 1691 373e 6856 d5be 2841 cebe 3de5 de3e
00000030: 12e9 b13f dc67 c43e e573 40bf 0448 923f
00000040: a1b8 e63f 9f2e 603f 53dc 0e3f b451 843f
00000050: a4e9 09c0 adc3 543f f7f9 93bf 20cc 06c0
00000060: ae27 83bf 8083 463f 62ef 4ac0 fecf 48c0
00000070: ff3d 8fbf 8a9a ab3f 5b79 4c3f 119a 0ac0
00000080: eb44 82be 0a5d d6bf 88a6 263f 6965 50bf
00000090: d97f fcbf 518e d8bf 18d3 7c3f d328 4abf
000000a0: 0947 ea3e b1a9 fdbf fd63 653f 0429 89be
000000b0: 570d 593e b42b 05c0 a807 57bd eae3 f33c
000000c0: 331c 113f fa31 20c0 e0d4 eb3e 20a5 f53e
000000d0: 815a 51bf 1f34 08c0 9bed 9bbf f2d8 6bbf
000000e0: e2fc 61bf 81a9 06c0 a83c c6bf 95a6 eebf
000000f0: 6b2d c13e 6001 2b3f b2e9 eebf 018b d8be
00000100: 3b8f 5ec0 fb34 ffbf 397e 483f 0a2a 86bf
00000110: 9e3e d3bf 42ea 6d3f b257 2e3f 95fb 55bd
00000120: ac0c bfbf 88dd c13e d081 fa3f 5574 883e
00000130: 6c33 9abf 9ff1 683f 239c febf 9bb2 823f
0.2836271 0.67286414 0.8667326 1.0364898 1.4192977 0.8478476 0.88792247 0.9361291
0.1792644 -0.41667485 -0.40284085 0.4353427 1.3899252 0.38360488 -0.7517684 1.1428227
1.8025094 0.8757114 0.5580494 1.0337434 -2.1548853 0.8311108 -1.1560658 -2.1062088
-1.0246484 0.77544403 -3.1708608 -3.1376948 -1.1190795 1.3406537 0.79872674 -2.1656535
-0.25443205 -1.6747143 0.65097857 -0.8140474 -1.9726516 -1.6918432 0.98759604 -0.7896854
0.4575732 -1.9817411 0.89605695 -0.26789105 0.21196495 -2.0807924 -0.052497536 0.029771764
0.56683654 -2.5030503 0.46060848 0.47977543 -0.81778723 -2.1281812 -1.2181886 -0.9212791
-0.88276494 -2.1040957 -1.5487261 -1.8644587 0.37729964 0.66798973 -1.8665068 -0.42293552
-3.477492 -1.9938043 0.783176 -1.0481579 -1.6503484 0.92935574 0.6810256 -0.05224188
-1.4925742 0.37864327 1.9570866 0.26651254 -1.2046943 0.90993685 -1.9891399 1.0210756

bias f4 [4]
00000000: fd89 80bf 48e5 46bf 47f6 823f a741 8f3e
-1.0042111 -0.77693605 1.0231408 0.27979776
