dataset/ppi0/0.003_1000/model.pth (torch, 58990 bytes, 20 tensors)

bias f4 [60]
0	0xbc3f022d	-0.011658234
1	0x3e12313a	0.14276591
2	0x3df29c11	0.118461736
3	0xbcdd6070	-0.027023524
4	0xbd08fdcf	-0.033445176
5	0x3e48c409	0.19606031
6	0x3e3a078f	0.18166946
7	0xbbfcc965	-0.007714438
8	0x3c3b8aca	0.011446664
9	0x3dc0ba9a	0.094105914
10	0x3c0dc288	0.008652337
11	0x3e996b14	0.29964507
12	0xbb402d1a	-0.0029323758
13	0x3c4633f2	0.012097346
14	0xbded602b	-0.11590608
15	0x3d0922c2	0.033480413
16	0xbdb165b4	-0.086619765
17	0x3e14364d	0.14473839
18	0xbdbf56bf	-0.093427174
19	0x3a8823bb	0.0010386625
20	0xbc54597a	-0.012960786
21	0x3d91d5fc	0.071208924
22	0x3b049b04	0.0020233998
23	0x3def688f	0.11689865
24	0x3ebb449f	0.3657579
25	0x3db723a7	0.08942347
26	0x3c773285	0.015087728
27	0xbdc0ae55	-0.09408251
28	0xbd4ff8d3	-0.050774407
29	0x3da41345	0.08011488
30	0xbda2bf79	-0.07946677
31	0x3ccf802e	0.025329676
32	0x3d7e4322	0.06207574
33	0x3c26edcc	0.010188531
34	0x3c59c9c0	0.01329273
35	0x3e3e6265	0.18592222
36	0xbd3869c3	-0.045022737
37	0x3dc23647	0.09483009
38	0x3d20d1cb	0.039262574
39	0x3cfc9824	0.030834265
40	0x3ddef54b	0.1088663
41	0x3d99c300	0.075078964
42	0xbc4cf27c	-0.012508985
43	0x3dc74996	0.09730832
44	0x3cc16c6f	0.023611275
45	0xbd054188	-0.0325332
46	0x3dc23cc4	0.094842464
47	0xbd658bac	-0.056041405
48	0x3df0f003	0.117645286
49	0x3d65765f	0.05602109
50	0x3e1c9408	0.15290844
51	0x3e109791	0.14120318
52	0x3dfe0188	0.12402636
53	0x3c2bbff2	0.010482775
54	0x3e48f7b2	0.19625738
55	0xbddd5cff	-0.10808753
56	0x3cb9d12c	0.022682749
57	0xbc7d8f28	-0.015476026
58	0xbdf4c7c1	-0.119521625
59	0xbd30a952	-0.043130226

weight f4 [60, 50]
0	0xbefe9bcc	-0.4972824
1	0x3bf52623	0.007481353
2	0x3e6eea42	0.2333155
3	0xbbf5eddc	-0.0075051617
4	0xbf4691a7	-0.77566
5	0xbde6aacd	-0.112630464
6	0x3df4bc02	0.11949922
7	0x3e9efe4a	0.31053382
8	0xbe239755	-0.15975697
9	0xbd64f517	-0.0558978
10	0xbe0660a3	-0.13122801
11	0xbe91d044	-0.28479207
12	0xbdef914a	-0.116976336
13	0x3e2a87d4	0.16653377
14	0x3e0244f9	0.12721623
15	0x3e6300c5	0.22168262
16	0x3d5e07f3	0.0542068
17	0xbe420a78	-0.18949306
18	0xbbe3f0fc	-0.006956218
19	0xbec7ad66	-0.3899948
20	0x3cb71a60	0.022351444
21	0xbf154397	-0.5830626
22	0xbf2c2f22	-0.6725942
23	0x3edc6f02	0.43053442
24	0x39e90513	0.00044445004
25	0xbd01667d	-0.03159188
26	0x3e2c5d7f	0.16832541
27	0xbe897714	-0.26848662
28	0xbd41956e	-0.047261648
29	0xbe6102b3	-0.21973686
30	0x3e14bae6	0.14524421
31	0xbf8f0873	-1.1174453
32	0xbe83a8f9	-0.25714853
33	0x3dbc08a9	0.09181339
34	0xbf59d2ea	-0.85087454
35	0x3e0a0daf	0.13481782
36	0xbcd687a5	-0.026187727
37	0xbcb0d271	-0.021584721
38	0xbc9093f9	-0.017648684
39	0x3e00e958	0.12589014
40	0xbeb104da	-0.34574014
41	0x3e99b6c7	0.3002226
42	0x3f3f24e8	0.7466569
43	0x3cded4f1	0.027201148
44	0x3c41016e	0.011780126
45	0xbded08d6	-0.11573951
46	0x3e88cceb	0.2671884
47	0x3d48fdf2	0.049070306
48	0x3e72a7f5	0.23696883
49	0xbf26a52c	-0.6509578
50	0xbd735942	-0.059411295
51	0xbdd56fa6	-0.10421686
52	0x3d853e04	0.06505969
53	0xbe0fb0a9	-0.14032234
54	0xbdcc0626	-0.0996211
55	0x3e47bf4f	0.19506572
56	0x3c8cd73e	0.01719248
57	0xbf7dd43d	-0.99151975
58	0x3d3c526e	0.04597705
59	0x3ee33832	0.4437881
60	0xbe215961	-0.15756752
61	0xbeafbcde	-0.34323782
62	0xbe014a54	-0.1262601
63	0x3e8e4c82	0.27792746
64	0xbef70cb1	-0.4825187
65	0xbf3fc87b	-0.74915284
66	0x3df6e375	0.12055103
67	0x3e62fafc	0.22166055
68	0xbf1b1134	-0.60573125
69	0x3e1d7974	0.15378362
70	0xbd8c44c0	-0.068490505
71	0xbeca3306	-0.39492053
72	0xbddab902	-0.10679819
73	0xbe9831b8	-0.29725432
74	0xbc78fb30	-0.0151966065
75	0x3da6f0ba	0.08151384
76	0xbf3bab69	-0.73308426
77	0xbf76c082	-0.96387494
78	0xbe59954c	-0.21248358
79	0x3ea1de0d	0.31614724
80	0xbc045f1c	-0.0080793165
81	0xbe9df4f5	-0.3085095
82	0xbe91462f	-0.28373858
83	0xbf2a1ffb	-0.6645505
84	0x3e8e2da2	0.2776919
85	0x3e284ff8	0.16436756
86	0xbf470d9e	-0.77755153
87	0xbe87eccb	-0.26547846
88	0x3e105d3e	0.14098069
89	0x3de8c76a	0.1136616
90	0xbe701946	-0.23447141
91	0xbe464d7f	-0.193655
92	0x3ef20dd2	0.4727617
93	0xbe5cb9d5	-0.21555264
94	0xbe853df4	-0.2602383
95	0x3f06f005	0.5270999
96	0xbe0f884b	-0.14016835
97	0x3e3262ea	0.17420545
98	0x3d1ad655	0.03780206
99	0x3ea7dd0d	0.32785836
100	0xbe7432f1	-0.23847558
101	0x3e980fc0	0.29699516
102	0xbef113d8	-0.47085452
103	0x3e68e13f	0.22742175
104	0xbda10b6b	-0.07863506
105	0x3e4d1ab6	0.2002972
106	0xbefeb8bc	-0.49750316
107	0x3e935808	0.287781
108	0xbe30025c	-0.171884
109	0x3e473623	0.19454245
110	0xbe68e87f	-0.2274494
111	0x3f05fbdd	0.5233744
112	0x3dab2f2d	0.083586074
113	0x3f208b73	0.6271278
114	0x3d47f516	0.048817717
115	0x3d6154d2	0.05501253
116	0xbeb7b781	-0.3588219
117	0xbe2ce943	-0.16885857
118	0xbf117a74	-0.56827474
119	0x3e0fb8b1	0.14035298
120	0x3da66ec4	0.081265956
121	0x3dfb7ef6	0.12280075
122	0x3e0241cd	0.12720414
123	0xbddcf68c	-0.107892126
124	0xbd0a7814	-0.03380592
125	0xbe46b42a	-0.19404665
126	0x3eb847c2	0.35992247
127	0x3e1ccc99	0.15312423
128	0xbe5c5d49	-0.2151996
129	0x3e100138	0.14062965
130	0x3f0e0dc6	0.55489767
131	0xbe6aaae9	-0.2291676
132	0x3dbab35f	0.091162436
133	0x3f1c7a14	0.61123776
134	0x3e05e8f6	0.13077149
135	0x3e8cf349	0.27529362
136	0x3ec6e47b	0.38846192
137	0x3e39a9c0	0.1813116
138	0xbf7fd3f7	-0.9993281
139	0x3e20f4ba	0.15718356
140	0x3e7a2c6d	0.2443101
141	0xbe90c253	-0.28273258
142	0x3e5dce18	0.2166065
143	0xbcbef66b	-0.02331086
144	0x3d26eb12	0.040751524
145	0xbe03bf18	-0.12865865
146	0x3e1f25b5	0.15541728
147	0x3f008715	0.5020612
148	0x3cb2be2a	0.021819193
149	0x3f0b319e	0.54372585
150	0xbe7b5f9b	-0.2454819
151	0x3ee7ff5f	0.4531202
152	0x3e193f5b	0.14965574
153	0x3e069b39	0.1314515
154	0x3dec5edc	0.115415305
155	0xbe2162c6	-0.15760335
156	0xbd5667d7	-0.052345123
157	0xbf7cc9dc	-0.9874551
158	0x3d8666d0	0.06562579
159	0x3db58454	0.0886313
160	0xbcecd5e8	-0.028910592
161	0xbe8968a2	-0.2683764
162	0xbb13573f	-0.0022482423
163	0xbfe78fe9	-1.8090793
164	0x3e244ca1	0.16044857
165	0xbde73d09	-0.112909384
166	0xbe393550	-0.18086743
167	0xbeebfbda	-0.46090585
168	0xbefcd997	-0.49384758
169	0x3e0e6634	0.13906175
170	0xbec6dead	-0.38841763
171	0x3dcf01e1	0.1010778
172	0xbe7cee97	-0.2470039
173	0xbdf28878	-0.118424356
174	0x3e08193f	0.1329088
175	0xbf2c2a7b	-0.6725232
176	0x3ec9f436	0.3944413
177	0xbe68a595	-0.22719415
178	0xbec7f01c	-0.39050376
179	0xbf091608	-0.5354924
180	0x3e3741cc	0.17896193
181	0xbcb6336e	-0.02224132
182	0xbdd6f155	-0.10495249
183	0x3ee180aa	0.44043475
184	0x3ee0db17	0.43917152
185	0x3ea97f68	0.33105016
186	0xbdc4b0fa	-0.09604068
187	0xbef5e439	-0.48025683
188	0x3dbd29a4	0.09236458
189	0xbe8c4dcb	-0.274031
190	0xbe3aa38e	-0.18226454
191	0xbf1b6984	-0.6070788
192	0x3df14eb4	0.117825896
193	0xbe1a99b2	-0.15097693
194	0x3dce5b4e	0.10076009
195	0x3e4951a9	0.19660057
196	0xbe9e0798	-0.3086517
197	0xbe092bd5	-0.13395627
198	0x3e01e977	0.12686716
199	0xbec42f94	-0.3831755
200	0x3d25f121	0.04051316
201	0x3f393b25	0.7235587
202	0xbf4d7948	-0.80263186
203	0xbe3043f6	-0.17213425
204	0xbe85dcac	-0.26144922
205	0xbf123372	-0.5710975
206	0xbeb6980a	-0.35662872
207	0xbc4100c3	-0.011779967
208	0x3e39916a	0.18121877
209	0xbf0e22ba	-0.5552174
210	0x3d7b2b7f	0.061320778
211	0xbe9715a9	-0.29508713
212	0x3cb1ee45	0.021720061
213	0xbedbc0c4	-0.42920506
214	0xbf3858d2	-0.7201053
215	0xbf351546	-0.70735586
216	0xbe36fb1f	-0.17869233
217	0x3da9ef68	0.08297616
218	0xbf1a90d5	-0.60377246
219	0x3e936783	0.2878991
220	0xbe85e0bd	-0.26148024
221	0x3ca0262e	0.019549455
222	0x3e30131c	0.1719479
223	0x3d96fd3d	0.0737252
224	0xbf1ca182	-0.6118394
225	0x3d9f4e0e	0.077785596
226	0xbd058d2d	-0.03260534
227	0xbe1f7fb6	-0.15576062
228	0xbd4c4aa8	-0.049875885
229	0xbf340648	-0.70322084
230	0x3e4d4345	0.20045193
231	0xbdf87239	-0.12131161
232	0xbe6db58c	-0.23213786
233	0xbe705143	-0.23468499
234	0xbdb146e7	-0.08656102
235	0x3ea70a0f	0.32624862
236	0xbf1d4a9e	-0.6144198
237	0xbe9992c2	-0.2999478
238	0x3e504bf7	0.20341478
239	0x3dd846ec	0.10560402
240	0x3c8aeb63	0.016957944
241	0x3df1c758	0.118056
242	0xbe8c59da	-0.274123
243	0xbdcc00c4	-0.099610835
244	0x3dac4fa0	0.08413625
245	0xbd247c7c	-0.04015778
246	0xbf4dc07d	-0.8037184
247	0x3e6c21c1	0.23059751
248	0xbef40321	-0.47658637
249	0xbd8dcf29	-0.06924278
250	0xbda27afc	-0.07933614
251	0x3da861c4	0.08221772
252	0x3e95aa8c	0.2923168
253	0xbe6f97a2	-0.23397687
254	0xbeedb46d	-0.46426716
255	0xbcd6d035	-0.026222328

bias f4 [60]
0	0xbd48bbb8	-0.049007148
1	0x3e790c22	0.24321035
2	0xbd44bb2f	-0.048030075
3	0xbe1837be	-0.14865014
4	0xbdb8ace4	-0.09017351
5	0x3e2a3345	0.1662112
6	0xbe1d73b4	-0.15376168
7	0x3d64132e	0.055682354
8	0x3b406fe6	0.0029363572
9	0x3b333005	0.0027341854
10	0xbf806ae0	-1.0032616
11	0x3dd72534	0.10505143
12	0xbe13498b	-0.14383523
13	0xbf2df44d	-0.679509
14	0xbeaf97d4	-0.34295523
15	0xbe67b3e2	-0.22627214
16	0xbda1f3e6	-0.07907848
17	0x3ee6e91d	0.45099726
18	0x3e8f8638	0.28032088
19	0x3eb33fca	0.35009605
20	0x3e3bea84	0.1835118
21	0xbdbc39ba	-0.09190698
22	0xbce489b6	-0.027897697
23	0x3cf66e40	0.030081868
24	0x3d1e2b61	0.038615588
25	0xbdcb25fe	-0.09919356
26	0xbde58ae1	-0.1120813
27	0xbdcad8d0	-0.09904635
28	0xbdaea70c	-0.085279554
29	0x3dca9ae4	0.09892824
30	0x3d6e043b	0.058109503
31	0x3e6ecde4	0.23320729
32	0xbe1a6391	-0.15077044
33	0x3c496d8f	0.012294187
34	0xbf1da695	-0.6158231
35	0x3f5925e5	0.8482345
36	0x3cdac717	0.026706262
37	0xbeb1c99d	-0.3472413
38	0xbdf75443	-0.120766185
39	0xbe3b45f4	-0.18288404
40	0x3e05a48a	0.13051048
41	0xbf46af94	-0.7761166
42	0x3e095323	0.1341062
43	0x3d400666	0.046881102
44	0xbd980f77	-0.07424825
45	0xbe89891f	-0.26862428
46	0xbda15f22	-0.07879473
47	0xbe061a8b	-0.13096063
48	0x3e940ee1	0.28917602
49	0x3ec7a209	0.3899081
50	0x3c0e2a7e	0.008677123
51	0xbcd0f880	-0.025509119
52	0x3ba1d7bb	0.004939047
53	0x3e9da377	0.30788776
54	0x3e0b27b6	0.13589367
55	0xbecce050	-0.40014887
56	0x3ddc18f1	0.10746945
57	0x3e117c12	0.14207485
58	0xbec65050	-0.3873315
59	0xbdbc362c	-0.0919002

weight f4 [60, 60]
0	0x3dad965b	0.08475944
1	0x3eac8095	0.3369185
2	0xbc7e0b3c	-0.015505608
3	0xbea765f1	-0.32694963
4	0xbed9dba1	-0.42550376
5	0xbf1f9560	-0.62337303
6	0xbca93955	-0.02065722
7	0x3c93f2e0	0.018060148
8	0x3e72ca3e	0.23709962
9	0xbe484cfa	-0.19560614
10	0xbf5ab62b	-0.85434216
11	0x3e44bfbd	0.19213767
12	0xbd52d6ab	-0.051474255
13	0x3dcdc12b	0.100466095
14	0xbc1249d7	-0.008928738
15	0x3ea58848	0.32330537
16	0xbdb73ba7	-0.08946925
17	0x3e81e271	0.25368074
18	0x3f26d999	0.6517578
19	0x3da253ff	0.07926177
20	0xbe981d55	-0.2970988
21	0x3d6e9ce5	0.058255095
22	0x3ee7965b	0.452319
23	0xbd258b4c	-0.040416047
24	0xbe7b9187	-0.24567233
25	0xbebc8f72	-0.3682819
26	0xbe91c6de	-0.28472036
27	0xbe91b5d7	-0.28459045
28	0x3ed3d899	0.41376188
29	0x3ea932d0	0.3304658
30	0x3d8e57c8	0.06950337
31	0xbecb70dc	-0.39734542
32	0xbf52f4e8	-0.8240495
33	0x3edee6f4	0.43535578
34	0xbe7fd455	-0.24983342
35	0x3dd2accb	0.10286864
36	0x3e3a2689	0.18178762
37	0x3e97f419	0.2967842
38	0x3d8d3d31	0.06896437
39	0x3e89ce97	0.26915428
40	0xbde07d1e	-0.10961364
41	0xbf1b01bc	-0.6054952
42	0x3e6e600a	0.23278823
43	0x3eb5723d	0.3543872
44	0xbe480c99	-0.19536056
45	0x3e35c6e5	0.17751653
46	0x3e46008d	0.19336148
47	0x3e82aa94	0.25520766
48	0xbd1d9d0d	-0.038479853
49	0xbe428a77	-0.18998133
50	0xbd3284c1	-0.043583635
51	0x3d067ad2	0.032831974
52	0xbe5ea40c	-0.21742266
53	0x3ca5d237	0.02024184
54	0x3d2a52ca	0.04158286
55	0xbeaf3a50	-0.34224176
56	0xbce5c9d1	-0.028050335
57	0xbe1f2afb	-0.1554374
58	0x3eae2d21	0.34018806
59	0xbe1b7300	-0.15180588
60	0x3e3eb92f	0.1862533
61	0x3eea876a	0.45806438
62	0xbdbe4241	-0.09289981
63	0x3ec94117	0.39307472
64	0xbe34c3bc	-0.17652792
65	0xbf13e55b	-0.57771844
66	0x3e114e67	0.14190064
67	0x3e7d8950	0.24759412
68	0xbf6a132b	-0.914355
69	0x3eedcf7a	0.46447355
70	0xbedbc033	-0.42920074
71	0xbe921246	-0.28529567
72	0x3b694a8d	0.0035597414
73	0xbe698d49	-0.22807802
74	0x3e41baed	0.18918963
75	0xbea64010	-0.3247075
76	0xbf03cf02	-0.51487744
77	0x3e32c6d8	0.17458665
78	0x3e84f1ab	0.25965628
79	0x3ec4012d	0.38282147
80	0xbee9ffb9	-0.45702913
81	0x3e6a8915	0.22903855
82	0x3df36f44	0.118864566
83	0xbb0d46af	-0.0021557023
84	0xbe842b89	-0.25814465
85	0xbf0194b4	-0.5061753
86	0xbf187a5c	-0.59561706
87	0xbdc6c191	-0.097048886
88	0x3dc71f5b	0.097227775
89	0x3f0011d3	0.500272
90	0x3dac382e	0.08409153
91	0x3de71ddd	0.11284993
92	0xbe94f6d7	-0.29094574
93	0x3e713bce	0.2355797
94	0xbf0d6966	-0.5523895
95	0x3dc4e18d	0.09613333
96	0xbcfc89d7	-0.030827446
97	0x3edc13e8	0.42983937
98	0xbdafb475	-0.08579341
99	0xbcb87cb6	-0.022520404
100	0x3ca1121a	0.019661952
101	0xbe6ac5c1	-0.22927
102	0x3e362676	0.17788109
103	0xbcc68f33	-0.024238205
104	0xbecee832	-0.40411526
105	0xbe3d9fe8	-0.1851803
106	0x3edd6bd7	0.43246338
107	0xbe04498e	-0.12918684
108	0x3e823b6c	0.2543596
109	0x3dcf01f3	0.10107794
110	0xbaaaa987	-0.0013020494
111	0xbe2da7a0	-0.16958475
112	0x3ebc631e	0.3679437
113	0x3e42cf6d	0.19024439
114	0x3da8a831	0.08235205
115	0xbf01c906	-0.5069736
116	0x3bcb460c	0.0062034186
117	0x3da3fb37	0.080069
118	0x3e9a6740	0.30156898
119	0xbef1e685	-0.47246185
120	0xbd3993e9	-0.045307074
121	0xbe12e58b	-0.14345376
122	0x3ec14d49	0.37754276
123	0xbc9b1930	-0.018932909
124	0x3dca351a	0.098734096
125	0xbbccfa66	-0.0062554358
126	0x3dc2fdb6	0.09521048
127	0xbd97286e	-0.07380758
128	0xbedac5fe	-0.4272918
129	0x3e3ed392	0.18635395
130	0x3f110f9a	0.5666443
131	0x3d34d16e	0.04414504
132	0xbf1469dd	-0.57974035
133	0x3eab29b2	0.33430248
134	0x3e3b84f0	0.1831243
135	0x3dec1434	0.11527291
136	0x3c7f58be	0.015585123
137	0x3f1d4969	0.6144014
138	0x3e0d5ba2	0.13804486
139	0xbd297b65	-0.041377444
140	0xbe01d59f	-0.12679146
141	0x3da2345b	0.07920142
142	0xbe9f6f0d	-0.31139413
143	0xbefd1ede	-0.49437612
144	0xbecfc0cf	-0.4057679
145	0x3dc1b072	0.094574824
146	0xbed8d50c	-0.42350042
147	0xbdfa9d1d	-0.12236998
148	0xbebdf44f	-0.37100455
149	0xbe87e3f3	-0.265411
150	0x3e188c7f	0.14897345
151	0xbe6026f1	-0.21889855
152	0xbed28c9a	-0.41122895
153	0x3ef272e3	0.47353277
154	0x3ebc7e27	0.36814997
155	0xbead58ec	-0.33856905
156	0xbe9a6614	-0.30156004
157	0xbdf941b0	-0.12170732
158	0xbe95cc62	-0.29257494
159	0xbe576424	-0.21034294
160	0x3d4de1dd	0.050264228
161	0xbe3d0ff3	-0.18463115
162	0x3e4cd150	0.20001721
163	0xbf5fd6ea	-0.8743731
164	0xbeb4eaeb	-0.35335478
165	0x3ede5e1c	0.43431175
166	0x3e33b110	0.17548013
167	0x3da393c6	0.0798717
168	0x3eca0f08	0.39464593
169	0x3ec0af7e	0.3763389
170	0xbee680dd	-0.4502019
171	0xbeaa219f	-0.33228776
172	0x3e68e124	0.22742134
173	0xbed13349	-0.4085944
174	0x3eb55029	0.3541272
175	0x3c3ee13a	0.011650378
176	0x3e6a9084	0.22906691
177	0xbe086ed8	-0.13323534
178	0x3e5946f3	0.21218471
179	0xbed76b34	-0.42073977
180	0x3ee3f833	0.44525298
181	0xbd6d94cb	-0.05800323
182	0x3eea4185	0.45753112
183	0xbf338a01	-0.7013245
184	0xbf13e0da	-0.5776497
185	0xbe91588f	-0.28387877
186	0xbd0677b3	-0.032828998
187	0xbdbbc59f	-0.091685526
188	0x3e1f7a71	0.15574051
189	0xbcc5e3aa	-0.02415641
190	0xbfab9668	-1.3405275
191	0x3ea0cfbb	0.31408486
192	0xbe87a536	-0.26493233
193	0xbe5bc945	-0.21463497
194	0xbe21789a	-0.15768662
195	0x3edc311c	0.43006217
196	0x3d159eb8	0.03652832
197	0x3d508f1e	0.050917737
198	0x3d03c1f4	0.03216739
199	0xbee5e269	-0.448993
200	0x3d6e335d	0.058154453
201	0xbe8e44fd	-0.2778701
202	0x3d803f29	0.06262047
203	0x3e722075	0.23645194
204	0xbf208d06	-0.62715185
205	0xbf23a91f	-0.63929933
206	0x3d012657	0.031530704
207	0x3de73e6d	0.11291204
208	0xbea0605a	-0.3132351
209	0x3f401794	0.7503598
210	0x3e4f2d14	0.2023204
211	0xbe7adff0	-0.24499488
212	0xbe997c9c	-0.29977882
213	0x3d799ecd	0.06094246
214	0xbbfab58d	-0.007651037
215	0x3e8db73e	0.27678865
216	0x3d2214cf	0.039570626
217	0x3efa808b	0.48926196
218	0xbf0cb225	-0.54959327
219	0xbe4a0f8b	-0.19732492
220	0x3d140255	0.036135036
221	0xbe0f06a5	-0.13967378
222	0x3d7d3b4d	0.06182413
223	0xbe499cbd	-0.19688697
224	0xbd42694c	-0.0474637
225	0x3dbf0b67	0.09328347
226	0xbefdd8f2	-0.4957958
227	0x3ee69ecd	0.4504303
228	0xbdf8aa1c	-0.12141821
229	0xbe37673e	-0.17910478
230	0x3de4c2eb	0.1116999
231	0x3eb0890c	0.34479558
232	0x3e2f7bba	0.17137042
233	0x3e5a5bd3	0.2132409
234	0x3de643e3	0.11243417
235	0x3dca69d0	0.098834634
236	0x3e176a61	0.14786674
237	0xbd0b74f2	-0.034047075
238	0x3e1084d7	0.14113174
239	0xbe153558	-0.1457113
240	0x3df1b054	0.1180121
241	0xbd3fc56c	-0.046819136
242	0xbef5def2	-0.48021656
243	0xbddc82ff	-0.10767173
244	0x3f1cd1db	0.61257714
245	0x3d96b0d8	0.07357949
246	0x3e436ce5	0.19084509
247	0x3df6842a	0.12036927
248	0xbd0a6894	-0.03379114
249	0x3e772582	0.24135402
250	0xbe1ecce7	-0.15507852
251	0xbf14de7e	-0.58151996
252	0xbcd2f67e	-0.025752302
253	0x3dc4b72b	0.09605249
254	0x3e13a925	0.14419992
255	0x3de63d78	0.11242193

bias f4 [60]
0	0x3e63b39e	0.22236487
1	0x3e2a40e2	0.16626313
2	0x3e198d7a	0.14995375
3	0x3d460ffd	0.04835509
4	0x3dc1d141	0.0946374
5	0xbe3f8805	-0.18704231
6	0x3c38ccdb	0.01127931
7	0x3f032ca8	0.51240015
8	0xbc622e86	-0.013805037
9	0x3e3a5a94	0.18198615
10	0x3cc66741	0.024219157
11	0x3eb03010	0.3441167
12	0x3f3d126c	0.73856235
13	0x3da49762	0.080366865
14	0x3dd9a935	0.10627977
15	0x3ddb02ee	0.10693918
16	0xbea1953f	-0.31559178
17	0x3e47ac9c	0.19499439
18	0xbe33d946	-0.17563352
19	0x3cc1071b	0.023562958
20	0x3ec7e606	0.3904268
21	0x3d27cae2	0.04096497
22	0x3b8e06e7	0.004334319
23	0x3ef27e63	0.4736205
24	0x3e3dbbee	0.1852872
25	0xbd949e54	-0.07256761
26	0xbdc5506b	-0.09634479
27	0x3dec5be8	0.11540967
28	0x3e32e5db	0.17470495
29	0x3e418cf5	0.18901427
30	0x3da44bd3	0.08022275
31	0x3cd0e813	0.025501287
32	0x3efeb8ad	0.4975027
33	0x3e27e9e1	0.16397811
34	0x3f092385	0.53569824
35	0xbe99541f	-0.29946992
36	0xbb732738	-0.0037102234
37	0xbd8af879	-0.06785674
38	0xbdca66b8	-0.09882873
39	0x3dfba855	0.12287966
40	0x3d79c24f	0.060976323
41	0xbc388451	-0.011262015
42	0x3c913432	0.017725084
43	0x3f4cc580	0.7998886
44	0x3e061f77	0.1309794
45	0xbdf6b83b	-0.12046858
46	0x3df9b0c6	0.1219192
47	0x3ce3b81e	0.027797755
48	0x3c4fedfe	0.012691019
49	0xbdbf1f72	-0.093321696
50	0xbc1550bb	-0.009113486
51	0xbe199e7b	-0.15001862
52	0x3dd41e90	0.10357392
53	0x3e52b678	0.20577419
54	0x3eef802b	0.46777472
55	0x3f023460	0.5086117
56	0x3d2b37f2	0.0418014
57	0x3dae1ee6	0.08501987
58	0xbc87c818	-0.016574904
59	0x3f3383df	0.70123094

weight f4 [60, 60]
0	0xbd030ba4	-0.031993523
1	0xbe8002d2	-0.25002152
2	0xbf8287e6	-1.0197723
3	0x3e0bebbe	0.13664147
4	0xbd3107b9	-0.043220256
5	0xbefa18cf	-0.48847052
6	0x3dc21ece	0.09478532
7	0x3eca7795	0.3954436
8	0xbb4a241a	-0.0030844272
9	0xbe88398d	-0.26606408
10	0x3eabea93	0.33577403
11	0xbc3b1742	-0.011419119
12	0xbecf4f80	-0.4049034
13	0xbcc7b418	-0.024377868
14	0x3e823c4e	0.25436634
15	0x3d6ae9c7	0.057351854
16	0x3bd5186f	0.006503157
17	0xbe6c9da1	-0.23107006
18	0x3d5a359e	0.05327379
19	0xbe96e377	-0.29470417
20	0x3e361609	0.17781843
21	0xb8531d71	-5.033374e-05
22	0x3c29e946	0.010370558
23	0x3cd9a132	0.026566122
24	0xbeed1e5f	-0.46312234
25	0xbefaff5d	-0.49022952
26	0xbe2a6363	-0.16639476
27	0x3e98428c	0.2973827
28	0x3e946b9c	0.2898835
29	0x3e86762e	0.2626204
30	0xbc78f1f6	-0.015194407
31	0x3e0d01c5	0.13770206
32	0x3e5201fe	0.20508572
33	0x3c130c57	0.00897511
34	0xbcae38b3	-0.02126727
35	0xbea98036	-0.3310563
36	0x3dcef7a6	0.10105829
37	0xbef74582	-0.48295218
38	0xbd56513e	-0.052323572
39	0x3c18ec02	0.009333612
40	0xbf32b40b	-0.69805974
41	0x3e08b1f4	0.13349134
42	0x3dfde782	0.12397672
43	0xbd628637	-0.05530378
44	0xbb919395	-0.004442642
45	0x3f142010	0.57861423
46	0xbf26d7af	-0.6517286
47	0xbdbeaad1	-0.093099244
48	0x3e6daa7f	0.2320957
49	0xbd90f677	-0.070782594
50	0x3e48c675	0.19606955
51	0xbe08bc36	-0.13353047
52	0xbddaac64	-0.10677412
53	0x3f0cb83b	0.54968613
54	0x3e8ef381	0.27920154
55	0xbdafabb5	-0.085776724
56	0xbf09792b	-0.5370051
57	0x3ebb50e0	0.3658514
58	0x3eaccf9d	0.33752146
59	0xbd3781d1	-0.044801537
60	0xbe95854d	-0.29203263
61	0x3daae37d	0.08344171
62	0x3f01d700	0.5071869
63	0x3dc495f8	0.09598917
64	0xbf2ec102	-0.68263257
65	0xbe597187	-0.21234713
66	0x3ec48493	0.38382396
67	0x3edaf3d6	0.42764157
68	0xbe13355f	-0.14375828
69	0x3cec5a65	0.028851697
70	0xbf427a5b	-0.7596795
71	0xbe12e2ea	-0.14344373
72	0x3de3c0c1	0.11120749
73	0xbdacaf6e	-0.08431898
74	0xbe8e2c5f	-0.27768227
75	0xbe122760	-0.14272833
76	0x3f07a8a5	0.52991706
77	0x3c9625fc	0.01832866
78	0x3e4f4ab7	0.20243345
79	0xbe4168a0	-0.18887568
80	0xbf571d4c	-0.8402908
81	0xbebacd10	-0.36484575
82	0xbeb44210	-0.35206652
83	0x3d84840b	0.06470498
84	0xbea8048b	-0.32815966
85	0x3dd32989	0.103106566
86	0x3e8f2102	0.2795487
87	0x3d2a7df1	0.041624013
88	0x3ed340a0	0.41260242
89	0xbe0d0a9c	-0.13773578
90	0xbe44fe65	-0.19237669
91	0xbe1b1b6f	-0.15147184
92	0x3f0f6243	0.5600931
93	0xbe2b09cd	-0.16702957
94	0xbd221d2a	-0.039578594
95	0xbf48a82c	-0.7838161
96	0x3e98e2c7	0.29860517
97	0xbe7dade5	-0.24773367
98	0xbe51b7dd	-0.20480295
99	0xbbec65f0	-0.0072143003
100	0xbe6fc776	-0.23415932
101	0x3e4ca548	0.19984925
102	0x3ec4cd5c	0.38437927
103	0xbef4fcea	-0.47849208
104	0xbe47d987	-0.19516574
105	0x3f003dde	0.500944
106	0xbdcf12c3	-0.101110004
107	0xbdd8ca33	-0.105854414
108	0x3de7f176	0.11325352
109	0xbeea4330	-0.45754385
110	0x3e45fc60	0.19334555
111	0x3db2cda8	0.08730632
112	0xbdba204f	-0.090881936
113	0x3b581559	0.0032971709
114	0xbe286de1	-0.16448165
115	0xbda9a2a4	-0.08282974
116	0x3ddcd30d	0.10782442
117	0x3e25facb	0.16208951
118	0xbe8309bc	-0.25593364
119	0x3eae7c74	0.34079325
120	0xbd1d8b07	-0.038462665
121	0xbdd5192d	-0.104051925
122	0x3ec39c30	0.382051
123	0xbc985d67	-0.018599225
124	0xbe7d18c2	-0.24716476
125	0xbee3002a	-0.44336063
126	0x3dce0f8b	0.10061558
127	0x3ed3b933	0.41352233
128	0xbebaa68c	-0.3645519
129	0x3ebebee3	0.3725501
130	0xbebb5b6f	-0.36593196
131	0x3d27304a	0.040817536
132	0xbdae6e5f	-0.08517145
133	0xbe8bd951	-0.27314237
134	0xbea4f8ae	-0.32220978
135	0x3cf4aa14	0.029866256
136	0x3ec220eb	0.3791574
137	0x3d9337fb	0.07188412
138	0xbd9b5097	-0.07583731
139	0xbe863a41	-0.2621632
140	0xbee70ec1	-0.45128444
141	0xbefed3df	-0.4977102
142	0xbeecfcea	-0.46286708
143	0x3d9c6b12	0.076376095
144	0xbeab6986	-0.33478945
145	0x3e9eb7c7	0.30999586
146	0xbe36b5c9	-0.17842783
147	0x3c1625c5	0.009164278
148	0xbce3a1bf	-0.027787087
149	0x3d3e4ad5	0.046458084
150	0xbe43a729	-0.19106735
151	0x3e1366ee	0.14394733
152	0x3ef1779e	0.47161573
153	0xbea5afb6	-0.3236062
154	0xbf2ad7ed	-0.66735727
155	0x3db48a43	0.08815434
156	0x3eae1d12	0.34006554
157	0x3b316186	0.0027066185
158	0xbd741c62	-0.05959738
159	0x3eaaae5d	0.33336154
160	0xbdfe54dc	-0.124185294
161	0x3ef02f27	0.46910974
162	0xbdad23c4	-0.084540874
163	0x3d8e1c4c	0.06938991
164	0xbe33571d	-0.175137
165	0x3e7f2ac5	0.24918659
166	0xbdf9d126	-0.12198095
167	0xbcba8dde	-0.022772726
168	0xbeccdc1c	-0.4001168
169	0xbf6be226	-0.9214195
170	0xbe4f01fa	-0.20215598
171	0x3edbbd2f	0.42917773
172	0xbd333239	-0.043749068
173	0x3dbc858f	0.09205162
174	0x3d77b127	0.06047168
175	0x3ea223e8	0.3166802
176	0x3e84ee28	0.2596295
177	0x3cac70c1	0.021049859
178	0xbf467847	-0.7752728
179	0x3e97e96b	0.2967027
180	0xbefe5418	-0.49673533
181	0x3dee7dac	0.11645064
182	0xbf10fba5	-0.5663398
183	0xbd39d384	-0.045367733
184	0x3db096a8	0.086224854
185	0x3ed89427	0.4230053
186	0xbe681579	-0.22664441
187	0xbd94b649	-0.07261331
188	0x3dcbc8af	0.09950387
189	0xbf06965e	-0.5257319
190	0x3e7392e0	0.23786497
191	0xbed24032	-0.41064602
192	0x3eb92140	0.3615818
193	0x3ea18253	0.31544742
194	0x3ec56f2a	0.38561374
195	0x3f0ba776	0.545524
196	0xbf01115f	-0.5041713
197	0xbf2f6ee3	-0.68528575
198	0xbd8fb02e	-0.070160255
199	0x3c9d0b15	0.019170323
200	0xbe15de50	-0.14635587
201	0xbdc6d6c6	-0.097089335
202	0xb915404e	-0.00014233703
203	0xbdbd631f	-0.092474215
204	0xbdab54d3	-0.08365788
205	0x3f39e07d	0.72608167
206	0xbed89435	-0.42300573
207	0x3ddcb17d	0.10776041
208	0x3e345037	0.17608725
209	0xbd66e6e6	-0.056372546
210	0xbe8c8fee	-0.2745356
211	0x3ed296c9	0.41130665
212	0x3e67cf7e	0.22637746
213	0xbac0a345	-0.0014697096
214	0x3c917e69	0.017760472
215	0x3eda7e7c	0.42674625
216	0xbdf5c2ac	-0.12000021
217	0xbe4776ab	-0.19478862
218	0xbe3dd6e5	-0.18539007
219	0x3e959f4c	0.29223096
220	0xbd9497b8	-0.072555006
221	0x3d9c33ed	0.076270916
222	0xbeea22ca	-0.45729667
223	0xbebe4288	-0.37160134
224	0xbdff46e6	-0.12464695
225	0x3e9b93bc	0.3038615
226	0x3e260f0f	0.16216682
227	0xbd614fdc	-0.0550078
228	0x3f38ce69	0.72189957
229	0xbec1f20c	-0.3787998
230	0x3e1ad3b7	0.15119825
231	0xbe94f530	-0.29093313
232	0xbf377f39	-0.716785
233	0xbe3c3c1a	-0.18382302
234	0x3e36333e	0.17792985
235	0x3cb07eca	0.021544833
236	0x3e468576	0.19386849
237	0xbdf513cd	-0.11966667
238	0x3d7ea364	0.06216754
239	0xbd52d052	-0.0514682
240	0x3d691f54	0.056914642
241	0x3d49246d	0.049107004
242	0xbd309260	-0.043108344
243	0xbefc6fba	-0.4930399
244	0x3e7530e2	0.23944429
245	0xbf50a613	-0.8150341
246	0x3d1546a4	0.03644432
247	0xbe268642	-0.16262153
248	0xbdc2acc6	-0.0950561
249	0x3e837fb3	0.25683364
250	0x3e3b7dad	0.1830966
251	0xbeb59267	-0.3546326
252	0xbdc622c5	-0.096746005
253	0x3e2e3734	0.17013246
254	0xbe904aff	-0.28182217
255	0x3ece181f	0.40252778

weight f4 [60]
0	0x3fbe12d3	1.4849495
1	0x3fb86e36	1.4408634
2	0x3fafc82d	1.3732964
3	0x3fe1a24e	1.7627656
4	0x3f94867b	1.160354
5	0x3fa186f6	1.2619312
6	0x3fb0a044	1.3798909
7	0x3fa3c54b	1.2794584
8	0x3f993352	1.1968787
9	0x3faf9fe6	1.3720672
10	0x3fb60b66	1.4222229
11	0x3fbca0f8	1.4736624
12	0x3fb32b28	1.3997545
13	0x3fa9223f	1.3213576
14	0x3fb727f8	1.4309072
15	0x3f9758a3	1.1823925
16	0x3fb02c0f	1.3763446
17	0x3fb6efea	1.4291966
18	0x3fd33e28	1.6503344
19	0x3fa13715	1.2594935
20	0x3fadc9ca	1.3577206
21	0x3faff234	1.374579
22	0x3f883095	1.0639826
23	0x3facabdf	1.3489951
24	0x3fd35c32	1.6512511
25	0x3fa4f01b	1.2885774
26	0x3fd2279b	1.6418337
27	0x3fbbc4b2	1.4669402
28	0x3fbf000e	1.4921892
29	0x3fbf2d35	1.4935671
30	0x3fb5142e	1.4146783
31	0x3f9dc8c2	1.2326891
32	0x3fa73f43	1.3066181
33	0x3fa88046	1.3164146
34	0x3fb4632f	1.4092768
35	0x3fad9d0b	1.3563551
36	0x3faaa61a	1.333194
37	0x3fab577c	1.3386073
38	0x3fb51cc9	1.414941
39	0x3fa8e329	1.3194324
40	0x3fbc6a38	1.4719915
41	0x3f974c8c	1.1820235
42	0x3f9dba7c	1.2322536
43	0x3fa6bd3d	1.3026501
44	0x3f98173b	1.1882089
45	0x3fa3d20b	1.2798475
46	0x3fc9ce2b	1.5766042
47	0x3f8ce247	1.1006554
48	0x3fdb1478	1.7115622
49	0x3fa4d080	1.2876129
50	0x3f9c1356	1.2193401
51	0x3fc16238	1.5108099
52	0x3fb8e47c	1.4444728
53	0x3fb31ae1	1.3992578
54	0x3fb30344	1.3985372
55	0x3f9831c3	1.1890186
56	0x3fae01ca	1.3594296
57	0x3fa54e50	1.2914524
58	0x3fa61061	1.2973748
59	0x3fa6edff	1.3041381

bias f4 [60]
0	0x3f079223	0.5295736
1	0x3d4c2a8c	0.049845263
2	0xbd8714f0	-0.065957904
3	0xbe318add	-0.17338128
4	0xbe8570e7	-0.260627
5	0xbe8a4af9	-0.27010325
6	0x3ea3293a	0.3186739
7	0x3e9ed4b6	0.3102166
8	0xbde01ef1	-0.109434016
9	0xbef48edd	-0.47765246
10	0xbf48276b	-0.7818515
11	0xbe439edd	-0.1910357
12	0xbe532310	-0.20618844
13	0xbec52239	-0.38502672
14	0x3c923bab	0.017850718
15	0x3ed12988	0.40851998
16	0xbe4222fd	-0.1895866
17	0x3d083559	0.033254
18	0x3f0587fb	0.52160615
19	0xbe0be5d0	-0.13661885
20	0xbe89c1fe	-0.26905817
21	0xbee87952	-0.4540506
22	0x3d6f98f7	0.058495488
23	0xbe410e9c	-0.1885323
24	0xbed3544c	-0.4127525
25	0xbead5244	-0.33851826
26	0xbec558ea	-0.385444
27	0xbcceb6e2	-0.02523369
28	0xbd88a6ee	-0.06672464
29	0x3d50c27e	0.050966732
30	0xbe43938a	-0.1909925
31	0x3cccc01f	0.024993954
32	0xbea1f417	-0.31631538
33	0x3eee4ade	0.46541494
34	0xbf12f596	-0.57405984
35	0x3ec97f68	0.39355016
36	0xbe1cf572	-0.15328005
37	0xbe244315	-0.16041215
38	0x3e7cd80f	0.24691795
39	0x3e587f5a	0.21142331
40	0xbe71c5fa	-0.23610678
41	0xbdb36db7	-0.08761161
42	0xbdd3226b	-0.10309299
43	0x3ca777d0	0.020442873
44	0xbe647ff2	-0.22314432
45	0xbc62c890	-0.013841763
46	0x3eb24056	0.3481471
47	0x3d122a9f	0.035685178
48	0x3df99794	0.12187114
49	0x3e647b19	0.22312583
50	0xbd5ed79e	-0.054404847
51	0xbd0dd25c	-0.034624442
52	0x3e52f43e	0.20600984
53	0x3dbe12ec	0.09280953
54	0xbd26755c	-0.040639266
55	0xbe27b016	-0.16375765
56	0xbce0f0bc	-0.027458541
57	0xbe47cf67	-0.19512711
58	0xbe298302	-0.16553882
59	0xbdcf7663	-0.10130002

running_mean f4 [60]
0	0xbca10e16	-0.019660037
1	0x3e19e646	0.15029249
2	0x3e20b87d	0.15695377
3	0xbd954b55	-0.07289759
4	0xbd254199	-0.040345762
5	0x3e3f8c96	0.18705973
6	0x3e468752	0.19387558
7	0xbb3942c0	-0.0028268546
8	0x3cb9d504	0.022684582
9	0x3d2bc96d	0.04194014
10	0xbdb432aa	-0.08798726
11	0x3e94143e	0.28921694
12	0xbc9a25d6	-0.01881687
13	0xbc6fb2ee	-0.0146300625
14	0xbe09fcfc	-0.13475412
15	0x3d5fe9ee	0.054666452
16	0xbdb76e1d	-0.08956549
17	0x3dc07489	0.09397227
18	0xbdc732a0	-0.09726453
19	0x3c88118c	0.01660993
20	0xbc0ef7ba	-0.008726055
21	0x3da910ec	0.08255181
22	0xbcd0ea3d	-0.025502319
23	0x3dd3db5a	0.10344572
24	0x3edd5b89	0.43233898
25	0x3dc73577	0.097269945
26	0xbca45518	-0.020060107
27	0xbdcfe700	-0.10151482
28	0xbd2eef9b	-0.042708974
29	0x3df7ae79	0.12093825
30	0xbd71b01f	-0.059005853
31	0x3d2c3276	0.04204031
32	0x3d0fed10	0.03513819
33	0x3c2e4e45	0.010638778
34	0xbc651852	-0.013982849
35	0x3e14652d	0.1449172
36	0xbd13df82	-0.036101826
37	0x3dbddecb	0.0927101
38	0x3d31f732	0.043448634
39	0x3d2497c0	0.040183783
40	0x3ddd8506	0.10816388
41	0x3d888200	0.066654205
42	0xbccf1fc6	-0.025283705
43	0x3cf21f39	0.029555904
44	0x3d0038a7	0.031304028
45	0xbcd347a8	-0.025791004
46	0x3de7e351	0.11322654
47	0xbcca9669	-0.024729924
48	0x3da41394	0.08011547
49	0x3d3dbf96	0.04632529
50	0x3e2fda26	0.17173061
51	0x3db02d13	0.08602347
52	0x3dc195b5	0.094523825
53	0xbbab1750	-0.005221285
54	0x3e328244	0.17432505
55	0xbde8a1c1	-0.11358977
56	0x3d0cd7b7	0.03438541
57	0xbccc5bde	-0.02494615
58	0xbe089a94	-0.13340217
59	0xbd579a68	-0.052637488

running_var f4 [60]
0	0x3ea99e8a	0.33128768
1	0x3eba59c0	0.363966
2	0x3e9d8a67	0.30769655
3	0x3ee300b4	0.44336474
4	0x3eb4c977	0.35309955
5	0x3e88ada0	0.26694965
6	0x3eaf845e	0.34280676
7	0x3ec95994	0.39326155
8	0x3e750cde	0.2393069
9	0x3ef2b1b9	0.47401217
10	0x3ef03f95	0.4692351
11	0x3e6ed46e	0.23323223
12	0x3ebe375c	0.3715161
13	0x3e9c8aed	0.30574742
14	0x3eb2cc06	0.34921283
15	0x3ea03fa8	0.31298566
16	0x3ea194ee	0.31558937
17	0x3e8b9cff	0.27268216
18	0x3e91a135	0.28443304
19	0x3e8d9f54	0.2766062
20	0x3e826ca8	0.25473523
21	0x3e87b7cb	0.2650741
22	0x3e7876f4	0.24264127
23	0x3e8bae43	0.2728139
24	0x3ec8d2d0	0.39223337
25	0x3ea71040	0.32629585
26	0x3e9feb51	0.3123422
27	0x3e86398c	0.2621578
28	0x3eb1ee7c	0.34752262
29	0x3e9d7778	0.3075521
30	0x3e570857	0.20999275
31	0x3ea0789d	0.3134202
32	0x3ea96885	0.33087555
33	0x3e996782	0.29961783
34	0x3ea9305a	0.33044702
35	0x3e9736be	0.29533952
36	0x3e932604	0.2873994
37	0x3eaed734	0.34148562
38	0x3e9fd918	0.31220317
39	0x3ec1cc84	0.37851346
40	0x3e888806	0.26666278
41	0x3e96ab1e	0.29427427
42	0x3eae1f95	0.3400847
43	0x3ee295c0	0.44254875
44	0x3e66205b	0.2247328
45	0x3eadf25e	0.33973974
46	0x3eb53915	0.35395113
47	0x3e902ea1	0.28160575
48	0x3e8f06b8	0.27934813
49	0x3e6a43d5	0.22877438
50	0x3e7da288	0.24769032
51	0x3ead3bf4	0.33834803
52	0x3eb63033	0.35583648
53	0x3e4da228	0.20081389
54	0x3e909e64	0.28245842
55	0x3ea750fd	0.32678977
56	0x3e656103	0.22400288
57	0x3e8debe8	0.27719045
58	0x3ea5b0ff	0.323616
59	0x3e9762b2	0.29567486

weight f4 [60]
0	0x3fdca174	1.7236772
1	0x3fae88cc	1.3635497
2	0x3fd7dfea	1.6865208
3	0x3fd534d7	1.665675
4	0x3fb1a85f	1.3879508
5	0x3ffc652a	1.9718373
6	0x3ff727ac	1.9308982
7	0x3fc47cb4	1.5350556
8	0x3ffee001	1.991211
9	0x3fc946f0	1.5724773
10	0x3fd6cd17	1.6781338
11	0x400482d4	2.070485
12	0x40044ef3	2.0673187
13	0x3fd8e38f	1.6944445
14	0x3fc7d762	1.5612605
15	0x400e4533	2.2229736
16	0x401d6e75	2.4598668
17	0x3fd237dc	1.6423297
18	0x3f84b6f9	1.0368339
19	0x3fd9a790	1.7004261
20	0x3fc61de9	1.5477878
21	0x3fd7834b	1.6836942
22	0x3f6a5cc0	0.91547775
23	0x3fbb071f	1.4611548
24	0x3f955364	1.1666074
25	0x4007a1ab	2.1192424
26	0x3fd95c94	1.6981378
27	0x3fc57105	1.5425116
28	0x3f9a7e67	1.2069825
29	0x3fc81379	1.5630943
30	0x3fd0c108	1.6308908
31	0x3fd9db5e	1.702007
32	0x3fe0dcb2	1.7567351
33	0x3fbbfa8d	1.4685837
34	0x3fe2d2c1	1.7720567
35	0x3fa71877	1.3054341
36	0x3fcd2a50	1.6028538
37	0x3fc9fd10	1.5780354
38	0x3fef9fb2	1.872061
39	0x3fa5ef17	1.296359
40	0x4014940b	2.3215358
41	0x3ffdfc52	1.9842627
42	0x3fcf6f96	1.6205928
43	0x40004b66	2.004602
44	0x3fcbf136	1.5932987
45	0x3fddb1b9	1.7319862
46	0x3fd31b83	1.6492771
47	0x3fec6910	1.8469563
48	0x4002a0c9	2.0410635
49	0x3fd991f8	1.6997671
50	0x3fe460b5	1.7842013
51	0x3f806cb1	1.003317
52	0x3fe0eb89	1.757188
53	0x400c3cd7	2.1912134
54	0x3fc30edd	1.5238911
55	0x3fcc8ab0	1.5979824
56	0x3feeebfa	1.8665764
57	0x3fddfc54	1.734263
58	0x3fdeca30	1.7405453
59	0x3fe07080	1.7534332

bias f4 [60]
0	0xbeaaa1d0	-0.33326578
1	0xbe890587	-0.2676203
2	0xbef4ccf2	-0.4781261
3	0xbe45e96b	-0.19327323
4	0xbed92a0b	-0.4241489
5	0xbf4f538c	-0.8098686
6	0xbf1b4fbc	-0.6066854
7	0xbe2b9827	-0.1675726
8	0x3cfc9a65	0.03083534
9	0xbe0f4694	-0.13991767
10	0xbf061c44	-0.5238688
11	0xbf69237c	-0.9106977
12	0xbd64558a	-0.05574564
13	0xbe486694	-0.1957038
14	0xbdf1a513	-0.117990635
15	0xbeb4039d	-0.35159007
16	0xbed46eeb	-0.41490874
17	0xbeffb423	-0.4994212
18	0x3e52b911	0.2057841
19	0xbd223a41	-0.039606337
20	0xbefd39fe	-0.49458307
21	0xbe95c83c	-0.2925433
22	0x3f231b8c	0.6371391
23	0xbe8ac556	-0.2710368
24	0xbefe3f95	-0.49657884
25	0xbec0457f	-0.3755302
26	0xbdd902e8	-0.105962574
27	0xbe385c71	-0.18004014
28	0xbf0c1a49	-0.5472761
29	0xbecf4c8b	-0.40488085
30	0xbe8477dc	-0.25872695
31	0xbf594468	-0.84870005
32	0xbee1fed2	-0.44139725
33	0xbebbedc3	-0.36704835
34	0xbf0665fa	-0.52499354
35	0xbf9f8656	-1.2462871
36	0xbe09980b	-0.13436906
37	0xbf086cdc	-0.53291106
38	0xbf0694f1	-0.52571017
39	0x3cbbae5a	0.022910286
40	0xbf132e90	-0.57492924
41	0xbf13b5a2	-0.57699025
42	0xbe53c532	-0.20680693
43	0xbf014fd1	-0.50512415
44	0xbf11a600	-0.5689392
45	0xbf05cbcd	-0.522641
46	0xbf1a4c5c	-0.60272765
47	0xbf22ba62	-0.6356565
48	0xbf0414d0	-0.5159426
49	0xbeac83ac	-0.33694208
50	0xbec272de	-0.37978262
51	0xbf26b58d	-0.65120775
52	0xbf2664c0	-0.6499748
53	0xbe44c668	-0.19216311
54	0xbf0783c1	-0.52935416
55	0xbe688576	-0.22707161
56	0xbe93ce5e	-0.28868383
57	0xbe46a223	-0.19397788
58	0xbf1fa53c	-0.623615
59	0xbeae743c	-0.34073055

running_mean f4 [60]
0	0x3f335c0a	0.70062315
1	0x3f3ccdb3	0.7375137
2	0xbf011830	-0.5042753
3	0xbe32a326	-0.17445049
4	0xbcb71ea7	-0.022353483
5	0xbf28c16a	-0.65920126
6	0xbf5a122a	-0.85183966
7	0xbdc7016a	-0.097170666
8	0xbf16169c	-0.5862825
9	0xbe64b6b8	-0.22335327
10	0xbfcd4a67	-1.6038331
11	0xbf945092	-1.1587088
12	0xbf335bc0	-0.70061874
13	0xc0071a25	-2.1109707
14	0xbef4d979	-0.47822168
15	0xbf24fc60	-0.64447594
16	0xbf556adf	-0.833662
17	0xbebfb072	-0.37439305
18	0x3f38b639	0.7215305
19	0x3f200f76	0.6252359
20	0x3effb152	0.49939972
21	0xbe185892	-0.14877537
22	0x3eaa1f2f	0.33226916
23	0xbe615391	-0.22004534
24	0x3f5bf893	0.8592617
25	0xbf10f2fa	-0.5662075
26	0xbf3abd12	-0.7294475
27	0xbbc969c8	-0.0061466433
28	0x3d0480d9	0.03234944
29	0xbfa29446	-1.27015
30	0xbe5bc00c	-0.21459979
31	0xbef8f673	-0.48625526
32	0xbf487944	-0.78310037
33	0xbf1ec074	-0.6201241
34	0xbf8bc57d	-1.0919644
35	0x3fe52bcd	1.7903992
36	0x3e8e85f2	0.27836567
37	0xbf5cf996	-0.8631834
38	0xbf5533e7	-0.8328232
39	0xbd9f764f	-0.077862374
40	0xbd898acb	-0.06715926
41	0xbfa682f0	-1.3008709
42	0xbe99533e	-0.2994632
43	0xbed07c1b	-0.40719685
44	0xbea61496	-0.3243758
45	0xbe5dbc0a	-0.21653762
46	0xbcac3e57	-0.02102582
47	0xbdb571cb	-0.08859595
48	0xbefe5ba6	-0.49679297
49	0xbee3f6c7	-0.44524214
50	0xbea1c805	-0.31597915
51	0x3d720ac9	0.059092317
52	0xbea02fef	-0.3128657
53	0xbefb1f19	-0.49047163
54	0x3ed36858	0.41290545
55	0xbfa6b5f3	-1.3024276
56	0xbf7ba418	-0.9829726
57	0xbeb19d9b	-0.34690556
58	0xbf347688	-0.70493364
59	0xbe8046d9	-0.25054052

running_var f4 [60]
0	0x3ed26dd3	0.41099414
1	0x3ed4c524	0.41556656
2	0x3eda00b0	0.4257865
3	0x3eb1d538	0.34732985
4	0x3eb0fd84	0.34568417
5	0x3ed5f644	0.41789448
6	0x3efc2945	0.49250236
7	0x3ecad2b5	0.39613882
8	0x3f1808be	0.5938834
9	0x3e9303de	0.28713888
10	0x3e712f57	0.23553215
11	0x3f564280	0.8369522
12	0x3ea781b8	0.32716155
13	0x3f4b4de3	0.7941572
14	0x3e98b0ca	0.2982238
15	0x3eb2c7b4	0.34917986
16	0x3eee0b23	0.46492872
17	0x3ed21a8a	0.41035873
18	0x3eb35cf7	0.35031864
19	0x3ea01c65	0.31271663
20	0x3ec00740	0.3750553
21	0x3eba26b7	0.36357662
22	0x3ec152a9	0.37758377
23	0x3ede2c19	0.4339302
24	0x3f20650a	0.62654173
25	0x3ebe7e86	0.37205905
26	0x3ef24f0f	0.47325942
27	0x3e61be38	0.22045219
28	0x3eab756d	0.33488026
29	0x3f38de57	0.72214264
30	0x3e8ea0b1	0.27856973
31	0x3ef16eb3	0.4715477
32	0x3ec2df3b	0.38060936
33	0x3efd41c7	0.49464247
34	0x3ee668ca	0.45001823
35	0x3ef9872a	0.48735934
36	0x3e9f6c32	0.31137234
37	0x3f13e022	0.57763875
38	0x3ec927db	0.3928822
39	0x3e919ae4	0.28438485
40	0x3f14fd32	0.58198845
41	0x3ea17ca5	0.3154041
42	0x3eabf217	0.33583137
43	0x3eb574ed	0.3544077
44	0x3eb46038	0.3522966
45	0x3e39bbae	0.18138
46	0x3ed0f5a3	0.40812406
47	0x3e9acda4	0.30235016
48	0x3eac2c4c	0.33627546
49	0x3ed170cb	0.40906367
50	0x3e8fe3ef	0.28103587
51	0x3f0699ba	0.5257832
52	0x3e91c72f	0.28472278
53	0x3f0083dc	0.502012
54	0x3ef4f49e	0.47842878
55	0x3f2fc554	0.68660474
56	0x3f15e1be	0.5854758
57	0x3ecabe74	0.3959843
58	0x3e99b50a	0.30020934
59	0x3eb155db	0.34635815

weight f4 [60]
0	0x400eb7cf	2.2299688
1	0x4001a7b5	2.025861
2	0x40010ee7	2.0165346
3	0x4008fe2c	2.1405134
4	0x3feae7aa	1.8351948
5	0x402592e3	2.5870903
6	0x400c3e1d	2.191291
7	0x400eef73	2.2333648
8	0x40060af4	2.0944185
9	0x4009daac	2.1539717
10	0x3fda9601	1.7077028
11	0x3fecddf8	1.850524
12	0x401c5c71	2.4431422
13	0x3fee49a6	1.8616226
14	0x3fe88600	1.8165894
15	0x3fe706e1	1.8048974
16	0x4007baf8	2.1207867
17	0x3ffa8944	1.957314
18	0x401a7443	2.413346
19	0x3fd21048	1.6411219
20	0x40005d58	2.0056973
21	0x40180c0c	2.3757353
22	0x3fdd1749	1.7272731
23	0x400d92aa	2.2120767
24	0x401bbc62	2.433373
25	0x400e1f58	2.220663
26	0x40106d04	2.2566538
27	0x3fe8c02d	1.8183647
28	0x3ff6d10d	1.9282547
29	0x3fd87863	1.6911739
30	0x4022636b	2.537318
31	0x3fcc4c20	1.5960732
32	0x4017833a	2.3673844
33	0x3ffe12ea	1.9849522
34	0x40049ba7	2.0720003
35	0x40139b81	2.3063662
36	0x3fed3a25	1.8533369
37	0x3fdc392e	1.720495
38	0x40098ad6	2.1490989
39	0x3ff75ec1	1.9325792
40	0x400c1529	2.1887915
41	0x3fdcdb50	1.7254429
42	0x3fb9d3b6	1.4517734
43	0x4023f981	2.5621035
44	0x4005de2d	2.0916855
45	0x4035a538	2.8382092
46	0x3fed6990	1.854784
47	0x4024dd8e	2.5760226
48	0x400d09c0	2.20372
49	0x3fdcfc1a	1.7264435
50	0x3ff771d1	1.9331609
51	0x400b0e02	2.17273
52	0x3ff3052c	1.8985953
53	0x40047840	2.0698395
54	0x400f61ab	2.2403362
55	0x3ffc699f	1.9719733
56	0x3fdcf3c5	1.7261893
57	0x40095071	2.1455348
58	0x40126161	2.2871935
59	0x401316d8	2.2982693

bias f4 [60]
0	0xbf84f7be	-1.0388105
1	0xbff0af0c	-1.880342
2	0xbfb89782	-1.4421237
3	0xbf86e015	-1.0537134
4	0xbfa0c07c	-1.2558742
5	0xbfe1b61f	-1.7633704
6	0xbf9ccf29	-1.225072
7	0xbf558c4a	-0.8341719
8	0xbf9778c7	-1.1833733
9	0xbf8adeb4	-1.0849214
10	0xbf80bfc7	-1.0058526
11	0xbfa6f162	-1.3042414
12	0xbf8057d2	-1.0026801
13	0xbf8eb0f2	-1.114775
14	0xbf8ed214	-1.1157861
15	0xbfbf5d82	-1.4950411
16	0xbfae710f	-1.3628253
17	0xbfb5e2a3	-1.4209789
18	0xbfaf8ee6	-1.3715484
19	0xbf8dfe60	-1.1093254
20	0xbf25f826	-0.6483177
21	0xbfa680e7	-1.3008088
22	0xbf7c55ef	-0.98568624
23	0xbfa41ec1	-1.2821885
24	0xbfe36218	-1.7764311
25	0xbfc28f13	-1.5199913
26	0xbf8613ac	-1.0474753
27	0xbfa79467	-1.3092164
28	0xbfd4b520	-1.6617775
29	0xbfa79401	-1.3092042
30	0xbfd746c5	-1.6818472
31	0xbf67658a	-0.9038931
32	0xbf9f9efe	-1.2470396
33	0xbf4bff32	-0.7968627
34	0xbf2180da	-0.63087237
35	0xbfe2a72c	-1.7707267
36	0xbfaeb170	-1.36479
37	0xbf79acff	-0.97529596
38	0xbfd478c6	-1.6599357
39	0xbf4beb60	-0.7965603
40	0xbfce7971	-1.6130811
41	0xbf9743ee	-1.1817605
42	0xbf68cf8a	-0.9094168
43	0xbf8a64b4	-1.0811982
44	0xbfab2ec5	-1.3373648
45	0xbff77215	-1.933169
46	0xbfa2f4d2	-1.2730963
47	0xbfdae346	-1.7100608
48	0xbff36c56	-1.9017437
49	0xbfa841ab	-1.314504
50	0xbfa6affd	-1.3022457
51	0xbfea5361	-1.8306695
52	0xbf9102b8	-1.1328955
53	0xbfb52914	-1.4153161
54	0xbf7cc4c3	-0.98737735
55	0xbf40298e	-0.7506341
56	0xbf9fc871	-1.2483045
57	0xbfa94150	-1.3223057
58	0xbf9a7336	-1.206641
59	0xbf4cf5bc	-0.8006246

running_mean f4 [60]
0	0xbd868d6f	-0.06569945
1	0xbeb5bb8c	-0.3549465
2	0xbf0c50e2	-0.5481092
3	0xbe34c9d3	-0.17655115
4	0xbe6d77ed	-0.2319028
5	0xbf42cee7	-0.7609696
6	0xbe54c04c	-0.2077648
7	0x3f149386	0.580376
8	0xbe1b6820	-0.1517644
9	0x3e290038	0.1650399
10	0xbea7c0a9	-0.32764176
11	0xbf032309	-0.51225334
12	0x3f44c3f2	0.7686149
13	0xbe6d6292	-0.23182133
14	0xbe3a7d22	-0.18211797
15	0xbde3178a	-0.11088474
16	0xbf903c23	-1.1268352
17	0xbef66af2	-0.48128468
18	0xbef19dc0	-0.47190666
19	0xbe67ae09	-0.22624983
20	0x3f2827c9	0.6568571
21	0x3d30b1d4	0.04313834
22	0xbe2cbb34	-0.16868287
23	0x3e699ed0	0.22814488
24	0xbed05096	-0.40686482
25	0xbf2421d2	-0.64114106
26	0xbece6f8a	-0.40319473
27	0xbecb74a3	-0.39737424
28	0xbe5a8648	-0.21340287
29	0xbebfaaeb	-0.37435088
30	0xbe527b93	-0.20554952
31	0xbe3a6bb3	-0.18205146
32	0x3f0116d4	0.5042546
33	0x3edfe3b8	0.43728423
34	0x3f65d110	0.8977213
35	0xbf815ff0	-1.0107403
36	0xbefd9400	-0.49526978
37	0xbe1433cc	-0.14472884
38	0xbec7570c	-0.389336
39	0x3d9fbcf6	0.07799713
40	0xbc309fdc	-0.010780301
41	0xbe154446	-0.14576825
42	0x3cc8c90b	0.024509927
43	0x3f542860	0.8287411
44	0xbed50ba1	-0.41610435
45	0xbf257564	-0.6463225
46	0xbca51422	-0.020151202
47	0xbeb2b7f9	-0.34905985
48	0xbf3d2fff	-0.7390136
49	0xbdccf70b	-0.10008057
50	0xbe0b2d47	-0.1359149
51	0xbf69987a	-0.91248286
52	0xbefa1bda	-0.48849374
53	0xbeca2f01	-0.39488986
54	0x3f435c30	0.7631254
55	0x3f7226af	0.94590276
56	0xbc77c827	-0.015123404
57	0xbf0b010b	-0.54298466
58	0xbd9b9643	-0.075970195
59	0x3f7ec7f1	0.99523836

running_var f4 [60]
0	0x3e9543dd	0.29153338
1	0x3e9cd8c6	0.30634135
2	0x3ed2d809	0.41180447
3	0x3ea88090	0.32910585
4	0x3e9b1bf8	0.30294776
5	0x3e84696f	0.2586169
6	0x3e8baac9	0.27278736
7	0x3e58aef1	0.21160485
8	0x3e7e004e	0.24804804
9	0x3e6be856	0.23037848
10	0x3e8fe764	0.28106225
11	0x3ebc4d55	0.3677775
12	0x3e54258b	0.20717447
13	0x3eac44f8	0.3364637
14	0x3ec4eabb	0.38460335
15	0x3e97bacb	0.296347
16	0x3e9eda18	0.31025767
17	0x3ebcac34	0.3685013
18	0x3e724130	0.2365768
19	0x3ea2b604	0.31779492
20	0x3ea91fc4	0.33032048
21	0x3e86f151	0.26355985
22	0x3ec980b5	0.39356008
23	0x3e91439f	0.28371903
24	0x3eaab531	0.33341363
25	0x3ea4b0dd	0.32166186
26	0x3ea5d094	0.32385695
27	0x3ecbf351	0.39834073
28	0x3e99faff	0.30074307
29	0x3e9cb0f1	0.30603746
30	0x3eb4ca64	0.35310662
31	0x3ea52788	0.32256722
32	0x3e8ae6e8	0.27129292
33	0x3e6b2a01	0.22965242
34	0x3e75311f	0.2394452
35	0x3ea8114b	0.32825693
36	0x3eab330a	0.33437377
37	0x3ea6314d	0.3245949
38	0x3ebc6dab	0.3680242
39	0x3e83d84d	0.25750962
40	0x3e8885d5	0.26664606
41	0x3eb52923	0.35382947
42	0x3e608f5a	0.21929684
43	0x3e419e3f	0.18908022
44	0x3ea5866d	0.3232912
45	0x3ea4d642	0.32194716
46	0x3e924f10	0.28575945
47	0x3ecc9eab	0.39964804
48	0x3f038a87	0.5138325
49	0x3e89e49c	0.26932228
50	0x3ebc46eb	0.36772856
51	0x3eaf84b0	0.3428092
52	0x3eb8e476	0.36111802
53	0x3ea83f1c	0.3286065
54	0x3ebf0625	0.37309375
55	0x3e7d0791	0.24709918
56	0x3e7ebdc7	0.24877082
57	0x3ed54314	0.4165274
58	0x3e850b5a	0.25985223
59	0x3e907e29	0.28221253

weight f4 [2, 60]
0	0xbf84f98e	-1.0388658
1	0x3fa21062	1.266125
2	0x3f810dc5	1.0082327
3	0xbf8d222c	-1.1026053
4	0x3f82b29d	1.0210758
5	0xbf95843d	-1.1680981
6	0xbf7078da	-0.93934405
7	0xbf5132ee	-0.8171834
8	0xbf97efe6	-1.1870086
9	0xbf7449c4	-0.9542506
10	0x3f879f94	1.0595574
11	0x3f7a3865	0.977423
12	0xbf7d3a4e	-0.9891709
13	0x3f49fcde	0.7890147
14	0x3f6cc350	0.92485523
15	0x3f68e186	0.9096912
16	0xbf8acd46	-1.0843894
17	0x3f5631ba	0.83669627
18	0xbf9d4980	-1.2288055
19	0x3f745061	0.9543515
20	0xbf41a021	-0.7563496
21	0xbf946387	-1.1592873
22	0x3f83b970	1.0290966
23	0xbf91ac9c	-1.1380801
24	0xbf7d06ee	-0.988387
25	0xbf99e86e	-1.2024057
26	0xbf4f98bc	-0.8109243
27	0x3f829162	1.0200617
28	0x3f6721d4	0.9028599
29	0x3f6bbe64	0.9208739
30	0xbfa0a09a	-1.2549012
31	0x3f70d218	0.9407058
32	0xbf3ea12f	-0.74464697
33	0xbf360807	-0.71106
34	0xbf267785	-0.6502612
35	0xbf9e8d96	-1.2386959
36	0x3f2f9e9f	0.6860141
37	0x3f31e5b8	0.6949115
38	0xbf8b6774	-1.0890946
39	0xbf848574	-1.0353227
40	0x3f92bc56	1.1463726
41	0x3f817bce	1.0115907
42	0x3f77f1b2	0.9685317
43	0xbf80721c	-1.0034823
44	0x3f7ff928	0.9998956
45	0xbf8a5a78	-1.0808859
46	0x3f8ab572	1.0836623
47	0xbf76fa81	-0.9647599
48	0x3f62a286	0.8852924
49	0x3f81efe5	1.0151335
50	0x3f820c32	1.0159972
51	0xbfbe28ac	-1.4856162
52	0x3f8faf61	1.1225396
53	0x3f3e8b8a	0.7443167
54	0xbf73ab0b	-0.95182866
55	0xbf12bc41	-0.573185
56	0x3f63e600	0.8902283
57	0x3f519253	0.818639
58	0xbfaad8f8	-1.3347464
59	0xbece5e3a	-0.40306264
60	0x3f3d23e3	0.73882884
61	0xbf79e903	-0.9762117
62	0xbf68d0c6	-0.90943563
63	0x3f45d5f4	0.7727959
64	0xbf61b23c	-0.8816259
65	0x3fa3f9a6	1.2810562
66	0x3f870874	1.0549455
67	0x3f607e2e	0.87692535
68	0x3f67d3df	0.90557665
69	0x3f9251b6	1.1431186
70	0xbf51877a	-0.81847346
71	0xbfaef2bf	-1.366783
72	0x3f6afecc	0.9179504
73	0xbf2c7881	-0.67371374
74	0xbf949768	-1.1608706
75	0xbf559d47	-0.8344311
76	0x3f8c2df0	1.0951519
77	0xbfa12ed1	-1.2592412
78	0x3f93b20d	1.1538712
79	0xbf633bdf	-0.8876323
80	0x3f3ae667	0.73007816
81	0x3f87f388	1.0621195
82	0xbf81cb18	-1.0140104
83	0x3f87d179	1.0610801
84	0x3fb86f14	1.4408898
85	0x3f7ce6fe	0.98789966
86	0x3f58c516	0.8467573
87	0xbf892ab1	-1.0716153
88	0xbf9feaad	-1.2493492
89	0xbf8ebd98	-1.115161
90	0x3facc711	1.349825
91	0xbf9f9513	-1.2467369
92	0x3f5f4575	0.8721536
93	0x3f782636	0.96933305
94	0x3f5560b6	0.83350694
95	0x3fc08af7	1.5042409
96	0xbf665b59	-0.89983135
97	0xbf86ef3e	-1.0541761
98	0x3f44a751	0.76817805
99	0x3f45f74f	0.7733049
100	0xbf6cd144	-0.92506814
101	0xbf81b813	-1.01343
102	0xbf20d288	-0.62821245
103	0x3f92c1c3	1.1465381
104	0xbf783ac1	-0.9696465
105	0x3fb45697	1.4088925
106	0xbf744074	-0.9541085
107	0x3f8ebed9	1.1151992
108	0xbfb97440	-1.4488602
109	0xbf75d8f3	-0.96034163
110	0xbf3e456a	-0.7432467
111	0x3fa1b0d4	1.2632089
112	0xbf753726	-0.95787275
113	0xbf8e85ed	-1.1134621
114	0x3f29342c	0.6609523
115	0x3f20221d	0.6255205
116	0xbf52cb80	-0.82341766
117	0xbfa3061a	-1.2736237
118	0x3f64dc18	0.89398336
119	0x3f7f26cc	0.99668574

bias f4 [2]
0	0xbe3105e9	-0.17287411
1	0x3e4625b1	0.19350316
