dataset/bashapes/0.001_2000/model.pth (torch, 22107 bytes, 20 tensors)

bias f4 [20]
00000000: a973 7d38 ab4f e7b9 1dc7 80bb 7159 26bb
00000010: 77cd 27bb 9338 49bb 00fa acbb b597 2dbb
00000020: 2688 7c3b f2fb 4dbb 7d68 7a3a f18f 333b
00000030: 818c 673c adfb 6fbb 8596 98bb 87a1 ce3a
00000040: 9845 0c3b 64b6 54bb c62b e6bb f428 31bc
6.0427617e-05 -0.0004411911 -0.003929986 -0.00253829 -0.0025604644 -0.0030703887 -0.0052788258 -0.002648813
0.00385333 -0.0031430689 0.0009552313 0.0027399028 0.01413262 -0.0036618516 -0.004656615 0.0015764692
0.0021403786 -0.0032457346 -0.007024261 -0.010812987

weight f4 [20, 10]
00000000: 6eb1 20be 367e 7ebe 634d ccbd e647 39bd
00000010: 6598 3cbb cee4 2bbd 667c aebc b885 343d
00000020: c580 08bc 73a9 26be 75a2 85be de60 2a3d
00000030: bee3 423c 1c6c 22be fb98 5dbe 1ea1 ea3d
00000040: 711d a6bc 8f98 31bd 9a5a 56be 02c7 1b3e
00000050: db2f 1c3e e55a 773e ebd8 95bd 8416 8d3e
00000060: f055 68bc 87e2 97be 3e07 623e 1e65 983e
00000070: 2475 833e 67ba 8ebe 1133 46be 48f9 12be
00000080: b860 4c3e 6dfb 20be 3b56 b1bb bba1 a13e
00000090: 0bf6 b2bd 7377 b03e a97d 223e c1d8 743e
000000a0: 8279 393d ded3 b6be f6f6 273e f136 0c3e
000000b0: ef0b b1be 6b81 3bbe 22f3 b63d 5ff6 a6bd
000000c0: 95a1 91bd 1d5b fcbc 8557 073b 9f0e b83c
000000d0: ebfe 1e3e c3ea 0d3e 1c03 eabc d948 383d
000000e0: c62c 0f3e c0f6 833d 8d72 473e ba8a f73d
000000f0: 8e01 0cbe 4927 33be 5546 aabd 2808 72bd
00000100: 6451 6cbd e324 c93e 1c54 213e f1a6 f2bd
00000110: e907 203e 75ea d2be 021b 8fbb 440e cd3e
00000120: e9e6 e4bd 47b7 ea3d 23ca 933c 79f7 debe
00000130: 6f3e ba3e 36fc a63e e89d cbbd 1132 dcbe
00000140: 6fa0 923e 0504 953e ae78 97be bf04 59be
00000150: 5750 68be 79af 523e b1e1 6dbe 2f3d 28be
00000160: 49ef b83e 1293 27be 8f77 b53e d1ea c7be
00000170: 5e43 2b3e a2b8 acbd e6d4 8fbd 1aaa 8a3e
00000180: 8551 1f3e 9e43 e83e da55 c8be ac54 adbe
00000190: d72b c5be 7c21 9dbe c030 d43e 654c 193c
000001a0: 58b3 ca3c 15de 37be ba4c bebe 2d51 343e
000001b0: 7316 e43d 6679 863e d761 61be 79b6 0ebd
000001c0: 2810 27be a3d0 0bbd 7bb4 49be 1223 47be
000001d0: 97f0 f23d 9ed7 18bd ef4f 623c 990d b9bc
000001e0: 9abf 8f3c 2d02 973e f793 d7b9 0d68 6f3e
000001f0: 8f84 22bd 8d63 4cbe ce88 56be 1c56 91be
00000200: b0f3 1f3e 57e9 313e 0dbd 4abe 73e1 7ebe
00000210: f8a7 2cbc 8b85 983e e251 cd3e 2cfd 9cbc
00000220: 958b 8e3e c4df 7bbe 277e 733e 068a 023e
00000230: bc03 2f3d 3abd 493a 391e d13e c92d a93e
00000240: 00dc 943e 09e7 75be fe1b c0be f555 363e
00000250: ba1a 9d3d 6a80 adbe 9c06 e73c daed b8be
00000260: fc51 cb3e 0bd0 433e 56fb 9dba cd6d cc3e
00000270: b538 5abe 9bcc d8bd 8b9a 50be 8fa6 9c3e
00000280: 137c 2ebd 6488 713e b408 873e c5d3 46be
00000290: c316 6d3e 7866 183d bfb5 f0bd 0d80 863e
000002a0: ede3 4f3e 8041 12be 404a 99bd 8ccd 57be
000002b0: 3834 a03e 1ee0 b43e f455 cabe 9fda 3fbe
000002c0: 6212 d2bd 789d 423e 09e8 12bd bcf7 883e
000002d0: 4ce8 1abe 57b9 843e a14e fd3c c7c3 b4bd
000002e0: 1c8f 403e d1b3 17be 51f3 92be 4fa3 7ebd
000002f0: 3144 8fbe 0127 9bbd bdaf 48be dace b2be
00000300: 3fb7 443e 496a e6bd 9a86 8e3e 6080 603d
00000310: f6ec 99be 3814 993e 2ff1 05be cfdf a13e
-0.15692684 -0.24852833 -0.09975698 -0.045234583 -0.0028777358 -0.041966252 -0.021299552 0.044072837
-0.008331482 -0.16275577 -0.26100507 0.041596286 0.011895118 -0.15861553 -0.21640389 0.11456512
-0.02027771 -0.04335838 -0.20932999 0.15212634 0.1525263 0.24155767 -0.073167644 0.2755624
-0.014180645 -0.29665014 0.22073075 0.29764646 0.2567531 -0.2787659 -0.19355418 -0.14352906
0.1995877 -0.15720911 -0.005411891 0.31568703 -0.08738335 0.34466133 0.15868248 0.2391081
0.045281895 -0.35708517 0.16402802 0.13692833 -0.34579417 -0.18311088 0.08933093 -0.0815246
-0.071108975 -0.030805165 0.002065153 0.02246791 0.15526931 0.13859086 -0.028565936 0.044991348
0.13981923 0.06443548 0.19477291 0.12087007 -0.13672468 -0.17495455 -0.08314196 -0.05908981
-0.057694808 0.39285955 0.15754741 -0.11848248 0.15628017 -0.41194502 -0.0043672333 0.40049946
-0.11176855 0.11460739 0.018040722 -0.43548182 0.36375758 0.32614297 -0.099422276 -0.43006948
0.28638026 0.2910463 -0.2958426 -0.21193217 -0.22686897 0.2057475 -0.23230626 -0.1642959
0.3612006 -0.16364697 0.35442778 -0.39046338 0.16724917 -0.084336534 -0.07023029 0.27082902
0.15558441 0.45364088 -0.39128 -0.33853662 -0.3851001 -0.3068961 0.41443443 0.009356593
0.02474372 -0.17955811 -0.37167913 0.17609091 0.11137094 0.26264495 -0.22009979 -0.03484199
-0.16314757 -0.03413452 -0.19697754 -0.19446972 0.11862295 -0.037315004 0.013813003 -0.022589492
0.017547417 0.29493847 -0.00041118238 0.23379536 -0.0396772 -0.1995985 -0.20950624 -0.2838601
0.15620303 0.17374168 -0.1979868 -0.2489069 -0.010538094 0.29789385 0.40101534 -0.01916369
0.27840868 -0.24597079 0.23778592 0.12747964 0.04272817 0.00076957385 0.4084337 0.33042744
0.29074097 -0.24013914 -0.37521356 0.17806228 0.07671113 -0.33887035 0.028201394 -0.36118966
0.39710987 0.19122331 -0.0012053053 0.3992752 -0.21310695 -0.105859004 -0.20371453 0.30595824
-0.042598795 0.23587185 0.26373827 -0.19416721 0.23153214 0.037207097 -0.11753415 0.2626957
0.2030179 -0.14282799 -0.07484865 -0.21074504 0.3128984 0.35327238 -0.39518702 -0.18735741
-0.102574125 0.19005382 -0.035865817 0.26751506 -0.15127677 0.25922653 0.030921282 -0.08826404
0.18804592 -0.14814688 -0.2870126 -0.062167462 -0.27981713 -0.07575799 -0.19598289 -0.3492344
0.19210528 -0.11250741 0.27837068 0.054809928 -0.300636 0.29898238 -0.13080285 0.31616065

bias f4 [20]
00000000: 2f95 0ab5 cf15 9cb9 23de aeb9 25e4 35b7
00000010: 932d b839 cfed 99b9 b242 ce39 5336 d039
00000020: c63b 123a 1475 80ba 82ff 003a 8436 83ba
00000030: 7383 8739 76c9 e6b6 57b6 af39 855a 343a
00000040: 49ae 00bc daab e538 9c41 e0ba 7c29 bf39
-5.1626097e-07 -0.00029770887 -0.0003335337 -1.084156e-05 0.0003512917 -0.00029359615 0.00039341074 0.00039713326
0.0005578365 -0.0009800517 0.0004920886 -0.0010010754 0.00025847144 -6.8779873e-06 0.00033514455 0.00068799435
-0.007854053 0.00010951581 -0.0017109397 0.00036461267

weight f4 [20, 20]
00000000: 9b74 74be 133a b13e 1322 873e f32a 143e
00000010: 2d13 2ebe 80ff 57be b630 70be 8ceb 59be
00000020: 2666 0abe dfea 28be f38b 7e3e f6dd 60bc
00000030: 0e26 bb3e 5ec8 0abd 32d5 323e b622 923e
00000040: 89e7 123d 405a cd3d d439 333e 51f8 a0be
00000050: 216a bd3d 8869 b13e ac4e 8ebd 978f 13bd
00000060: 2ac6 84be b7a9 1d3e b325 cebd 6499 cebd
00000070: eae5 4cbe 4569 aebe 07c3 233e 60a1 05bd
00000080: a89d 843e 1d9f c83e 428b a03e d026 913e
00000090: c208 1f3e 9f98 90be 21e2 3a3d 5f1f 263c
000000a0: f8d8 793e bf72 d1bd ce72 03be 0220 2dbd
000000b0: aae1 193e 7b11 91be 0edf 25bd 9261 993e
000000c0: d40a 0c3e 8099 04bd 61ad 12be b701 d73c
000000d0: 8c1f fbbe 31b2 23be e6f7 f73e 4e97 80bc
000000e0: ffdd 6ebc 6767 fa3d 9431 9cbe 7085 693e
000000f0: 3d3e f03e 33b8 053f 36c9 973d 16e8 3fbe
00000100: 7657 8e3e a65a 29be 84e5 033d ecc7 883e
00000110: 1a5a e43e 2fef d5be c565 13be ae47 d03e
00000120: b97d 573e b1f5 1d3e 287f 8d3e 8786 8d3e
00000130: 8399 f4be 5c00 4abe 138e a43e a535 703e
00000140: a37e b7bd f446 0e3e e028 a3be 99f4 143e
00000150: 5dba 383e 2dd8 33be 9098 a33e 900d 19be
00000160: 9a6e 833e c760 ca3a 8351 233e 92b3 743e
00000170: bae4 663d ce03 fbbd 83c7 1b3d 4a54 e8bd
00000180: 6ed3 243e 770e 6f3e 0953 b13e bb78 933d
00000190: a7b6 873d 9024 fdbc fd22 dd3e 837a 113e
000001a0: be37 3ebe abbb 843e a39c 903e 2f9d b53d
000001b0: cf3f 1d3e 00b1 413e 51a7 913e e4ad 2d3e
000001c0: d9e3 853e 0f0d b83e 3710 ac3d bed3 c23d
000001d0: c3aa 7abc db13 7b3e ad60 5d3e d727 f5be
000001e0: 6a01 a9be 03d1 9a3d 6b1a d1be f30d 25bd
000001f0: 027b 133e 28aa 7f3d b10d 3fbb 8c70 7d3e
00000200: a3b8 b33d 877c 8dbe 3471 783e 9e85 cabd
00000210: a3b5 ce3c 421d 44be 1642 32be f892 303b
00000220: 061b 8abe 3c3d db3d 535f 27be 53a6 973e
00000230: 0520 75bc f4fb 6dbe 5429 a7be fdc7 753e
00000240: a0b1 4d3e b74f 54be 7781 36be 3571 c63e
00000250: 5669 003e 5532 c93d fea6 37bd 6f8c fc3d
00000260: 8b2b c53e 2d05 733e 8b60 6c3e f91e 19be
00000270: 9ddb bf3d e1ca c0bb 8085 713e 4169 c83e
00000280: e605 df3e 374b 97bd a988 113d 570b 7a3e
00000290: 19eb 9cbe 2d76 6c3e 050e 073e 2591 93be
000002a0: 5523 073f ff97 6bbd 1cd5 903e 9ae0 35be
000002b0: bd46 59be ab4c c3bc 4d42 19be 382f 5e3d
000002c0: e91f 8d3e dba3 58bd b101 8a3e 7880 f6bd
000002d0: db95 b23d c72f 13be 5c4a 47be cece c1be
000002e0: 6dc6 973e abe8 843e 0597 653d 8344 8bbc
000002f0: e1aa 5fbe e7e0 a93d bacb 70be 6d4e c13e
00000300: 08cd 35bd f9de b53e 2ddf d43c b975 01be
00000310: 1845 4e3e 8ac8 3c3e c1e8 86be 9ab3 ba3a
00000320: fe9a 1bbe 0b57 7a3e c75f b13e 50e9 73be
00000330: a08b 153e f21f 9b3e e6b8 39be edbd 2f3d
00000340: 5666 b33e 9488 a6be 5331 d2bd 2bce 98bd
00000350: 6b83 20be 3020 e3bd a235 d13e 3b2f 1ebd
00000360: 67eb e63d bf4a a83e ed4b 2d3e b0e6 4a3e
00000370: 706d a7bd 2f7f 843d ac14 c73d 2342 9abe
00000380: eb5c 203e 6de6 adbc edd3 d83c 345e a1be
00000390: ee1d b8bd b82c 00be baec c3be 164a 9a3e
000003a0: 5c8e 19be cd55 1c3d 6399 58bd 1949 91be
000003b0: af74 e7bc 62f8 393e 6391 d2bd def7 833e
000003c0: b67d 91be 13c2 a13d d386 c53e 1609 593e
000003d0: d711 7e3e 4fb7 af3d 3e51 b0bd 7fc7 db3d
000003e0: f071 483e a29e 16bd 0759 debc b2b7 0dbe
000003f0: a0a7 293c 3144 273e 73a5 353e 99a0 4dbe
-0.23872606 0.3461462 0.26393184 0.14469509 -0.16999502 -0.2109356 -0.23456082 -0.2128126
-0.13515529 -0.16495846 0.24858074 -0.013724795 0.3655247 -0.03388249 0.1746414 0.28542107
0.03586534 0.100269794 0.17502528 -0.3143945 0.09248758 0.34650826 -0.06948599 -0.03602561
-0.25932437 0.15396772 -0.10065784 -0.10087851 -0.2000958 -0.3406469 0.15992366 -0.032624602
0.25901532 0.39183894 0.31356245 0.28349924 0.15530685 -0.2824144 0.04562581 0.010139315
0.24399173 -0.10226964 -0.12836763 -0.042266853 0.1502749 -0.2833365 -0.040495925 0.29957253
0.13676006 -0.03237295 -0.14323951 0.026245935 -0.49047506 -0.15985943 0.4843132 -0.015697148
-0.014579295 0.12226754 -0.30506575 0.22804809 0.46922484 0.5223419 0.07411425 -0.18740878
0.27801102 -0.16538486 0.032201305 0.26715028 0.44599992 -0.41784045 -0.14394291 0.40679687
0.21044053 0.15425755 0.27636075 0.276417 -0.4777337 -0.197267 0.32139644 0.23457964
-0.08959701 0.13894254 -0.31867123 0.14546432 0.18039842 -0.17562933 0.31952333 -0.1494658
0.2567032 0.0015440219 0.15949063 0.23896626 0.056370474 -0.12256585 0.038032066 -0.11344202
0.16096279 0.23345362 0.34633663 0.07200762 0.06626635 -0.030901223 0.43190756 0.14206891
-0.18575951 0.2592443 0.28244504 0.08867871 0.15356372 0.18915176 0.28447965 0.16960865
0.26150396 0.35947463 0.0840153 0.09513043 -0.015299502 0.24519293 0.2161891 -0.47881958
-0.3300889 0.07559397 -0.40840468 -0.040296506 0.14402393 0.062418133 -0.0029152448 0.24749964
0.08775451 -0.2763407 0.24261934 -0.09888767 0.025233096 -0.19151786 -0.17408022 0.002694307
-0.26973742 0.10705039 -0.16344957 0.29619083 -0.014961247 -0.23240644 -0.32648718 0.2400207
0.2008729 -0.20733534 -0.17822824 0.38758245 0.12540182 0.09824053 -0.04483699 0.12331473
0.38509783 0.23732443 0.23083703 -0.14953221 0.0936806 -0.00588356 0.23586082 0.39142802
0.43559188 -0.07387393 0.03553072 0.24418388 -0.30648115 0.23091955 0.13188942 -0.28821674
0.5278829 -0.057518 0.2828759 -0.1776146 -0.21218391 -0.02384027 -0.14966698 0.05424425
0.27563408 -0.05289064 0.26954415 -0.12036222 0.08719989 -0.14373694 -0.1946196 -0.37853092
0.29643574 0.25958762 0.056052227 -0.017000442 -0.21842529 0.0829485 -0.23515216 0.37755147
-0.044384986 0.35521677 0.025985325 -0.12642564 0.20143545 0.18435875 -0.26349452 0.0014244199
-0.15195844 0.24447267 0.34643385 -0.2381947 0.14604044 0.3029781 -0.1813694 0.042905737
0.35039014 -0.32526076 -0.10263314 -0.074611984 -0.15675132 -0.11090124 0.4086123 -0.03861926
0.11275368 0.32869527 0.16923495 0.19814563 -0.081751704 0.06469571 0.0972074 -0.30128583
0.15660445 -0.02122804 0.026468242 -0.31517184 -0.08990084 -0.12517059 -0.38266546 0.30134648
-0.14995712 0.038167764 -0.052880656 -0.28376082 -0.028253881 0.18161157 -0.102816366 0.25775045
-0.28416222 0.07898345 0.38579425 0.21194872 0.24811493 0.08579885 -0.08609246 0.1073141
0.19574714 -0.036772378 -0.02714206 -0.13839605 0.010354906 0.16334607 0.17738895 -0.20080794

bias f4 [20]
00000000: 7ba1 8135 d6ee e43a dff7 f0b6 facb d0b9
00000010: 2237 0338 07c3 0438 56b6 b13a 1705 8ab9
00000020: 0519 d339 3215 73ba 458b 29b7 85c2 f1b8
00000030: 0001 3e39 0ca8 4bba f30a fd39 6866 b2ba
00000040: 611d a6b8 0e67 93b7 8c06 c8b8 4ca9 b43a
9.658246e-07 0.0017466198 -7.1814134e-06 -0.00039824826 3.128418e-05 3.1652886e-05 0.0013558369 -0.00026325203
0.00040263697 -0.00092728727 -1.0105611e-05 -0.000115280076 0.00018120185 -0.00077688764 0.00048264078 -0.0013610842
-7.920969e-05 -1.7571754e-05 -9.5379626e-05 0.0013783365

weight f4 [20, 20]
00000000: e933 ba3e 1159 a4be 21a2 8ebc 150f 0d3e
00000010: 0576 51be e4ac b13d e72a f7bd 84fb bd3c
00000020: 23d2 cfbd 0f59 863e bcae 873e a4de fabc
00000030: 1ca7 9a3e b8e0 2e3e 3040 833e ca48 cebc
00000040: e0ee cb3e 38fb a33e 828f 89be 4890 3f3e
00000050: d7ab 73be 65e5 d53c 830d 0abe 3114 883e
00000060: 8091 5cbd f674 e5bd a6a1 db3e 54a6 febd
00000070: cbb8 373e 1ad6 cdbd 9fd0 b7bd 9b6d 1fbe
00000080: 0bb4 943e 6f4b 2fbe c996 9bbe e6ab ecba
00000090: 2a56 bebd 9d1e e53e 13b8 79be 02cd e43d
000000a0: 237a 47be 0af9 2c3e 4bfd 35be 93f6 7bbd
000000b0: 4d90 2bbd ddb0 af3e ffef 1abe 2e76 09bf
000000c0: 2a1d b2bc dd85 39be 4f82 b1bc d397 603e
000000d0: dbbd 9c3e d660 e03b 310a 2a3e 6b9f 28be
000000e0: 7aa4 973d 7fe4 053e ae1a 59be 86fe fb3d
000000f0: 6cda 6abe 45b4 7e3e 5756 963c cf8e 913d
00000100: 745c f1bd 6bfb 213e 7936 b6bd 7f1a ad3e
00000110: 2fce e3bc 6474 ca3e 65aa fbbd 0068 ab3e
00000120: 3648 35be 622b b33d 1643 58be bc9d 12be
00000130: 2981 893e 0af7 4ebe d68b 81bd b639 53be
00000140: 7e86 013e 23ed 02be 5dd8 88be de1b 0c3e
00000150: 3c12 793d fd3c 6b3e 4950 57be 381c 163d
00000160: 3a96 9cbe 71ab 8bbd 7301 053e 2afd 8dbd
00000170: 39cf 5cbe 1cb6 8b3e 55e8 33be 2e06 cc3e
00000180: adcb e3bd b13a 62be 11d1 493e 74a4 a9bd
00000190: 6b97 423e 2f8a 8cbe 79e9 84bd 7a90 72bd
000001a0: 9f70 083e 8583 6cbe 0674 b93d 763b 23be
000001b0: f2e8 a1bc 4edd a7be e0a4 c1bc d70b f1be
000001c0: 6331 c03e b5e6 9b3e 8e5a ed3c eeb3 2b3e
000001d0: 0f63 b5be f4d0 863e db10 053e 438a dbbe
000001e0: d0d3 9d3e 8885 903e 41f7 63be d42c 35bd
000001f0: e225 d2bd cd65 5a3e 4d41 a53e e921 8ebe
00000200: 3e81 5cbc 2c3a 6bbe a86c af3d 693a 9b3e
00000210: f4fb febd 123f 083c 3df7 3c3d 2d32 973e
00000220: 86c5 e1bd 5cfb bebe 6639 84be 64ab 1fbd
00000230: 5f50 0cbe 2098 acbe 8ffc cfbe 33c2 453d
00000240: 52fe 7bbe a18b a33e 8bce 92be 911d b2bd
00000250: 0f92 be3a ad36 aabd 7734 423e b29e 65be
00000260: 59d8 06bd dc27 27bd 95d9 283d e09d 86bd
00000270: 3123 b3be 2333 b9bc 3a25 803e 9684 ac3d
00000280: de1b b3be c4d9 0e3e 4176 a43e 226b f33a
00000290: 27db 733e 97cd 333e 6ef5 163f 4150 9dbe
000002a0: 0058 37be 12ac 303e 072f 38bd 3ec7 59bd
000002b0: 3166 a1bd 5d7c 573c e24a 7fbe e733 693e
000002c0: 592b 373e 006d bd3e c4be eabe 5501 7ebd
000002d0: d5d4 223c 7a24 6e3e fc34 aebe 84f6 8c3e
000002e0: 2acd 6a3e 2978 f1be e723 4ebe 906d 463e
000002f0: b63c 3dbe a4fe 96be c82a 61be 04c4 09be
00000300: 6bc3 6ebd c597 bbbe fa49 9c3e 7028 6b3e
00000310: a077 9ebe ef7c 123d cf1f b23e aaeb 833e
00000320: bde7 ca3d f4b9 c03d 1dd9 eabd 8a15 61be
00000330: 2dee 0d3e 54a2 b1be 868f 41be f528 7d3c
00000340: 645d 373d d2b6 e1be 8b71 4bbe be97 1a3d
00000350: 20d2 a13e a6d9 4c3e e8da 953d dc47 063e
00000360: af5f 443e 729f 973e a6a9 96be e381 c1bd
00000370: e1fe 59be 0f30 14bd 9f88 6dbe 32f9 78be
00000380: 06c4 683e 7569 9a3e 798a c23d eaa8 8ebe
00000390: 7b99 e53c 0263 81ba b557 d43d 83f9 8e3d
000003a0: 8709 833e b6d2 a53d de83 89be c463 ca3d
000003b0: 38a1 023b fc29 13be 7eaf 783e f7d3 afbe
000003c0: dd82 6bbd dfc0 273d c599 b4bb 4f15 bcbd
000003d0: 724f 14be 245d 133e 2d69 6cbd 1e64 163c
000003e0: d6a1 3b3e b36c ce3e 17c1 81be 5345 8f3e
000003f0: 9db6 acbe afc3 ca3d 2479 7dbe 7224 3f3d
0.3636773 -0.32099202 -0.017411293 0.13775285 -0.20455177 0.086755544 -0.1206873 0.023191221
-0.10147502 0.2623982 0.265005 -0.030623741 0.3020562 0.17077911 0.2563491 -0.025181193
0.39830685 0.32027602 -0.268673 0.18707383 -0.2379602 0.02611036 -0.13481717 0.26577905
-0.053849697 -0.11203949 0.42896765 -0.12434068 0.17941587 -0.10050602 -0.08975338 -0.15569155
0.29043612 -0.1711862 -0.30388477 -0.0018056601 -0.09293778 0.4474992 -0.24386625 0.11171915
-0.19480185 0.16891876 -0.17772405 -0.06151445 -0.041885663 0.34314623 -0.15130614 -0.5369595
-0.021742422 -0.18117471 -0.021668581 0.21932916 0.30613598 0.0068474812 0.1660545 -0.16467063
0.07404418 0.13075446 -0.21201584 0.12304406 -0.22934884 0.24873455 0.018351717 0.07107317
-0.11785212 0.15818565 -0.088971086 0.33809277 -0.027808277 0.39541924 -0.122883596 0.33477783
-0.17703328 0.08748509 -0.21119341 -0.14317983 0.26856354 -0.20211425 -0.063255 -0.20627484
0.12648961 -0.12785773 -0.26727572 0.13682505 0.060808405 0.22972484 -0.2102672 0.036648005
-0.30583364 -0.06819809 0.12988834 -0.06933053 -0.21563424 0.27287376 -0.17569096 0.39848465
-0.111228324 -0.22092701 0.19708659 -0.0828332 0.19003074 -0.27449176 -0.06489844 -0.059219815
0.13324212 -0.23097046 0.09055333 -0.15940651 -0.019764397 -0.3278603 -0.023638189 -0.47079346
0.3753768 0.30449453 0.028973844 0.16767856 -0.35427138 0.26331294 0.12994711 -0.42878923
0.30825663 0.28226876 -0.22262289 -0.044232205 -0.10261132 0.21327896 0.32276383 -0.27760246
-0.013458548 -0.2297141 0.085656464 0.30318 -0.124504 0.008315818 0.046134222 0.2953047
-0.11024003 -0.37301147 -0.25825042 -0.03898181 -0.13702534 -0.33709812 -0.40622374 0.048280906
-0.24608734 0.31942466 -0.28673205 -0.086970456 0.0014539378 -0.0831121 0.18965326 -0.22423819
-0.03292117 -0.040809497 0.041223127 -0.06573081 -0.34987786 -0.022607392 0.25028402 0.08423726
-0.34982198 0.13950258 0.3212147 0.0018571357 0.23814069 0.17558895 0.58968246 -0.3072529
-0.17904663 0.1725314 -0.044966724 -0.053168528 -0.078808196 0.013152209 -0.2493091 0.22773705
0.1788763 0.36997223 -0.45848668 -0.06201299 0.009938438 0.23256102 -0.340248 0.27531826
0.22929826 -0.47161987 -0.20130883 0.19377732 -0.1848019 -0.2949115 -0.21988976 -0.1345368
-0.058291834 -0.36639228 0.3052519 0.22964644 -0.30950642 0.035763677 0.34789893 0.25765735
0.09907482 0.09410468 -0.11467192 -0.21980873 0.13860388 -0.3469416 -0.18902406 0.015451659
0.0447668 -0.44084793 -0.19867532 0.03774237 0.31605625 0.20004901 0.07317144 0.1311335
0.19177125 0.29613835 -0.29426306 -0.09448602 -0.21288635 -0.036178645 -0.23196648 -0.2431381
0.22731027 0.30158582 0.09499068 -0.27863246 0.028027287 -0.0009871426 0.10368291 0.06981184
0.25593206 0.080968305 -0.2685842 0.0988231 0.001993252 -0.14371485 0.24285695 -0.34341404
-0.057497848 0.04095542 -0.005511495 -0.09183752 -0.14483431 0.14390999 -0.05771749 0.009179143
0.18323454 0.40317306 -0.25342628 0.27982578 -0.33733073 0.09900605 -0.24753243 0.046665616

weight f4 [20]
00000000: 7958 853f 0837 7c3f 37ca 813f 35aa 813f
00000010: 946b 793f 0718 7f3f faa7 7b3f 3a71 793f
00000020: da3e 773f f47d 7c3f e8b1 773f 11d9 823f
00000030: 3d46 6e3f b3bf 843f 839f 843f 02cc 803f
00000040: fe3a 863f 3bdd 7d3f ad47 823f edb9 503f
1.0417625 0.9852147 1.0139836 1.0130068 0.97429776 0.9964604 0.98303187 0.97438395
0.9658028 0.9862969 0.9675584 1.0222493 0.93075925 1.0371002 1.0361179 1.0062258
1.0486753 0.99165696 1.0178124 0.815337

bias f4 [20]
00000000: 5286 8f3d c0d0 d73c 73c6 a43c a7fd 353e
00000010: 64bf 15bd a024 a7bd e30c 223d 34d0 b3bd
00000020: e057 af3d 7f39 e33b 26cf 5e3d 15df 173d
00000030: a29e 41be 69ce 203d ecf8 50bc 1a00 6d3b
00000040: e3ef 233d 88ab 1dbd 0407 903c 8ca7 7abe
0.070080414 0.026344657 0.02011416 0.17772542 -0.036559477 -0.081612825 0.03956307 -0.08779946
0.08561683 0.0069343443 0.05439677 0.037077982 -0.1890817 0.039259348 -0.01275466 0.003616339
0.040023696 -0.038493663 0.01758147 -0.24477977

running_mean f4 [20]
00000000: 0a03 36bf e822 10bf ac4a 3e3f e860 233f
00000010: b39e 1bbf f6fe 4f3f 46bb a6be 1521 083e
00000020: a70e 0fbe 4ec4 f13d 7c04 6ebe 77ce 3bbf
00000030: 449a 1a3e 0e89 163f 077f b43e 5e84 d63e
00000040: f198 343f b349 de3d 26a1 17bf 2d50 1c3d
-0.7109839 -0.5630326 0.7433269 0.6381974 -0.6078903 0.81248415 -0.32564753 0.1329387
-0.13970433 0.1180502 -0.23243898 -0.73361915 0.1509791 0.5880288 0.35253164 0.41897863
0.7054587 0.10853901 -0.5923027 0.0381624

running_var f4 [20]
00000000: 470b be3c 16ce 6d3c 15fa d13c 1759 9a3c
00000010: 34cf 893c 3734 fa3c f130 9a3b 4469 5d3a
00000020: 1ad5 783a 8e21 313a 05eb 233b 0de0 cb3c
00000030: e865 603a f19d 833c 48d1 bf3b 0400 033c
00000040: 26f4 b93c 6031 173a a4d2 803c 681d e638
0.023198737 0.014514467 0.025631944 0.01884131 0.016822435 0.030542476 0.0047055413 0.0008446167
0.0009492204 0.0006757014 0.0025011909 0.02488711 0.0008560107 0.016066523 0.0058538057 0.007995609
0.022699427 0.00057675503 0.015725441 0.00010972732

weight f4 [20]
00000000: f575 793f ce5c 7c3f 7542 8b3f 01d7 733f
00000010: 7368 783f 421b 833f 70b3 803f 2188 7d3f
00000020: ea52 703f 8676 683f 5e20 7b3f 7c87 6d3f
00000030: a37f 763f 58b8 7d3f b928 7f3f 5965 843f
00000040: affa 863f 15d1 7b3f f6cc 763f 9489 793f
0.97445613 0.9857911 1.0879656 0.95249945 0.97034377 1.0242693 1.005476 0.9903584
0.93876517 0.9080585 0.98096263 0.9278486 0.9628851 0.9910941 0.9967151 1.0343429
1.0545253 0.9836591 0.96406496 0.9747555

bias f4 [20]
00000000: 6bc9 80bd c2c3 0abd 9452 80bc 0ca4 943c
00000010: a0b3 183d 66e5 4f3e 09d2 c63e d438 85be
00000020: d226 4f3c 4212 12be 4605 113d d3ca 12be
00000030: 4b1e 133e 3ded bc3d d0a4 3ebe a8a1 023d
00000040: 445b 7ebe 2774 0f3e e593 1fbe 89a1 c73d
-0.062884174 -0.033878095 -0.015664376 0.01814463 0.03728068 0.20302352 0.3883212 -0.2601992
0.012643533 -0.14264777 0.03540542 -0.14335184 0.14367025 0.09224937 -0.18617558 0.03189245
-0.24839503 0.14009152 -0.15583761 0.09747607

running_mean f4 [20]
00000000: 6bca 7c3e e6a7 b33e 7989 c4bc 1849 0b3f
00000010: a83a a73e c943 8c3f 358a d4be c44f 123f
00000020: 5a89 c43e 2942 d93d ec85 df3e 5fca d0be
00000030: 753b ef3e efc4 353e a133 533d ffc8 ce3e
00000040: f96e 75bd af80 e33e bcdd 68be c91d 1ebf
0.24686591 0.35089034 -0.023991333 0.5440841 0.3266194 1.0958186 -0.41511694 0.5715296
0.3838604 0.10608322 0.43656862 -0.40779397 0.4672505 0.17750905 0.05156291 0.40387723
-0.059920285 0.44434115 -0.22740835 -0.617642

running_var f4 [20]
00000000: ff71 c83c 5aea 853d b008 ca39 a2db a13e
00000010: e532 de3d 5909 0f3f 154f 7f3d 38a2 453e
00000020: 2a3e 943d 3b48 543c fe8d f63d 1339 853d
00000030: a2d4 bd3d 5cb6 8a3d 18dd 0c3c 54de c63d
00000040: 55ca 3a39 acfb d93d a6ef d53c 89a5 1a3e
0.02446842 0.0653884 0.00038534915 0.3161288 0.10849551 0.5587364 0.062331278 0.19300163
0.07238419 0.012956674 0.120388016 0.06505027 0.09269072 0.067730635 0.008597635 0.097103745
0.00017813717 0.10643706 0.02611525 0.15102209

weight f4 [20]
00000000: e393 703f 6162 bc3f c9e3 cc3f de90 be3f
00000010: 6a80 d03f bef0 a73f e1b7 b93f 4223 bd3f
00000020: 83ac d13f 473b b63f 81a9 ac3f 62a5 b73f
00000030: b2f7 b53f b651 e33f bf56 f13f 20fa ba3f
00000040: 18ec c33f 9cfc ae3f ddc8 903f 0516 f73f
0.9397566 1.4717523 1.6007015 1.488796 1.6289189 1.3120344 1.450924 1.4776385
1.6380771 1.423684 1.3489228 1.4347346 1.4216216 1.7759311 1.8854598 1.4607582
1.5306425 1.367084 1.1311299 1.9303595

bias f4 [20]
00000000: 12fd 99bd a527 1ebe c66f 173f 6314 23be
00000010: ba6d 153f 8d9d a63e 3ec4 fd3e 63c0 c73e
00000020: 6e69 743e 8499 96be 6812 c63e ae7a da3e
00000030: 590f 3fbe da6b b83e aa8f 283e d3b0 aabe
00000040: 8338 283c 958a a93e 637a 233d 15c2 e23d
-0.075189725 -0.1544481 0.5915493 -0.15925746 0.58370554 0.32542077 0.49563783 0.39013967
0.23868343 -0.29413998 0.38685918 0.42671722 -0.18658198 0.36019784 0.16461053 -0.3333803
0.01026738 0.33113542 0.03991164 0.110721745

running_mean f4 [20]
00000000: 5534 233f c11d 473e 7ed6 1fbd 4417 32bd
00000010: 5aff e0bd e2b1 dbbd 28c7 1c3e a948 02bf
00000020: ed32 013f 4d3a 80be 44c8 0fbe aac9 69bd
00000030: b488 f83a 6f84 6dbe 9076 d53e 269a 68be
00000040: 32a9 323d 9aa1 29be ba56 a8bd 7232 9a3d
0.6375173 0.19444944 -0.039022915 -0.04347922 -0.109862044 -0.10727288 0.15310347 -0.5089212
0.5046833 -0.2504448 -0.14041239 -0.057077087 0.0018961639 -0.2319505 0.41692019 -0.22715053
0.04361839 -0.16565552 -0.08219667 0.07529153

running_var f4 [20]
00000000: c636 433f 0932 cd3a e8e3 c33c 5e75 b03a
00000010: db90 0b3e df75 633e f546 c13b ef1a e43c
00000020: e5a7 933c f6a7 5a3b 576c d63d b9a6 6e3c
00000030: 049c 913a 248d 503b 040c b63c 14f1 3c3b
00000040: ac82 353c c11c b83d c863 133c 3073 a23a
0.7625545 0.001565517 0.023912385 0.0013462713 0.13629477 0.22212933 0.0058983513 0.027844874
0.018024394 0.0033364273 0.10469883 0.014566117 0.0011109118 0.0031822408 0.022222526 0.0028830217
0.011078518 0.08989859 0.008995958 0.0012393948

weight f4 [4, 20]
00000000: 72fd 683e dffb e2bd 7521 1c3f 9ebf babe
00000010: f424 b83e fbb1 a33e 5f39 0f3f d6b0 d03e
00000020: 068e c5bd b526 4cbd 4841 da3e 071f 1d3e
00000030: fc69 dcbd 8aa6 8cbd a2f1 3abf 0a4a 65be
00000040: d125 c93d c2f2 323f 74fb 11bf 2ce0 55bf
00000050: a17e fbbc 74ba 6d3f 474c 34bc 855a d3be
00000060: 875e abbe b59c 24bf 1221 963e 35cb 49bf
00000070: 9ba8 e53e b8f3 17bf 839f e6be 2585 17bf
00000080: f897 0cbf db2a 44bf e8aa 223f 5d84 8ebf
00000090: da8d 73be f60f df3c 8279 133e 15e7 c23e
000000a0: 8086 01bf fcf9 50bf d0b0 aebe a5c9 413f
000000b0: 0cc9 0ebf 1eec 18bf ff97 86bf 318c 30bf
000000c0: 311d db3e 07ef bcbe 255b 893c 034f 12bf
000000d0: bdf7 5f3f 1d07 84bf d072 133f bf55 8dbe
000000e0: 9255 5c3f 5a95 b1be 8296 f23e b00e 4cbf
000000f0: 51e3 993e 9ce3 e5be 16c7 bdbd 3ab9 2fbe
00000100: e3c2 cebe 2f72 10bf 9518 d0be 3a9d 303e
00000110: 7ceb 71bf 68a2 373f ba10 07bf 4fee 28bf
00000120: d3da c7bc cf10 833d f254 fbbe 3adc 293f
00000130: 94c8 1ebe 5962 2ebf a2e1 c23e fc8f 4a3e
0.22752932 -0.11083197 0.6098855 -0.36474317 0.35965693 0.31971726 0.55946916 0.40759915
-0.096462294 -0.0498416 0.4262793 0.15343867 -0.107624024 -0.06867702 -0.7302495 -0.22391525
0.09821666 0.6990167 -0.5702431 -0.83545184 -0.03070003 0.9286263 -0.011004514 -0.41279998
-0.33470556 -0.64301616 0.29322106 -0.78825694 0.44855198 -0.5935626 -0.45043573 -0.5918754
-0.54919386 -0.7662789 0.6354203 -1.1134144 -0.23784581 0.02722929 0.1440182 0.38066927
-0.50595856 -0.81631446 -0.34119272 0.7569831 -0.55775523 -0.59735286 -1.0515136 -0.68963915
0.4279571 -0.36901113 0.016767094 -0.5715181 0.87487394 -1.0314671 0.57597065 -0.27604482
0.8606807 -0.3468426 0.47380453 -0.7970991 0.3005624 -0.44900215 -0.09266488 -0.17160502
-0.40383062 -0.5642423 -0.40643755 0.17247477 -0.94499946 0.7173219 -0.527599 -0.6598863
-0.024396336 0.0639969 -0.49088246 0.66351664 -0.15506202 -0.68118817 0.3806277 0.19781488

bias f4 [4]
00000000: 5f39 93be 533b 373d d7d6 6c3e d5c0 bbbe
-0.28754708 0.04473431 0.2312883 -0.36670557
